k-ICBC ex2/NN_Train_Result/First_Train/Control_model.pth (torch, 2847 bytes, 4 tensors)

weight f8 [10, 2]
0.5654535802035531 -0.7175553722364442 -0.2736047993799635 -0.19187812496810278 -0.0665302884132068 0.6077575825084097 -0.41010281463672077 0.05245340680887471
0.7482752269793721 -0.7412496345673627 -0.00033234152250824847 -0.46920907845341986 -0.4292710756162426 -0.17870721355138322 -0.366672717432908 0.5487222771028174
0.9975491426892953 -1.4012177715053507 -0.6626195856611247 1.6203130303647415
00000000: 052c 4c1b 3218 e23f 6763 1aaf 36f6 e6bf
00000010: bc65 57b4 bd82 d1bf 8924 c75f 768f c8bf
00000020: 9c9c ed04 2108 b1bf e7a0 9807 c072 e33f
00000030: 5d2f 37e0 1f3f dabf 26a5 9d45 2cdb aa3f
00000040: 7311 89e3 def1 e73f d670 5427 51b8 e7bf
00000050: 42fe 63f8 c3c7 35bf 2e66 bc83 8507 debf
00000060: 09fe b863 2d79 dbbf e998 e1c2 e0df c6bf
00000070: 2f6d 6dd8 9077 d7bf b5c8 5705 228f e13f
00000080: 881b 002e eceb ef3f 1e08 7353 636b f6bf
00000090: b350 43fd 2d34 e5bf 0130 2b5b cdec f93f

bias f8 [10]
0.35414897590946015 -0.20842481676233057 0.5395864094749518 -0.7827337136386995 0.4550130858455089 0.48869087022669816 0.11689232273854282 0.6055976557707468
0.9977591924750144 0.6572481632417755
00000000: 7e5a 5c77 60aa d63f dfa1 d515 aaad cabf
00000010: 92f3 c1b7 4a44 e13f 47c1 b192 270c e9bf
00000020: 1658 bd34 ef1e dd3f 858e 5e12 b646 df3f
00000030: d3c5 50bf a7ec bd3f 5a3a c255 0e61 e33f
00000040: 74d5 9eaf a4ed ef3f 0658 cf4c 2d08 e53f

weight f8 [1, 10]
0.952478415432265 -0.1017490636897105 -0.5576787534651109 0.2172307897226035 1.2357980067253735 0.009468926182253085 0.013296325150685335 -0.4185087010586541
0.5368618085225535 -1.17591741115585
00000000: eaad 8d03 b47a ee3f 5128 f204 3a0c babf
00000010: 78d0 f91c 81d8 e1bf 9e7b c5f0 37ce cb3f
00000020: 3a8f 7521 d4c5 f33f dd84 3fc2 7164 833f
00000030: b7f3 6e8d 1a3b 8b3f e4da 08b8 d8c8 dabf
00000040: cd6c c2d0 f82d e13f bc61 7bc6 8ed0 f2bf

bias f8 [1]
0.024672275974104145
00000000: 5ee7 b469 b043 993f
