k-ICBC ex2/NN_Train_Result/First_Train/Control_model.pth (torch, 2847 bytes, 4 tensors)

weight f8 [10, 2]
-0.9073632099081359 2.563199049094638 -0.04399011645780636 0.2664737790383437 0.30138503893963914 0.883813554227631 0.3233613348792126 1.0880127645328121
-0.1507151920836102 1.0420050277286526 0.03226408298110913 0.07246819234483823 -1.1405189140417549 1.840721709539518 -0.16155083520656602 -0.14751204630234246
-0.11277377141238538 1.4382449129574826 -0.1361512322698548 1.4289764146854367
00000000: d4c4 0492 1e09 edbf 87ff c780 6e81 0440
00000010: 2e28 115f df85 a6bf 9284 8d09 e80d d13f
00000020: c5f6 6f79 e449 d33f 116a e55c 3348 ec3f
00000030: 4037 86bd f3b1 d43f 9cc8 9412 8068 f13f
00000040: 1d36 81aa a24a c3bf 4fcb c576 0dac f03f
00000050: bb84 7afa ea84 a03f ae0e 1f84 468d b23f
00000060: da75 c4c2 903f f2bf ac26 789b 9873 fd3f
00000070: 9945 eda0 b2ad c4bf 873a 51bb ace1 c2bf
00000080: 0512 10ec bdde bcbf eea6 0c19 0d03 f73f
00000090: 3f5e f450 676d c1bf c044 7d5f 16dd f63f

bias f8 [10]
0.8555038479748722 -0.41775832589054906 -0.26813434324666463 -0.24459222863270105 0.646980895049271 -0.3881403953971625 0.36663633732066797 -0.5812594583500803
0.46931919825693647 0.744689405414266
00000000: 78ef 149b 4960 eb3f 3c39 d56a 8dbc dabf
00000010: 7e72 cbf2 1c29 d1bf 7da6 6a53 cc4e cfbf
00000020: 1ef3 2b47 11b4 e43f 4830 1fd0 4ad7 d8bf
00000030: cf51 9441 f876 d73f 2c56 836f ad99 e2bf
00000040: bc80 f963 5309 de3f 99d2 3de0 7ed4 e73f

weight f8 [1, 10]
-1.1575667580954538 0.06279554456797533 -0.24262341774929527 -0.1560610542848331 -0.3985781277763297 -0.015767238019610556 -1.2148076641573875 0.28486774835077305
-0.752216146222721 -0.765619361452168
00000000: b74e 8fb8 6485 f2bf d103 416a 5e13 b03f
00000010: 530d 3dbe 480e cfbf e993 2a02 cff9 c3bf
00000020: d2d0 ecd5 4d82 d9bf 01e5 916e 4925 90bf
00000030: 31c7 4729 da6f f3bf b782 b6ef 453b d23f
00000040: 7a97 7198 2712 e8bf 0ae3 d32c f47f e8bf

bias f8 [1]
5.557568560505145
00000000: ef96 b240 f33a 1640
