k-ICBC ex2/NN_Train_Result/First_Train/k_ICBC_model.pth (torch, 2847 bytes, 4 tensors)

weight f8 [10, 2]
0.18007545961536103 -0.16087647642861408 0.3102375018179007 0.07477790600410203 0.02627767520957656 0.3229033274748586 0.37403767137962923 -0.06622152324370265
-0.05696173797726202 -0.1947275560687477 -0.3070588317160708 0.475144067249903 -0.701287789906918 0.12831894873381072 -0.16770883092534822 -0.1686420439792514
0.03503346171202504 0.6136139475598917 0.23054434118761563 0.1891358376242371
00000000: 3619 ee70 b60c c73f 4672 7ab2 9997 c4bf
00000010: 6d3d 1365 eeda d33f 3e40 c014 a524 b33f
00000020: fb66 8fee 88e8 9a3f ca8a d1b7 72aa d43f
00000030: 490a 83b3 3bf0 d73f 5e7d 9fcc e4f3 b0bf
00000040: a2a8 78c3 162a adbf dcfe 7822 d5ec c8bf
00000050: 91c8 0a16 daa6 d3bf 3483 6ea9 c268 de3f
00000060: a57f 5717 f370 e6bf 9e68 225c c16c c03f
00000070: de91 09a4 7b77 c5bf 9b8c cfff 0f96 c5bf
00000080: d03b a3e8 e7ef a13f 4774 a4b7 b9a2 e33f
00000090: d2de d61a 7a82 cd3f 4780 8c66 9a35 c83f

bias f8 [10]
0.1474744299825599 0.7067283231512648 0.05994645672157477 -0.3567145961221259 -0.6013083320751189 0.40246748293650775 0.35504389215332016 0.04032605929944878
0.06464266701824974 -0.2465309436934902
00000000: 29bb e22e 71e0 c23f 67ee 62b7 849d e63f
00000010: 36af 424e 4db1 ae3f 9d6c 1675 69d4 d6bf
00000020: f065 a2f8 ea3d e3bf 779b 3af9 06c2 d93f
00000030: 1d5b 5c04 0ab9 d63f c241 bc03 9ea5 a43f
00000040: 8904 c5fc 6b8c b03f 9aca 4e72 538e cfbf

weight f8 [1, 10]
0.11373176827700313 -0.09834371901604558 -0.23222685956121888 0.2798786106894918 -0.2660706908734999 0.12969937101953902 -0.07683803400193828 0.28946718165409463
0.15349471403115905 0.11644314925747212
00000000: 2e17 4471 861d bd3f bae0 f0d0 0d2d b9bf
00000010: 6fbb 8817 9cb9 cdbf deb8 f0f9 87e9 d13f
00000020: a273 ee5c 4d07 d1bf bd9b 6b2e fd99 c03f
00000030: 2c94 204b a8ab b3bf 610e 9e5b a186 d23f
00000040: a6b4 6ffc b6a5 c33f 6872 e7dd 37cf bd3f

bias f8 [1]
-0.10105251886383523
00000000: 26d7 b2ef 93de b9bf
