k-ICBC ex2/NN_Train_Result/First_Train/k_ICBC_model.pth (torch, 2847 bytes, 4 tensors)

weight f8 [10, 2]
0.24554536411796732 0.42402577247355333 0.4586274497772934 0.3013290864220868 0.6598112277097072 0.44010336298454533 -0.22583239080642442 -0.28715105714582745
-0.32289644319545574 -0.21183175187695003 -0.6788319482074737 0.07044876473914072 -0.31078184283032856 -0.5656907560804235 0.340704860104453 -0.5786112457373145
0.2624030301103769 0.1766213797432349 -0.35394472393873133 -0.30629952761226026
00000000: 3319 49ce 076e cf3f d6d7 5bfe 3c23 db3f
00000010: ced8 75f2 265a dd3f 080d e1ca f948 d33f
00000020: 667f 916f 2c1d e53f 1235 b84b a72a dc3f
00000030: 0a0f 7266 13e8 ccbf 8200 ddd3 ae60 d2bf
00000040: a43a e1d7 55aa d4bf fc6e 4887 4d1d cbbf
00000050: 7dfe 20c7 fdb8 e5bf 1e24 9924 ee08 b23f
00000060: 5f66 c986 d9e3 d3bf 537a 2080 231a e2bf
00000070: 0e29 efc1 1bce d53f 4844 31bb fb83 e2bf
00000080: fa80 2c14 36cb d03f 7dc3 e284 879b c63f
00000090: 7e26 7ac5 07a7 d6bf 79fe 7755 699a d3bf

bias f8 [10]
-0.3282571516574089 0.072097202983284 0.19489139391123123 0.8008830131841997 0.30412673913514443 0.10408718661171719 -0.6237303991049872 -0.42455187821939794
0.09139730666195134 -0.025742217913711975
00000000: dcfc c248 2a02 d5bf 4d3f f258 f674 b23f
00000010: 8c6f 8f81 33f2 c83f d489 b169 d5a0 e93f
00000020: 222c 9bff cf76 d33f cd12 6e36 75a5 ba3f
00000030: 8ea9 3574 99f5 e3bf 9317 1aa4 db2b dbbf
00000040: 7039 0e5b d065 b73f d77a 4300 2b5c 9abf

weight f8 [1, 10]
0.12634128109459558 -0.15533785817973841 0.20704652062907955 -0.09514317930725918 0.1293803509462968 0.14964340670810267 0.15895631441491806 0.1871259875471544
-0.1113740141772841 -0.11758016592402436
00000000: decf 377b f32b c03f 8738 5b66 1ce2 c3bf
00000010: 431e 6d19 8080 ca3f 8ce8 8fab 4d5b b8bf
00000020: b298 070c 898f c03f 36c9 efe0 8327 c33f
00000030: 63cf f335 ae58 c43f e594 5f8e bef3 c73f
00000040: 5003 84e4 0183 bcbf d34b 4dd7 bb19 bebf

bias f8 [1]
-0.191252129968244
00000000: 6b81 c025 f37a c8bf
