k-ICBC ex2/NN_Train_Result/Final_Result/Control_model.pth (torch, 2847 bytes, 4 tensors)

weight f8 [10, 2]
00000000: 6f00 bb6e 7e44 e23f a2c7 a68b 561e 00c0
00000010: e465 499f d7a9 c5bf 53e4 7deb 793a f93f
00000020: ce11 a724 9053 a63f aaff 15c8 33d0 0640
00000030: c363 1b9d 463c e6bf a97b 4e3c 95c5 f7bf
00000040: 77fc e976 dc35 e83f f416 e998 2855 00c0
00000050: 1926 244c 1a83 c2bf cb68 91e4 998b fdbf
00000060: c8d5 7479 e587 d1bf c089 9e00 d847 f93f
00000070: d6dd c86d 007b b8bf 9ee8 fa0e 4c06 0640
00000080: 0e01 7acd 25d3 ef3f 1281 53f6 79a8 05c0
00000090: 8b48 89f9 959b dcbf bfda 19a1 9c05 0d40
0.5708610689835164 -2.0148135099670563 -0.1692456748740333 1.5767764281174734 0.0436062855474436 2.851661265536639 -0.6948578899856489 -1.485738025257641
0.7565748522319059 -2.041581339467365 -0.14462593763191547 -1.8465823105275827 -0.27391945706343934 1.5800399803343765 -0.09562685661591472 2.7530747576066252
0.9945248616423059 -2.7072638744576887 -0.4469962059857912 3.627740152932659

bias f8 [10]
00000000: ee18 8941 9653 e23f 0693 6b34 bdd9 b8bf
00000010: a3da 2b20 8c29 f03f 8a51 1d7a bc8d e7bf
00000020: f18b dd49 df7b e53f dc34 8c59 513b d53f
00000030: 8faa 1771 9374 ce3f fe78 144f fe1a f23f
00000040: 461a d0c0 7e7f f33f 9472 b366 cd40 f43f
0.5727034835806799 -0.09707243470945678 1.0101433998767468 -0.7360517869042706 0.6713711207088392 0.3317454695214346 0.23793261549083808 1.1315901841222167
1.2186267406228963 1.2658208858257796

weight f8 [1, 10]
00000000: dd6b 8aa0 9a0e f43f 31d4 f7ad e139 d2bf
00000010: 3c47 075b 49f3 fabf b91d f921 a93c f43f
00000020: eedb a5e5 eee7 f73f 17f6 8de9 2ce7 e43f
00000030: 9f9d 8fcc 7089 c5bf 6a06 15f4 aa8e f4bf
00000040: 74f2 4feb 3ce2 e93f f09f 7911 76d6 fdbf
1.25356543265547 -0.28478281010694945 -1.6843961292074274 1.264809735019169 1.4941243143673506 0.653219658051685 -0.16825685489969275 -1.2848310026605767
0.8088669391577938 -1.8648586924191441

bias f8 [1]
00000000: d5b7 0ed6 0b19 d1bf
-0.2671537008671952
