k-ICBC ex2/NN_Train_Result/Final_Result/Control_model.pth (torch, 2847 bytes, 4 tensors)

weight f8 [10, 2]
-0.5326871486745384 3.177843834738935 -0.04399011645780636 0.2664737790383437 0.3458297696505322 1.140141266759856 0.27456315525222014 1.0658071482418057
-0.07407866181485484 1.389298412526992 0.03226408298110913 0.07246819234483823 -1.1510300214787228 1.892612649450553 -0.16155083520656602 -0.14751204630234246
-0.0354143857183852 1.784701808187066 -0.06857909968475404 1.767972234997409
00000000: eecf 51eb c50b e1bf dcfd 6f63 396c 0940
00000010: 2e28 115f df85 a6bf 9284 8d09 e80d d13f
00000020: c576 a82f 1322 d63f 85db d8c4 043e f23f
00000030: b9ab 1f57 7192 d13f 4faa d8cb 8b0d f13f
00000040: d484 d3b5 d1f6 b2bf a702 e3f8 903a f63f
00000050: bb84 7afa ea84 a03f ae0e 1f84 468d b23f
00000060: d671 af74 9e6a f2bf 362d 9633 2448 fe3f
00000070: 9945 eda0 b2ad c4bf 873a 51bb ace1 c2bf
00000080: 53d1 ef98 d521 a2bf 8168 b47b 238e fc3f
00000090: e6cb 555e 668e b1bf 62cc 1841 9d49 fc3f

bias f8 [10]
1.3630380335448011 -0.41775832589054906 -0.22500545853215811 -0.3009838697265461 0.8607986701298942 -0.3881403953971625 0.4054144075621 -0.5812594583500803
0.6823114664045686 0.9477041928812383
00000000: 1477 14f8 00cf f53f 3c39 d56a 8dbc dabf
00000010: d796 e896 facc ccbf ac56 46d9 5143 d3bf
00000020: f4bd 14a7 a98b eb3f 4830 1fd0 4ad7 d8bf
00000030: a09c 7345 4ff2 d93f 2c56 836f ad99 e2bf
00000040: f096 3cdb 7ed5 e53f b39f 56be 9753 ee3f

weight f8 [1, 10]
-1.7709462671200806 0.06279554456797533 -0.37154943257493056 -0.058453136649495224 -0.7177354157166264 -0.015767238019610556 -1.2544237640121951 0.28486774835077305
-1.0803975443139715 -1.0687974446138462
00000000: 7e10 c4c0 cb55 fcbf d103 416a 5e13 b03f
00000010: 826d 7045 77c7 d7bf ec32 84cc 91ed adbf
00000020: 4de2 3543 b0f7 e6bf 01e5 916e 4925 90bf
00000030: 211f 1ca7 1e12 f4bf b782 b6ef 453b d23f
00000040: 911d 78ef 4e49 f1bf 30a3 6a59 cb19 f1bf

bias f8 [1]
8.470843890936472
00000000: e42f 5273 12f1 2040
