k-ICBC ex2/NN_Train_Result/Final_Result/k_ICBC_model.pth (torch, 2847 bytes, 4 tensors)

weight f8 [10, 2]
000000 bf 8e f8 8d 23 06 d0 3f 0d cf 67 19 c7 c0 d5 3f
       0.25037468780849886 0.33989121895795976
000010 a6 00 6a d9 69 c8 db 3f ea 98 86 19 08 96 cd 3f
       0.4341072676834393 0.2311411022794297
000020 15 3b 30 4a b4 ea e6 3f b4 4c 63 55 26 ce d7 3f
       0.7161504220001428 0.3719573816171746
000030 7c 6e 98 c7 7d 1f d2 bf bd ca b6 d2 bc 65 c5 bf
       -0.2831720780538729 -0.1671672848584275
000040 41 b9 e2 08 7e 80 d8 bf 6b 4b e3 1c 53 9e c4 bf
       -0.3828425490163632 -0.16108168516674523
000050 42 f5 0e d6 9d 02 e3 bf 40 42 bc 37 34 0d ce 3f
       -0.5940694027737339 0.23477795335249318
000060 3b ca 52 ad 46 6c d7 bf 1e 21 46 b5 be e9 df bf
       -0.36598364759553065 -0.49864165976079444
000070 88 53 86 d7 ae c0 cb 3f c9 d1 12 b6 ba fd ed bf
       0.2168177177778967 -0.9372228199122726
000080 fa 12 e9 a5 33 08 cd 3f ab 81 18 f5 71 73 c5 3f
       0.22681279755683886 0.16758560626568672
000090 14 70 87 be 4d 21 dd bf da 7b 95 13 72 b5 cb bf
       -0.45515769583084986 -0.2164747806191077

bias f8 [10]
000000 77 55 b0 ce e1 c2 d6 bf 73 78 5c a8 f4 71 b9 3f
       -0.355644656986747 0.09939507589703726
000010 1b c8 72 f6 15 c6 cc 3f c8 e3 27 68 42 0d e8 3f
       0.22479509862529387 0.7516185793202732
000020 32 7c d8 c1 ca ad d0 3f fd ee 73 67 46 94 cd 3f
       0.26060742311705376 0.23108749438676304
000030 63 19 9e 00 af 5e e5 bf 88 9b 98 84 76 41 e1 bf
       -0.6678080570280084 -0.5392410840766937
000040 74 89 99 af de 50 b8 3f 13 be 2c e0 76 ab be bf
       0.0949839762411438 -0.11980383847252822

weight f8 [1, 10]
000000 93 8c 40 6b c8 87 c1 3f 55 81 9e 04 37 b1 c4 bf
       0.13695626484795706 -0.16165816999001473
000010 39 7a a4 07 22 6f c7 3f e7 a4 5f e7 19 8c cf bf
       0.18307900784653144 -0.24646304891147183
000020 13 ac e9 b9 8d 81 c0 3f 55 13 a1 10 ab 32 ca 3f
       0.128953662660337 0.20467127143833844
000030 02 9e a1 7a 18 8b cb 3f 78 5d ba 67 95 7a c5 3f
       0.21518236148698128 0.16780345501750182
000040 63 b3 12 34 43 c1 ba bf 3a ee 6a ae 81 d5 a5 bf
       -0.10451145192446414 -0.042644550839636655

bias f8 [1]
000000 49 d6 19 03 97 a2 c0 bf
       -0.12996184970295335
