k-ICBC ex5/NN_Train_Result/Final_Result/Control_model.pth (torch, 5783 bytes, 6 tensors)

weight f8 [15, 4]
-0.25642434197816766 0.47691862070730556 -0.2530618364065933 -0.4433450464922702 0.6911395524872173 0.2587470546937387 0.3517450517518889 0.2967031380001838
-0.18323917616271534 -0.4210423945906155 0.03909913936706768 -0.2024432984474842 -0.02708544309445155 -0.1889884951455997 -0.09167531169669439 -0.28893254556308573
0.6671090940870654 0.4957918657233736 0.847599342578856 0.17644699432006786 0.4070828613569365 -0.15489392153631573 0.6249581218125668 0.6298582841431596
0.32270996629208765 0.5953552118759476 0.7424440917128052 0.6725786763507487 0.6705358915938191 0.31020160741691266 0.2687463920962711 0.016305564613378783
0.7475524134859696 0.6005120075629929 0.9529649736008952 0.8342065786353822 0.5194329843865383 0.6711206224753657 0.6870560832155296 -0.022557774286378666
0.15991192249641445 -0.191792087815798 0.5845743817232791 0.5765236327684943 0.1408832539467328 -0.3449198655652348 -0.07672302204623938 -0.2014408693605012
0.07918124074225935 0.0031364857003330433 -0.313436430436532 -0.3618791470464156 0.4096479333876846 0.0737021150598263 0.4755060261698579 0.8984484147000676
-0.34760144958900824 -0.020734826905916343 0.37285143049754044 -0.4627520842618663
00000000: 8273 aca4 4169 d0bf c1a4 b2ad d585 de3f
00000010: 6cd9 ce45 2a32 d0bf 1dc9 e1e6 c35f dcbf
00000020: 16f3 dcb1 d01d e63f bc23 76ce 4f8f d03f
00000030: db77 73ad fd82 d63f 1235 9528 2ffd d23f
00000040: 0c80 7b9e 6174 c7bf 15c2 bfcc 5bf2 dabf
00000050: 2340 c469 cd04 a43f 002b 1079 a9e9 c9bf
00000060: 3242 2751 49bc 9bbf cd3c fc66 c630 c8bf
00000070: 2f81 9681 0878 b7bf 0762 7cee de7d d2bf
00000080: f2fa be2b f558 e53f d1e6 39ce 0dbb df3f
00000090: db97 0fa8 881f eb3f 2d85 0aab d095 c63f
000000a0: ba91 1246 a50d da3f 5380 ac63 90d3 c3bf
000000b0: f2be d12c a8ff e33f 334e 708f cc27 e43f
000000c0: 7d56 d4b3 47a7 d43f c154 905f 260d e33f
000000d0: 407a a01c 1ac2 e73f db3a 5db7 c385 e53f
000000e0: a611 a6af 0775 e53f e36c c1d7 57da d33f
000000f0: af2c 3e11 2433 d13f 8f73 07eb 67b2 903f
00000100: bffa fe09 f3eb e73f d7d3 2af5 6437 e33f
00000110: dc2d 7b66 b07e ee3f c71a abfe d1b1 ea3f
00000120: 6dec 0cec 319f e03f d17d a6f4 d179 e53f
00000130: b7b6 fd09 5dfc e53f ae7a 529b 6219 97bf
00000140: 3e69 ae6e fe77 c43f eb73 66a4 a48c c8bf
00000150: c496 7255 d5b4 e23f d793 83b0 e172 e23f
00000160: 06ad 2064 7608 c23f 44fa 95c5 2a13 d6bf
00000170: 60f4 89b6 1ea4 b3bf b096 fd7c d0c8 c9bf
00000180: 4cd8 71c7 3845 b43f 91d1 3bf0 afb1 693f
00000190: 8064 86ac 570f d4bf 79cc 6a27 0729 d7bf
000001a0: b98a 31f7 ab37 da3f b2f6 d34d 24de b23f
000001b0: 55d4 dcd3 b06e de3f 6bf4 c8e3 16c0 ec3f
000001c0: 17ba 8126 1a3f d6bf 25e9 cbad 823b 95bf
000001d0: 7e3d 103f ccdc d73f 16e0 03eb ba9d ddbf

bias f8 [15]
-0.29577780078502247 0.5848658088064196 0.07838400416274756 -0.0056798716778715804 0.6333366936221636 0.6543428227162967 0.29748565249767206 0.46938501592965176
0.21163685223131537 0.449647221026255 -0.09755369243770283 -0.4603480119796588 0.2623628927948982 0.5841454278713335 -0.4235057266191684
00000000: 5049 5003 06ee d2bf bee8 2b80 38b7 e23f
00000010: 5595 685e f910 b43f af86 a1f1 c643 77bf
00000020: ccd8 4e50 4b44 e43f d10a fe5b 60f0 e43f
00000030: 236e 2043 010a d33f 689e 2973 670a de3f
00000040: 051f 7b97 ea16 cb3f 14e2 4223 05c7 dc3f
00000050: e7bc 9f5e 47f9 b8bf d0cc 0e82 5776 ddbf
00000060: 143c 0fbb 8dca d03f f916 9ac0 51b1 e23f
00000070: f8df 5fc3 b71a dbbf

weight f8 [15, 15]
-0.03940577022136735 -0.11287894137477184 -0.16161178735776816 -0.12642159416850823 0.06988992392125215 -0.22464440705538083 -0.06335127912092606 0.09692120037435542
-0.1530187782928235 -0.18624641277787007 0.10653532984697583 0.20202470619933088 0.021775034924532366 -0.2398457405778898 0.1360376219207044 -0.03242636150997925
-0.030630674784863046 -0.11991932910445195 0.14897262678389556 -0.18444376073760912 0.09132129009256731 0.0703444830795211 -0.11494958564055761 0.02110587261607319
0.15237411947798066 -0.032517342349204344 -0.24512622602678563 -0.026720846508569318 -0.0495953401511499 0.22585791268475713 -0.08954644651382036 -0.12487041167466166
0.11415012570021621 0.1793568383371097 -0.04330999644035237 -0.05925071930523311 0.00949169417854629 0.03810857201122921 -0.022979462068133352 0.08981770355848542
0.09350486961045917 -0.10229486851519398 -0.15223597839784817 -0.0031006520516425927 0.21653039041451377 0.23855546094745977 0.0742390722385678 0.22512737122524612
-0.0858363331142145 0.0587599239151836 0.152550560699866 0.05053644904529825 -0.09032401485192812 -0.24527645101453713 0.12431221581171253 -0.05818083175595757
-0.13379301202709296 0.03615648977647855 -0.04163316185304166 0.05894021318761911 -0.28135178217089923 0.16872956958124874 0.054602885802682036 -0.16842375514434765
0.14853485053900062 0.10667724747612181 -0.16445428693995723 -0.1357273282854343 0.010700372035830064 -0.07991043099762227 -0.006348388166037184 0.015714389954246843
-0.20834588726255743 -0.07290048072856695 0.036689605315401726 0.02671530481836453 0.21269935032020013 -0.1979744002500992 -0.2549566296191141 -0.036343447241471066
-0.0020697507263037515 -0.15818966769074552 0.15782941706837544 -0.29063514263064866 -0.03353009882746374 0.23284659202969257 -0.08886353385876189 -0.19371375726337445
0.01418803013857733 0.020543726483275737 0.11842882416761634 0.530828566056885 -0.03758407361613173 0.255685269266979 0.655744954705637 0.26730931265672697
0.5960393279473732 0.37244600062154704 0.5631491330246461 0.31795958073601566 0.16618980443867382 -0.21041516997768864 0.15560916799423877 0.5431290572889634
-0.09243788989907996 0.14251040980636082 0.505825485744059 -0.065879460109067 0.0414542553766819 0.4127119855294214 0.14446738306535173 0.4828477886643119
0.55671046209815 0.636101077867287 0.7152669413199311 0.13256339160660932 -0.0706122514634725 0.03396761114354277 0.6285291947091798 -0.07510879967997752
-0.02963515560593208 0.15303805111924346 0.08613249426998804 -0.21371125300335958 -0.13385799570569024 0.11120077630016101 0.06886052491443595 -0.12687351385865553
-0.2531748179597759 0.034654534288925176 -0.051918781489096816 0.07513967689213924 -0.09033465343626462 -0.2578551669842894 -0.17023660928298368 -0.22106923793447814
-0.19234820090922716 0.0022461211893003196 -0.01756832147570872 -0.20859035008486884 -0.1520217542908467 -0.1403837081098419 0.03725666622622403 -0.2375321533539153
0.16840438157240578 -0.08966416587148288 -0.08742561896018405 0.08930981968933183 0.10167401799534528 -0.13181952914570327 0.08781607621604501 0.35668578430545583
0.25840364414307004 0.11873577496728353 0.29487421248667395 0.5662976623209778 0.6309546940658685 0.2546098549421161 0.4500973853639251 0.31860465139540306
0.19641017223669535 0.07291621937821047 0.16609004379779574 0.4406046702025566 0.061070513784055515 -0.01560603559563936 -0.014875760499982599 0.25485318081598995
-0.2443111319130588 0.001380039774321551 -0.16709264850667824 -0.11782785217393842 -0.08051959747156873 -0.24011957424910998 -0.03027551149921942 -0.07651949287093647
-0.1066762129487003 0.07785559754236528 -0.2121833638114901 0.24099325836914495 0.1399154264686033 0.48601458613624227 0.010219026734970854 0.25480579474236004
0.5130685296945507 0.3163002165335623 0.3472535487557201 0.4837230981586132 0.4545080347095718 0.4911691692080572 0.2636538402277176 0.1600926288123698
0.16201467527124905 0.25887613915773905 0.0668218221228147 -0.15893465914401117 0.41291751119211856 0.03971139667128084 0.043924957593963004 0.26731310532687047
0.21042780145094014 0.6588240522501293 0.248435409748573 0.5734369202267668 0.6003725776795885 0.3893505318700772 -0.008291367490327411 0.07289930348579512
0.36584631531260825 0.2642617101895138 -0.008716546373875964 0.39182678318383574 0.12267185697502506 -0.13549419786456135 0.39001977728661574 0.3895518114476793
0.7212279551299701 0.3278542239526088 0.2883828888087183 0.43495780195891154 0.5946742504698277 0.02363814834092387 -0.08722165148183122 0.5016200198151275
0.2611214379910672
00000000: acb9 bf3c fe2c a4bf 689b 9c61 a2e5 bcbf
00000010: a4c3 acee b1af c4bf 6e20 3b32 952e c0bf
00000020: f8cb 8f59 4ee4 b13f 391e c4de 25c1 ccbf
00000030: eef0 fb17 ca37 b0bf 849c e5e9 d3cf b83f
00000040: c484 388c 1e96 c3bf 1a6b f025 ecd6 c7bf
00000050: 94b3 8f3d e645 bb3f e418 0e11 f2db c93f
00000060: e001 7bdb 314c 963f c9f7 eee5 43b3 cebf
00000070: a667 9648 ae69 c13f 7161 6d24 309a a0bf
00000080: 0454 d2c9 a55d 9fbf 1b71 a97c 08b3 bebf
00000090: 209d 04f8 8811 c33f 2bde 2868 da9b c7bf
000000a0: 7248 6002 d560 b73f 56d3 4796 1802 b23f
000000b0: 83d3 0307 566d bdbf 18ed 8e22 c79c 953f
000000c0: a915 f5c1 fe80 c33f 71a5 e2f3 1ca6 a0bf
000000d0: 3ea6 16d2 4b60 cfbf 40c2 80a7 b55c 9bbf
000000e0: f663 f777 8f64 a9bf b20d 437e e9e8 cc3f
000000f0: 97f7 3f13 84ec b6bf 6b77 61de 81f7 bfbf
00000100: d07a b750 f138 bd3f 6c65 7c35 2af5 c63f
00000110: 8e35 9a54 ba2c a6bf 3664 5c3b 1c56 aebf
00000120: e4d7 a4a0 6170 833f 3392 f87c f782 a33f
00000130: f4cc 3f98 ed87 97bf 4ab1 6203 4bfe b63f
00000140: ec60 fe64 efef b73f d845 d21a ff2f babf
00000150: 1f25 3ff2 777c c3bf 4afe 0ee5 8966 69bf
00000160: 42d1 b590 44b7 cb3f 0699 863f fc88 ce3f
00000170: 949b 59f3 5401 b33f ae66 6c44 f9d0 cc3f
00000180: a3bb 88b3 5ef9 b5bf 72f4 0fdf c715 ae3f
00000190: 26a0 98da c686 c33f 28a1 cfd7 e9df a93f
000001a0: 6a1b d581 791f b7bf 990e cbff 3765 cfbf
000001b0: d493 67e5 ecd2 bf3f 81b5 4ac3 e0c9 adbf
000001c0: 417b 8b21 2120 c1bf be9a 417a 1a83 a23f
000001d0: bfff 2c19 f150 a5bf 61c4 1e60 692d ae3f
000001e0: db19 c6e7 aa01 d2bf 801c 9c37 ee98 c53f
000001f0: 1259 94d1 e8f4 ab3f 3e74 1bdc e88e c5bf
00000200: fccc b0a2 3003 c33f 4622 2339 334f bb3f
00000210: 000c 0c8c d60c c5bf 1767 145a 835f c1bf
00000220: fa64 979f 13ea 853f 367a be8f 0275 b4bf
00000230: 5418 e378 c400 7abf 3067 b8db 6e17 903f
00000240: a83e 06fa 13ab cabf 0285 971c 9ba9 b2bf
00000250: b997 dddd fac8 a23f ee7c fdc1 415b 9b3f
00000260: ffba c078 bb39 cb3f 617b 42a3 3957 c9bf
00000270: df32 879c 3551 d0bf 0cec a6ba 9b9b a2bf
00000280: c766 c5f5 94f4 60bf 81ff a51c 8f3f c4bf
00000290: b2e4 531c c133 c43f 01af 2a24 c499 d2bf
000002a0: b38c ca6b db2a a1bf ab54 e0c8 eacd cd3f
000002b0: 98f9 bab3 c2bf b6bf ffa0 1dc6 9ccb c8bf
000002c0: 1dd1 842b 9d0e 8d3f 80d8 8825 6a09 953f
000002d0: 2f22 b4f6 5951 be3f 94e6 5f30 8cfc e03f
000002e0: 8540 103e 383e a3bf 2e85 64bf 255d d03f
000002f0: 6b49 dfd7 dcfb e43f 6cb8 f184 981b d13f
00000300: be3d 9511 c112 e33f bb83 0cc0 27d6 d73f
00000310: 4c92 a354 5105 e23f fd81 2d24 7359 d43f
00000320: 1812 7f1f b545 c53f 5177 d160 e2ee cabf
00000330: 751b bf4f 00eb c33f 7107 5230 5061 e13f
00000340: b71d 0772 02aa b7bf ba9b baf6 c73d c23f
00000350: 2821 d8ed b82f e03f 3a86 a5ee 79dd b0bf
00000360: 40ea 3efe 7d39 a53f 9f07 2188 df69 da3f
00000370: a65c cd3e e87d c23f bc95 5069 fae6 de3f
00000380: eaae 8175 92d0 e13f b97d cca5 f05a e43f
00000390: 3821 1c7f 77e3 e63f f771 cc53 d6f7 c03f
000003a0: e887 bbfe a413 b2bf a432 f8e5 3364 a13f
000003b0: b86d fb41 e91c e43f 006f 448e 543a b3bf
000003c0: 98b1 8ea0 ad58 9ebf 9ee4 4c38 c096 c33f
000003d0: 9833 0376 c70c b63f e0e2 37ed e35a cbbf
000003e0: 2099 ee40 4222 c1bf b0be 7f71 a777 bc3f
000003f0: 682e 7ee6 d7a0 b13f 1432 602c 643d c0bf
00000400: 20b6 d326 0434 d0bf b0ab db36 3dbe a13f
00000410: 5472 1639 1995 aabf 1c3d e296 5a3c b33f
00000420: c449 34fe 2b20 b7bf 4b56 53f5 b280 d0bf
00000430: 70e6 b92e 50ca c5bf da44 8a2d ff4b ccbf
00000440: a6be 2ca8 dd9e c8bf caf3 a021 7566 623f
00000450: b831 bc18 6efd 91bf 0517 f0ad 16b3 cabf
00000460: 92d8 7ae7 7275 c3bf a48a 9ce5 17f8 c1bf
00000470: 30ce ff45 4e13 a33f a4a6 331f 7467 cebf
00000480: aca4 ad57 468e c53f 0a88 0a14 3bf4 b6bf
00000490: 7e3c 447e 8661 b6bf 90ff c622 02dd b63f
000004a0: a296 24f6 4e07 ba3f 3cd4 535b 76df c0bf
000004b0: 7634 6947 1d7b b63f 1090 a29c f0d3 d63f
000004c0: d2bf 3070 af89 d03f d385 59be 7765 be3f
000004d0: e518 c416 38df d23f 0509 6f46 1c1f e23f
000004e0: ada8 08e6 c730 e43f e8cd 0d22 874b d03f
000004f0: 7ecd 8943 65ce dc3f f030 86c3 0464 d43f
00000500: e1dd 2df1 f723 c93f e0ce 9329 a3aa b23f
00000510: 32c0 2645 7042 c53f b907 3fee dd32 dc3f
00000520: a5a5 e766 a244 af3f 0f22 07a4 0ef6 8fbf
00000530: 30ef cdc6 2e77 8ebf 58b8 38b7 834f d03f
00000540: 1ec3 ce50 9645 cfbf 003c aa6c 4e9c 563f
00000550: 8b7d 5eba 4a63 c5bf ef1d a553 f729 bebf
00000560: 34d5 d3ad ee9c b4bf 6fc2 43fb 3cbc cebf
00000570: f007 092f 8b00 9fbf 0d1e 630f c896 b3bf
00000580: 6634 e0dd 214f bbbf 7947 412d 58ee b33f
00000590: eaad 2910 d328 cbbf 1740 a0f9 ddd8 ce3f
000005a0: cfbb 71aa bfe8 c13f 7a62 35ec dc1a df3f
000005b0: f03b fd8c b6ed 843f 7ffb cff6 bc4e d03f
000005c0: 06a3 74b1 0e6b e03f f9ad 6e43 433e d43f
000005d0: 3ed9 d4f2 6639 d63f 814e bab9 51f5 de3f
000005e0: b032 36de a816 dd3f 8a55 a3cf 506f df3f
000005f0: f58a 4f5b b4df d03f be36 8a4e ea7d c43f
00000600: a98b e199 e5bc c43f 496c d939 6d91 d03f
00000610: de36 ad24 3c1b b13f 4cba 9c8d f857 c4bf
00000620: e703 a191 3d6d da3f cb98 f65b 0d55 a43f
00000630: 9442 b000 557d a63f 80f3 4a6d a81b d13f
00000640: f652 b356 4cef ca3f a570 c72d 1615 e53f
00000650: efec 0444 bbcc cf3f 702c 5662 9859 e23f
00000660: d691 518d 4036 e33f e0fa 437e 1eeb d83f
00000670: 303b ae81 10fb 80bf 3a67 5f5c 87a9 b23f
00000680: ee4d e8a9 066a d73f e155 b6f2 a9e9 d03f
00000690: b800 e10c fbd9 81bf 5b2c dea4 b013 d93f
000006a0: 1aea d83d 6c67 bf3f 3622 50b6 df57 c1bf
000006b0: 5a4f 0f83 15f6 d83f 59fb 90b8 6aee d83f
000006c0: 4cd0 07a6 4c14 e73f b1d7 6e48 90fb d43f
000006d0: 6c34 0a81 dd74 d23f b06d a33f 59d6 db3f
000006e0: b251 314b 9207 e33f 50c2 3f48 9934 983f
000006f0: 6619 9e7c 2854 b6bf bafe 836d 450d e03f
00000700: 2931 1db1 36b6 d03f

bias f8 [15]
-0.13004522112256822 -0.1139169679675709 0.13418105987650167 -0.17226786421498727 -0.1758668880788489 0.15360452404556224 0.25760378222150027 0.15557026349061648
-0.13226374027633328 0.027503477800905975 0.5523115142686531 -0.08775330423291833 0.4989805334229246 0.5280833294897419 0.4224084207145705
00000000: 807b dc61 52a5 c0bf 9154 e193 a929 bdbf
00000010: b9c2 f44f d82c c13f ff41 7a95 df0c c6bf
00000020: c5bc 5f62 ce82 c6bf 048c a523 50a9 c33f
00000030: 6ce7 fd92 947c d03f f20d f6f4 b9e9 c33f
00000040: 957c 77ab 04ee c0bf 3780 b926 df29 9c3f
00000050: 899e 5f32 89ac e13f ccdb cb23 0077 b6bf
00000060: 1a18 190c 4cef df3f 5914 b702 0fe6 e03f
00000070: ae8a 2154 bd08 db3f

weight f8 [1, 15]
0.13015921972143074 0.02390797965680249 0.12962945821512772 0.019965018003778305 0.15051739020622207 0.018651585619560197 -0.6998084187204071 -0.600379409850075
-0.15866128237168423 -0.0539302510838079 -0.5537839529114154 -0.17582948785838784 -0.5257623977524694 -0.5882788454978642 -0.6907723782467776
00000000: 70fb fcab 0ea9 c03f 4625 f55a 557b 983f
00000010: 04eb d0b5 b297 c03f 4ea5 8fad b571 943f
00000020: 8a1e 3562 2744 c33f 0daa 04b9 6619 933f
00000030: f3d3 fb9f d464 e6bf 68ee 4fe1 4e36 e3bf
00000040: 51c2 764d 034f c4bf 510d 57f1 be9c abbf
00000050: 75bb d91f 99b8 e1bf 2519 03a6 9481 c6bf
00000060: 5f07 faa9 0bd3 e0bf 5ef1 4a28 2ed3 e2bf
00000070: 069a b1ac ce1a e6bf

bias f8 [1]
-0.19845730599773964
00000000: a6ce 748b 0c67 c9bf
