k-ICBC ex5/NN_Train_Result/Final_Result/k_ICBC_model.pth (torch, 5783 bytes, 6 tensors)

weight f8 [15, 4]
000000 72 c0 5b 4e b3 86 b8 3f f9 67 28 32 cb 47 a3 3f
       0.09580536521002772 0.03765711772230413
000010 09 3d 8c 62 2d a2 9b 3f 8c d4 9f 6f c4 4f cb bf
       0.026985844745522267 -0.2133718056717594
000020 2c 37 59 28 ff a0 db 3f 84 d3 b5 9f 39 dc da bf
       0.43170145931513804 -0.41969147297577813
000030 9b 02 71 aa 02 5a c0 3f 8f a2 07 48 cf cf cd bf
       0.12774689981781226 -0.23290434853631267
000040 8c a0 d7 f5 cd 53 d4 3f 4c 81 e4 0b 61 a6 8a 3f
       0.31761502273594355 0.01301265542548493
000050 80 a8 19 06 ad a6 c0 3f 61 fc 5f a0 55 b4 bd 3f
       0.130086544016482 0.11603293576625752
000060 ea b4 9d 91 41 8c 91 3f 85 8e f9 3d f4 11 db 3f
       0.017136597168634284 0.4229708295081099
000070 38 6c 16 b5 a5 d3 d5 bf b3 9e 6a c5 1b 26 bf bf
       -0.3410429256852612 -0.12167523927439099
000080 cc 64 1b 3e 37 08 d3 3f 2a 27 2e 8e d8 9e be 3f
       0.29737645211350805 0.11961129637907378
000090 87 e2 c1 35 7f 45 d5 bf d6 0f 1a fc 19 55 c0 3f
       -0.3323667550062414 0.12759709176691442
0000a0 2c 53 a8 5a 01 9c db bf 2f d8 2a f5 2f 1d dc bf
       -0.4313968072249732 -0.4392814535343658
0000b0 bf 17 fd 27 86 fa cc bf 9e e6 11 f9 ea c8 df bf
       -0.22639538719721305 -0.49663805316195375
0000c0 70 f2 10 ae 1e cb ce bf b3 fb 2a 47 e2 50 dd 3f
       -0.24057372569395197 0.4580617613791517
0000d0 33 e4 7c e3 e2 19 dd bf a4 e5 40 f4 46 6e d2 3f
       -0.45470497336970367 0.28798078396683935
0000e0 45 27 5a b9 50 4b a8 bf af 16 5c 77 1e 48 de 3f
       -0.04744961035346632 0.47315179496977583
0000f0 dd a7 6d a4 59 1d d0 3f e9 dd 57 e7 11 05 c4 bf
       0.25179139192061745 -0.15640472217613358
000100 c5 6e 2d 9d 65 58 c0 3f b5 d1 dd f7 36 77 db bf
       0.12769766020470832 -0.42915128904067085
000110 38 79 3a ee c4 7e c3 bf 1d ed 00 38 c3 4c c1 3f
       -0.15230619079825103 0.13515510782767928
000120 f8 b0 82 26 dc db a2 3f ef 0e 90 b9 6c d6 c0 3f
       0.03683364839648279 0.13154372273140022
000130 35 57 41 04 ca 0f c0 3f 28 94 a2 eb ee 13 d7 bf
       0.12548184592986336 -0.3605916310428392
000140 db 23 c8 08 35 1f e0 3f 5a 61 90 7d 12 5b d7 bf
       0.5038094684142566 -0.36493360769374805
000150 d2 34 65 22 29 ff d3 bf f9 fb dc eb 7a 07 b7 3f
       -0.3124487720386472 0.08995788820628538
000160 70 c4 13 c1 c9 4a bf 3f f2 50 0b 31 b7 cd d3 bf
       0.12223492587851736 -0.3094308833071998
000170 63 2c 82 c8 3c 38 b0 3f 07 2a b4 9d f4 aa c0 3f
       0.06335811515070726 0.1302171487844392
000180 3a 04 e2 a5 f4 54 91 bf d0 0d 56 fb 41 98 aa 3f
       -0.016925642609298054 0.05194288437908379
000190 c6 58 be a6 79 c1 c8 bf d8 87 9f 40 66 e9 de bf
       -0.1934043945481731 -0.4829955702863322
0001a0 a4 a8 04 84 d2 93 d2 3f 9e 56 4b 26 d9 33 df 3f
       0.2902723588218896 0.4875395654647522
0001b0 e5 50 89 02 4a e0 a0 bf c1 bc e5 65 3d 5b cd 3f
       -0.03296119004213142 0.22934691882571737
0001c0 69 61 14 33 ca 94 cb bf 66 a3 ca 89 1c c8 be bf
       -0.21547820562478684 -0.12024095882465033
0001d0 0c 66 39 a9 d6 25 db bf 27 ed 83 08 b6 f5 b6 3f
       -0.4241844799595078 0.08968675334829311

bias f8 [15]
000000 9b 06 f8 48 37 05 89 3f af 55 35 59 28 37 b7 3f
       0.012216979898769955 0.09068538835466343
000010 94 b4 07 c8 be 54 d7 3f 79 15 d1 7f f3 7e c2 3f
       0.36454743894757624 0.14449924222041569
000020 c5 05 f9 0b 11 72 d8 3f 01 01 1c 93 16 e5 7a 3f
       0.38196207207883176 0.006566131765566975
000030 15 66 5c 2b 24 4d db bf 8e ea 08 ab f8 94 af bf
       -0.4265833304831131 -0.06168343627765181
000040 8e 18 ea 66 e9 43 c3 3f e7 d0 17 ce 77 9d b5 3f
       0.15051000142210963 0.08443402082031391
000050 8f e8 29 8c 26 72 b9 bf 03 df 8c 3b 79 98 aa 3f
       -0.09939804956403207 0.051944530982323676
000060 2f 50 23 80 09 dd 98 3f b6 e5 36 42 77 6a da bf
       0.024280689664763763 -0.41274816004041825
000070 30 da 03 3f 69 a5 9a 3f
       0.026021618338712027

weight f8 [15, 15]
000000 6a da 88 73 1d ba cc bf 3d f4 d3 60 25 64 90 bf
       -0.2244297804006295 -0.016007026705654893
000010 39 41 4f 27 99 9b 9e bf 92 52 69 fe 72 ba bb bf
       -0.02989043524195376 -0.10831373892990317
000020 37 fd b4 b9 3e 0e 98 3f e0 3a 14 d8 9c 24 b6 3f
       0.0234918404432822 0.08649616504065305
000030 37 25 41 ee c3 ad c9 3f e7 cb ff f7 f8 ea b7 3f
       0.20061539777297252 0.09342914633434383
000040 72 19 e8 3f c3 8d b1 bf 97 14 af 9d 9d d6 c8 3f
       -0.06856937704296742 0.19404955100450103
000050 7a d6 ac 76 f7 c8 c5 bf c7 d9 52 ab 5b 51 cc bf
       -0.17019551558194107 -0.22123285165225878
000060 77 57 f7 a2 39 d2 c5 bf f2 19 ae c5 4e f5 ce bf
       -0.1704780622227948 -0.24186119701717207
000070 16 ef 09 76 21 38 a4 bf af 67 6a fa 35 c1 c8 bf
       -0.0394907433119142 -0.1933963272793426
000080 cf 91 45 35 a8 ad b4 3f ab 72 c0 36 51 6c a1 3f
       0.08077479649143203 0.034029519971430965
000090 16 5c dd ac 88 95 bd 3f 17 b7 f6 44 11 20 b2 bf
       0.11556295605019815 -0.07080181058583111
0000a0 72 5d ce cd c6 0b ce bf a5 e5 b4 45 38 89 b2 3f
       -0.23473439263464574 0.07240630819150924
0000b0 0b f4 8b 9a 7d a5 c9 3f 1c b9 ab 1f 4d 8a d0 bf
       0.20036287351823065 -0.25844123928881557
0000c0 03 67 31 f3 e4 f8 d3 bf 96 c0 b8 89 6b a6 a5 bf
       -0.31206630467714563 -0.04228530937359769
0000d0 b7 d3 18 49 13 31 bd 3f a8 e9 6d fb 76 94 c1 bf
       0.11403008017153025 -0.13734328533958018
0000e0 b8 89 11 70 13 11 b0 3f 8e e6 44 cf 1f fb c9 3f
       0.062760557995296 0.20297620411456702
0000f0 75 d3 c2 b9 a7 c5 be bf df 52 0f 8c 04 ad b8 bf
       -0.12020347867185228 -0.09639004153661855
000100 88 56 41 5e a1 13 c1 bf d0 8b 42 f5 50 8b c3 3f
       -0.13341157057100284 0.15268909431060118
000110 7b 55 da c9 65 39 ca bf 78 88 5e 23 e3 d9 c6 bf
       -0.20487663608643544 -0.17852439143195276
000120 86 33 0f 3b 43 96 c9 bf 50 a8 1c d8 ea 7a d0 3f
       -0.1998981512428168 0.25750228027994115
000130 d8 9f f2 0b d1 9a c2 bf c4 ab dc e1 b7 d3 c9 bf
       -0.14534962733637147 -0.20177362945955057
000140 9a f9 8a ad ac 45 c0 3f a8 f9 02 99 72 7f da 3f
       0.1271262977006245 0.4140287870649453
000150 9c cb b9 97 b8 1c ca 3f e3 8e be dd 42 43 c5 bf
       0.2040014973495915 -0.1661151488052531
000160 3a 10 81 4a c1 98 8f 3f e4 b9 69 51 1c d8 d3 3f
       0.015428075872598968 0.3100653452919728
000170 79 d8 f4 c2 9d 9a ab bf ed c9 99 02 8e d0 b8 bf
       -0.05391400341834269 -0.09693229259008947
000180 36 e9 ab 44 2b 19 51 3f f3 7a 67 82 09 1f bc 3f
       0.0010435984174238084 0.10984858926483891
000190 b3 82 bf 8c 08 c7 cd bf 84 75 89 95 60 ff c0 3f
       -0.23263651726212728 0.13279349614724023
0001a0 d4 2b 0a dc 16 e8 d0 3f f0 3c d1 54 7f 59 cd 3f
       0.2641656063867093 0.22929374352904786
0001b0 d0 28 ec c7 b9 23 4a bf 6a 69 df e8 2c f5 bd bf
       -0.0007977158673793342 -0.11702233014458377
0001c0 70 be be 56 6f cc a7 bf 65 43 2c d7 b1 82 c1 3f
       -0.04648158964061799 0.13680098539819166
0001d0 39 2a e5 0f db 8e c3 3f fe 81 01 a4 43 4c a4 3f
       0.15279711032992951 0.039644349832773415
0001e0 26 2f 7a 4e 9a 65 bf 3f 73 84 51 e2 06 4b b8 3f
       0.12264408508252397 0.09489481950142124
0001f0 26 73 43 15 88 80 cc 3f d7 f7 29 68 32 9b cc 3f
       0.2226724723649564 0.223486233578966
000200 02 a4 7d ba 3d 51 c5 3f cf b6 d3 08 02 9b d0 3f
       0.16654178243632606 0.2594609342767002
000210 5c 8b ba 1d f8 a9 bd bf ab cd 19 ce 50 ad cd bf
       -0.11587477422521658 -0.23185167373195034
000220 d3 d4 41 f1 b2 d0 b7 3f 38 85 f0 0c d9 02 b4 3f
       0.0930282439238284 0.078168454798761
000230 91 50 78 d6 05 c1 d0 3f fa bb 82 dd 24 de c3 3f
       0.26178117698987885 0.1552167970271226
000240 5b 1e ec f1 a2 5f a8 3f 8e aa bc a1 8a f6 cc bf
       0.047604648620162414 -0.22627385041535714
000250 e6 97 7d 12 ee 98 c2 3f 8c 33 87 7b ee 07 c6 3f
       0.14529205229626924 0.17211705238005626
000260 b2 7e 25 d0 76 46 c7 bf d0 c2 d8 ef b1 f2 c7 bf
       -0.18183789409066758 -0.1870939656378341
000270 c0 10 f2 b0 5d 3d 7e bf 26 4f 21 03 9a 2f c2 bf
       -0.007382741910195445 -0.14207768586003872
000280 33 e6 00 0e ba 4b cb 3f 1e 89 e2 fb 46 e5 c6 3f
       0.21324849780812513 0.17887198733394255
000290 02 ed d3 b2 c9 86 d0 bf 11 5b 98 71 4b d1 cc bf
       -0.2582267996182993 -0.22513716742170023
0002a0 1a b7 84 be d2 93 9e 3f 34 b2 fe e5 fc cd c2 3f
       0.02986077583152911 0.1469112513563161
0002b0 7c 03 49 c9 7c ff bb 3f e1 57 99 7c 20 f0 cf bf
       0.10936717905225452 -0.24951559146819505
0002c0 e2 36 84 c7 48 1f c4 3f 91 49 19 9d 4d 4a b9 3f
       0.1572047208978154 0.09879002652568249
0002d0 f1 2f aa 6f e4 3f 93 bf 69 6c 7f 4f 95 d9 91 3f
       -0.01879841739223304 0.017431576707036465
0002e0 92 61 fe 82 3d 56 bc 3f d2 62 2a 75 8f b4 d1 bf
       0.11069092224204827 -0.2766455311007522
0002f0 7c ad e7 8f 5b 3b c9 bf f4 e4 94 24 82 ce a1 bf
       -0.19712395216570744 -0.0347786588340088
000300 b3 b1 96 48 70 9d bf bf 6e c5 a6 dc 90 79 a1 3f
       -0.1234960725038892 0.034130598959914646
000310 ee 4f d7 35 a1 f0 c1 bf 1f 5f 95 96 df d1 d1 3f
       -0.14015593651731656 0.27843465524118644
000320 6c ea 24 7a 3b 47 c9 bf a2 0b bf 4a bc e3 c1 3f
       -0.19748633827278483 0.13976243638725544
000330 6f 6b 12 f5 99 2c d0 3f 0b c2 38 91 5f 45 c8 3f
       0.25272225315864366 0.18961710539726115
000340 95 4e 1a 3d cf ac cf bf 1c 90 aa 3f 12 2a b5 bf
       -0.24746122821362762 -0.08267320684768759
000350 1b 42 9d ad 71 df c0 bf 4b db bd 8e 86 11 cb bf
       -0.131818971417048 -0.21147233934217477
000360 12 55 7d 5e 1d b1 b3 bf 14 59 ce f9 05 df c6 3f
       -0.07692130619883056 0.17868113229332805
000370 b8 28 2e 8d 98 09 a4 bf c8 09 f2 90 8c c6 b9 bf
       -0.039135710939335266 -0.10068586863238871
000380 39 e0 d6 81 db b2 c9 3f a4 58 10 a2 fa 19 b8 3f
       0.20077079620182461 0.09414640862118745
000390 38 db 41 2a 09 3e a6 3f 88 9c f0 03 b4 de aa 3f
       0.043442045601230495 0.05248034046263067
0003a0 54 ad dc 24 d2 7b b8 3f d2 27 27 79 83 c3 cd bf
       0.09563935661269812 -0.23252910056754544
0003b0 3d 57 db e7 00 59 c9 bf 60 e0 be 09 ac e6 bd 3f
       -0.1980286724198609 0.1168010257523533
0003c0 93 5a 49 da 77 91 71 bf 84 fd 5f 4f cf f3 cb bf
       -0.004289119886911624 -0.21837798476915904
0003d0 a2 39 14 8d a5 4a cb 3f b6 2e 2e ba 35 b6 c5 bf
       0.21321553600905668 -0.16962310400810104
0003e0 e6 3c 01 9a 77 9f d0 3f 20 c8 c1 30 04 c6 bb bf
       0.259733105082843 -0.10849024000506846
0003f0 1a b2 57 ab 5a eb d1 bf 14 cb ac 03 2b 5f c3 3f
       -0.27998987896606453 0.15134179763261868
000400 c0 eb f0 47 27 dd d1 bf 8f 61 92 41 c8 40 cb bf
       -0.2791231348562029 -0.21291449739215948
000410 5b bc 00 6d 02 02 bc bf 98 d7 77 9e 47 07 c4 3f
       -0.10940566216662388 0.15647216069890812
000420 b4 85 00 ab d9 e0 ca 3f 01 32 85 5e 0a c3 d0 3f
       0.20998688554486267 0.2619043276834248
000430 c8 c4 cc 68 92 19 c1 3f 48 b5 8f ca 17 f8 c9 bf
       0.13359289281064535 -0.20288369551364327
000440 4c 1e 51 eb 6e 34 d1 3f 3b ab 92 62 4f 39 c0 bf
       0.26882527332461303 -0.1267489653885948
000450 89 cb 65 d9 e2 e7 ce 3f 6e 92 03 da f8 b7 b2 bf
       0.24145160307997696 -0.07311969111067082
000460 6e 23 27 16 41 c1 be bf 3d 07 eb d7 bf 88 bc 3f
       -0.12013632574884323 0.11146163007199746
000470 9d 16 4c a5 16 fd b7 3f f2 74 71 24 1e 5e d0 3f
       0.0937055734212557 0.25574449118523923
000480 54 91 44 bb 59 bf ae 3f 35 f4 27 cb 20 bb 85 3f
       0.06005363856300741 0.010610824775534858
000490 49 95 39 6f 76 88 c8 bf 59 58 0c c6 c4 4f b3 3f
       -0.19166450911431301 0.07543592295800873
0004a0 82 77 fb db 47 d3 cc 3f a2 e4 4b aa 99 54 ba bf
       0.22519777528117052 -0.10285339744213443
0004b0 9f 33 15 7e 2e 79 bc 3f 2d 63 20 07 58 c5 d4 bf
       0.11122408464616605 -0.32454491325329365
0004c0 1a b8 7b f1 e9 32 ca 3f 43 46 b8 03 a3 5e b5 bf
       0.2046787671201294 -0.08347529259506196
0004d0 7a a8 69 0f 4f 92 c5 3f b5 1d 1d 82 2b 82 b6 bf
       0.1685274911172348 -0.0879237358723149
0004e0 54 c7 6a d0 4f 94 c2 bf cb da 26 21 4b f1 ae 3f
       -0.14515111614815146 0.060434673115585
0004f0 e1 7a fe 38 65 2f 9f bf 12 14 db 27 2f 5a bc bf
       -0.030454236606256017 -0.11075110171357519
000500 4c 5b 6d 06 4e dc ba 3f bd b7 c7 e0 03 a4 cc bf
       0.10492408425248562 -0.22375534511178144
000510 a0 81 99 d4 4c 04 d2 bf 41 e6 cc d9 64 8b c8 3f
       -0.2815124584358504 0.19175396570953931
000520 1b 00 5f f2 b2 94 a9 3f e2 dc 75 46 cd 41 d5 bf
       0.04996260841971908 -0.3321412265863285
000530 8b c5 fd 58 90 15 ae 3f d4 85 c6 68 2b 7c ce 3f
       0.058758269179530385 0.23816435447683537
000540 51 25 26 30 c2 e6 bc 3f c8 f5 b9 cb d7 1f bd bf
       0.1128960959960257 -0.11376713489331458
000550 3c 99 d0 e5 f7 f3 c8 3f 45 7b e9 07 3c 8b c4 3f
       0.19494532319476743 0.16049909960107747
000560 4d b5 ad 4f 8e 27 cc bf 4b 72 36 87 bf 2a c1 bf
       -0.2199571503692063 -0.13411707021886551
000570 72 a2 83 34 f8 61 c4 bf 28 21 2b 7c f9 6a d3 bf
       -0.1592397934357624 -0.3034042084295998
000580 d9 64 f1 24 0c 28 bc bf 6b 58 45 65 46 50 c8 3f
       -0.10998607541968698 0.1899497980581971
000590 2f 23 a7 6e 88 3e b7 3f 00 89 bc 2e 01 25 c0 3f
       0.09079792691694587 0.12612929136327722
0005a0 6d 62 53 13 36 14 d1 3f 17 8a 3f 9c 42 02 d0 3f
       0.26685859572675136 0.2501379514561974
0005b0 e5 c7 c4 d6 ee fc ac 3f eb d7 b0 26 88 e7 a8 3f
       0.05661722537696771 0.04864144775676479
0005c0 b3 6f 7a 9a 2d 85 bb bf e7 da 41 3d 3b e9 c4 bf
       -0.1075008871216017 -0.16336765757633673
0005d0 03 fd 3a 0b 3a 5c c9 3f fe 6d f8 e1 ff b9 a7 3f
       0.19812703655586725 0.04634093888691025
0005e0 71 34 ac d6 3d 38 d1 3f 69 37 bf 79 61 0d c5 3f
       0.26905771221283376 0.16447084850954788
0005f0 bc e0 80 fd b8 31 c1 3f aa 49 55 61 f6 57 c4 bf
       0.1343299138841355 -0.15893440010638687
000600 60 35 2d 01 35 36 af bf 46 48 16 1f 95 64 c9 bf
       -0.060960441964747814 -0.19838203447267427
000610 85 c1 c1 64 76 9e cc 3f 9c 30 e8 42 f4 fa c8 3f
       0.22358589095848572 0.19515851275389628
000620 da a6 b7 8e a6 6e bb bf 34 1f 90 7e c6 b3 cc bf
       -0.10715714439688942 -0.22423630885918444
000630 30 30 05 80 7d f1 cd 3f 69 63 3f 39 03 a0 c0 bf
       0.23393219710340096 -0.1298831967858647
000640 68 b7 de 15 86 7a b0 3f 00 80 bc 0d d6 3c bc 3f
       0.06436956438002783 0.11030328593597005
000650 7e 6f b3 00 83 6e ca 3f b8 3e 0c a5 05 ef c1 bf
       0.20649755033707246 -0.14010687407470868
000660 bb 19 f9 34 96 b4 d0 bf 68 5c b4 8c 69 c3 cd 3f
       -0.2610221402468615 0.23252601023043273
000670 e2 99 6b 02 d9 38 c5 bf 2c e3 9d 34 df b4 89 3f
       -0.16579735391788036 0.012552017014728266
000680 98 83 ed f7 93 79 b4 bf a0 e3 2c e4 a1 fb 9b 3f
       -0.07998013308453122 0.027327088882177386
000690 38 4e 30 a4 a4 0c a5 3f 4a 06 c1 03 1b 36 c9 3f
       0.04111208442932618 0.19696366961766137
0006a0 8e c7 2f e5 17 36 b6 bf dc bf a5 ad 1c 23 bc 3f
       -0.08676289887787744 0.10991076697769081
0006b0 80 31 29 7a 51 01 7d 3f 60 3d 9b 5c 1e 23 88 3f
       0.007081335325505811 0.011785733414767463
0006c0 91 5b eb cc 2e 48 c1 bf 30 26 8a 65 2b 3d c0 3f
       -0.13501534467533507 0.12686674554815758
0006d0 d0 b4 a4 c4 55 1f 94 3f 8a 47 d3 da 8e d7 cc bf
       0.019650783660087268 -0.22532830891446692
0006e0 b0 2a da 46 4d 32 d0 3f 80 4f 69 5c dd 34 6b bf
       0.25307018202935705 -0.003321106286685749
0006f0 de d6 f6 8f 29 68 c1 3f 3d 06 62 2a b0 98 c1 bf
       0.13599128274443378 -0.1374721724460403
000700 f0 4c f9 3a b2 0d b3 3f
       0.07442773761549737

bias f8 [15]
000000 70 2d d3 eb a7 4a a5 3f 55 fd fa d2 f4 f1 c7 3f
       0.04158520463678428 0.1870714216401931
000010 fd e1 15 73 37 cc cb 3f 18 c7 61 78 24 fd bf 3f
       0.21716969603927785 0.12495639742862996
000020 db 39 5a 7c ec 56 a3 3f 67 25 c9 b7 a2 70 98 bf
       0.037772550754300936 -0.02386717077960068
000030 11 f0 c0 27 6e 29 d0 bf 76 fe b0 1d ae 2b bb bf
       -0.25252870447343506 -0.10613525605094218
000040 9e d3 28 88 7c 4b c8 bf 7f d3 e8 d1 17 b0 69 bf
       -0.18980366371547758 -0.003135725520474641
000050 65 77 36 01 37 86 b5 3f 4d 43 4b 56 8d c2 c4 3f
       0.08407920627220518 0.16218725884984977
000060 e9 78 2c 0e 4a 8a ae bf 21 94 bf 12 6b ad a8 3f
       -0.05964881346720736 0.0481980762849974
000070 27 d7 9c e4 d4 e8 cd bf
       -0.23366795695044937

weight f8 [1, 15]
000000 75 12 e1 bc 19 6b c9 3f dc 05 b6 63 11 65 cf 3f
       0.19858094904533954 0.2452718483801125
000010 f7 ca 65 f6 3c 05 c9 bf 65 f7 58 15 f5 5e ca bf
       -0.1954723551858348 -0.2060228685604059
000020 d9 62 be 91 72 f3 cc bf 99 97 b5 b5 5d ba 90 3f
       -0.2261794292105808 0.016335930076273184
000030 03 9a 5a ec 9e f1 ca bf fc b8 51 4c 1c f4 b8 bf
       -0.2104986814567412 -0.0974748312307589
000040 c0 04 39 bc b1 ac cd 3f 36 e0 19 1c 25 5d c5 bf
       0.23183271112978865 -0.16690505859492227
000050 02 4e 45 3a 6b 49 c5 3f ca 11 9d 59 52 04 bd 3f
       0.16630306573152615 0.11334719360190273
000060 02 a7 9d d6 c2 c7 c1 bf ef de 87 48 d0 c2 b1 3f
       -0.13890872458733133 0.06937886973161843
000070 a6 d3 3c a5 f0 ca ca 3f
       0.2093182379554978

bias f8 [1]
000000 fb 10 c8 a3 55 cb c9 bf
       -0.20151777741569518
