k-ICBC ex4/NN_Train_Result/Pre_Result/Control_model.pth (torch, 7815 bytes, 10 tensors)

weight f8 [10, 3]
0.03452636956130326 1.2319508479491932 -0.9495477920853724 -0.3161437377135661 0.012143490137798025 -0.7802725261055551 0.7877679951740653 0.3399583298687873
-1.2250344316717479 -0.22965795614698015 0.34043927693502346 -0.011735548755907358 -0.633642552700619 0.573704995053576 -0.7617373227739891 -0.5261331514142839
0.5241602800576463 0.3818984054838744 -0.815562625419785 -0.6701123775958084 -0.5484826003770533 0.4290829146864546 -0.03583548296649206 0.9879501970864913
-0.25341238448913334 0.14108315780961572 1.3670232706525476 -0.5709583369738975 0.742469701403765 -0.0056486585093280615
00000000: ad16 3bb8 70ad a13f 418a a317 12b6 f33f
00000010: a1dc 1f0d b262 eebf 7028 94f1 b23b d4bf
00000020: 3d56 02a8 afde 883f bbe6 b216 fef7 e8bf
00000030: 8675 033a 6535 e93f 9b82 3295 e0c1 d53f
00000040: cf10 48b4 bd99 f3bf 0c70 7591 6e65 cdbf
00000050: 936d 2dd2 c1c9 d53f 559e dbb0 ce08 88bf
00000060: eb7f 26bf cc46 e4bf 8ad2 e993 ca5b e23f
00000070: c19e 2ef3 2660 e8bf f34d d530 15d6 e0bf
00000080: 9db6 96c7 ebc5 e03f 8da8 7c02 0671 d83f
00000090: 6e92 80ca 1619 eabf d066 4d83 8f71 e5bf
000000a0: 646c e161 2b8d e1bf 8d71 762f 1876 db3f
000000b0: ed40 c146 0759 a2bf 0506 52bb 499d ef3f
000000c0: a70f f293 e837 d0bf b283 674e 030f c23f
000000d0: aa2d 05cb 53df f53f 56ce 156b 4a45 e2bf
000000e0: 0f9a b9d1 4fc2 e73f 0a79 0539 0c23 77bf

bias f8 [10]
-0.24426578037187313 0.5883337042229008 -0.02991274423901532 -0.5940852394928597 0.9943160227872464 -0.4688650594915378 0.06531960618758927 0.35199281424521145
0.3726454580120673 0.25568797536709265
00000000: 9a53 1de1 1944 cfbf 5fb3 5834 a1d3 e23f
00000010: 96f2 f548 72a1 9ebf a60f 550c bf02 e3bf
00000020: 0952 f8d5 6fd1 ef3f 3c35 3098 e201 debf
00000030: e900 5d24 c9b8 b03f 4a0d 67de 0c87 d63f
00000040: 988b ca55 6cd9 d73f cca7 0b19 315d d03f

weight f8 [10, 10]
0.29942622597810303 -0.4115857415751366 -1.087293003078393 -0.47155241168557543 0.20957770190908817 0.9020415135370027 -0.32111786203957376 0.19169566713059752
0.27790099856399775 0.35375667019962326 1.1509684100595912 0.040072435790917606 0.3787806067777143 0.25700793514544906 0.9007906202333985 -0.7164543616209834
0.83734748529749 -0.20959878839481028 -0.4022269115985688 0.4346155629848832 0.912383798304363 0.33872157214958654 0.263950736357711 0.5741005458897508
0.9552775202444188 -0.6796566335129339 0.971784304516283 -0.4587283627843973 -0.41995559114526543 0.31601041830745347 1.0178703232963104 -0.04519645957707421
0.02013507146941537 0.5674594152435708 1.0618247906160547 -0.7697466965595627 0.5127526983145553 -0.3540544952094387 -0.2739662809235588 0.1810624071212386
0.2326416341817952 -0.3818751235639575 -0.9961874430234846 -0.03417927681701722 -0.3029189951752895 0.6133492677049198 -0.10354778375001393 0.5557825491983588
0.43289922450657004 0.2340215305176691 0.26160854467450745 -0.14910505318231904 -0.3025965172003315 -0.28079552062117796 0.2103478729769705 0.1725499420678887
0.16757441977678783 -0.09999769188587329 -0.3771557119064176 -0.12136598422052444 0.734595150643266 -0.3672050567151299 0.2577825094095151 0.07191681887431105
-0.027666276773288763 -0.626098084018795 -0.27483565101423324 -0.05096511270849445 -0.46687817748951227 -0.007783174288482609 -0.5604513645787573 0.7518416389900897
-0.6910416689754071 0.12273675104486491 0.9857496350122185 -0.020741549499847443 0.7483352135475378 -0.6304943792367588 0.2055238937848305 -0.13003074383788216
0.04991256389410675 -0.8211523161761632 -1.3831712064825552 -0.002562473163645787 -0.17974661260459976 0.5616363505059068 -0.2668937249311615 0.10850975431164561
0.39087023317558606 0.33329673856780584 0.016773099063461597 -0.5604628052756399 -0.8580100869093716 -0.37916997374692313 -0.29695511340937886 0.5658722534962081
-0.32109869977369493 0.30410808114375415 0.5105628335635763 0.3466090615340904
00000000: 8b00 099e cc29 d33f ea2a e4b8 6b57 dabf
00000010: de42 1659 8d65 f1bf c186 a22a ea2d debf
00000020: b3ce d52f 71d3 ca3f 17d3 082a 86dd ec3f
00000030: 2bc5 e7ee 318d d4bf 4d2f 8ece 7b89 c83f
00000040: 54eb 1645 21c9 d13f 8bf3 4f04 f3a3 d63f
00000050: 03f6 fed9 5d6a f23f 95d7 62d2 5f84 a43f
00000060: 5209 9e03 f13d d83f c4c7 1069 d172 d03f
00000070: a745 ced9 46d3 ec3f 47a3 87b2 31ed e6bf
00000080: acb2 17f4 8ccb ea3f 78ed b712 22d4 cabf
00000090: 90c3 b8f1 15be d9bf a992 56cb bdd0 db3f
000000a0: 8ec2 e381 3f32 ed3f 6a42 b53e 9dad d53f
000000b0: cd55 1aa1 91e4 d03f 90ca a61b 085f e23f
000000c0: 60b8 8129 a291 ee3f fe51 ae44 bfbf e5bf
000000d0: b93b d565 db18 ef3f e605 fa34 ce5b ddbf
000000e0: d770 6f6a 8de0 dabf c8d9 f4c2 8339 d43f
000000f0: 8e06 6264 3249 f03f 239a 8e87 fd23 a7bf
00000100: 57e4 dac5 499e 943f d2e8 c8a5 a028 e23f
00000110: b372 dcfd 3bfd f03f eaac fdd2 c3a1 e8bf
00000120: ef4b c658 7868 e03f f548 7b2f d4a8 d6bf
00000130: f07f 31de a988 d1bf fa74 8f8e 0d2d c73f
00000140: e1d8 3f79 33c7 cd3f f43d b75b a470 d8bf
00000150: 6918 0f7d c4e0 efbf f991 4238 f27f a1bf
00000160: fb5c 675a 0663 d3bf 872e baa4 8ea0 e33f
00000170: 3793 c788 1b82 babf a2d2 0f7c f8c8 e13f
00000180: f60b eef2 9eb4 db3f 7e0e 11e2 6af4 cd3f
00000190: 66cb eec3 31be d03f 300f 8bd7 df15 c3bf
000001a0: 3b92 50c8 bd5d d3bf a699 7bc6 8df8 d1bf
000001b0: 6610 9cd9 adec ca3f 02dc 0dd3 1d16 c63f
000001c0: 8632 4b1e 1473 c53f 8a47 53e0 7299 b9bf
000001d0: 72cf 08b6 5123 d8bf f6f1 1255 d711 bfbf
000001e0: 4404 7ab0 cd81 e73f 931b 61a3 4980 d7bf
000001f0: 6e42 d935 827f d03f 2bf7 1801 2469 b23f
00000200: 1200 c667 8c54 9cbf 155e 5ed9 fe08 e4bf
00000210: 5262 3845 e896 d1bf dece a368 1918 aabf
00000220: 7f25 e201 55e1 ddbf e719 73f0 3fe1 7fbf
00000230: a3a8 3bb3 37ef e1bf 9e78 6732 160f e83f
00000240: 3286 0d6b 031d e6bf ef46 c1fb ac6b bf3f
00000250: 3b7c 8dd1 428b ef3f e9b1 14d3 453d 95bf
00000260: 2038 94b0 5cf2 e73f 4647 648c 022d e4bf
00000270: 401c 2d61 9b4e ca3f 940e 21f0 d8a4 c0bf
00000280: a75d 2bbb 238e a93f 595c e038 e146 eabf
00000290: 73c8 8921 7821 f6bf 205c e94d e5fd 64bf
000002a0: 830d 5adf ef01 c7bf 7e5d b5cb ecf8 e13f
000002b0: ba90 056b c914 d1bf 74c5 1096 4bc7 bb3f
000002c0: b104 1e95 0404 d93f b0c7 00d8 bb54 d53f
000002d0: 8475 b89f f72c 913f b510 69b1 4fef e1bf
000002e0: 6a3e dd91 d174 ebbf cf90 3723 5244 d8bf
000002f0: c849 1e05 5001 d3bf 735c cf20 a01b e23f
00000300: ad3b 948f e18c d4bf 1f8d bdbd 8176 d33f
00000310: 46ad 16de 8756 e03f 9b50 f2c5 d72e d63f

bias f8 [10]
-0.2737524282267468 -0.19138190923477896 0.011568328025978862 -0.19763933061060862 0.32056452231983446 -0.25463969801869074 -0.4264814643091758 -0.016523172400281144
-0.19451387003776216 -0.2472991408152315
00000000: 45ce 9be7 2885 d1bf 25ce 9ad0 337f c8bf
00000010: 09ed 53b4 22b1 873f 5a1d b0de 3e4c c9bf
00000020: 7ec7 e70e 2184 d43f dd3a d04d 044c d0bf
00000030: eeb7 63e9 784b dbbf 286d 5754 73eb 90bf
00000040: 561d 379b d4e5 c8bf 43ae 108d 7fa7 cfbf

weight f8 [10, 10]
0.2034650510074701 0.07894810109885222 -0.20024348556251015 0.07025150630462651 -0.1702573367539941 0.051642277262056 0.23989860145744948 -0.18493190231997492
-0.2797886840647363 0.07896633412918376 0.07236827788455258 -0.06353110854773869 0.10314696450010258 -0.2776872795550923 -0.21769367826830566 0.17341924914832318
-0.27482293681355163 0.047004319453537224 -0.20788567251289497 -0.03601718194882547 -1.493980468075262 0.42543243684560733 0.8740060328113317 0.5110353812619681
-1.2070138516418483 0.12369360025388211 1.3687985049034281 0.4841288041581945 -1.3874328804655907 -0.7852643962331975 -1.3218995704147742 0.758928498537379
0.6656287346915742 0.37730995777152776 -0.8315143941348686 0.2515702743814171 1.4637163750711006 0.8224595544415055 -1.2903190576236232 -0.7890225073105559
-1.373584007561835 0.7719082341696728 0.7186692346096077 0.35299106382791656 -0.8514318628541426 0.10639462979483892 1.314161501710694 0.701439490232398
-1.0143613233237925 -0.8634789971218438 -0.15577518963170653 -0.3575276985761911 -0.22858366735647334 -0.006304797211914038 0.14860150925469473 -0.10390054964818679
0.24960162074598347 0.07435416107576137 -0.174108997163049 0.06571477938389703 0.020137655697006852 -0.18306378293992184 0.339968056143799 -0.0203694330481709
-0.436296251075021 -0.11384360468805801 0.7784314735829123 0.07829619865026466 -0.18937130821101159 -0.34785430600599243 -0.6001889685365723 0.8582286737446134
1.0750472700495974 0.9345935647945978 -0.6078173399501431 -0.031129673303916548 0.969544575852001 0.9894938759505847 -0.5108298037099563 -0.3442042953628915
-0.4223022812714584 0.4914745104919366 1.3178183576241849 0.8943616626879565 -0.5517605536241181 -0.17782216254489364 1.316667323322175 0.69134315922441
-0.4294458892633488 -0.14736807822468492 -0.25524156209150206 0.12986830171090852 -0.30277749773656704 -0.017069379105370965 -0.02650671301252011 -0.2693109138710707
0.28282547085650056 -0.19400919135983652 0.05027432818808286 -0.20785225038148405
00000000: 0a60 fa8d 240b ca3f f205 4d58 f135 b43f
00000010: 1030 dd1a 94a1 c9bf 40b7 12b2 00fc b13f
00000020: 6798 a10e feca c5bf e8ec dc47 db70 aa3f
00000030: 45d5 ce53 ffb4 ce3f 20c6 393c d9ab c7bf
00000040: af54 f6cb 0ee8 d1bf e1e1 913e 2337 b43f
00000050: b830 c83a ba86 b23f e8bc 7d21 9343 b0bf
00000060: 3ca9 35e7 d667 ba3f c213 0dde a0c5 d1bf
00000070: 30aa 5aee 62dd cbbf dc61 cb19 9a32 c63f
00000080: 2283 73f1 b296 d1bf 40b9 a53d f310 a83f
00000090: 16fb 5f6a ff9b cabf 38ea 2015 d870 a2bf
000000a0: b5ef 3310 58e7 f7bf bd34 baf8 483a db3f
000000b0: cecd ed7f dbf7 eb3f 36cf 33df 665a e03f
000000c0: 87ee a9c1 ed4f f3bf a99e d03f 62aa bf3f
000000d0: 93fb d542 99e6 f53f 624e 3a61 f7fb de3f
000000e0: a8ea efd1 ec32 f6bf d41c 91cc e220 e9bf
000000f0: 4c72 f829 8026 f5bf bc0d 276b 2449 e83f
00000100: c9e6 d8a1 d44c e53f d85d 45aa d825 d83f
00000110: eccc 1e13 c49b eabf ae4a 4735 ba19 d03f
00000120: fecc 98dc 616b f73f e97c 13b3 9651 ea3f
00000130: 4f62 9e98 25a5 f4bf c49d 1621 ac3f e9bf
00000140: 5196 6c39 33fa f5bf 08b3 a8e5 78b3 e83f
00000150: 8a44 699f 56ff e63f 20f4 bad4 6797 d63f
00000160: 8863 b708 ee3e ebbf 2759 70af ad3c bb3f
00000170: a527 f835 ce06 f53f 5579 d53a 3172 e63f
00000180: 2b0c 60f0 d23a f0bf 737a adb4 9ea1 ebbf
00000190: 4f89 7f00 71f0 c3bf f520 33db bbe1 d6bf
000001a0: d60f d9c7 3a42 cdbf 9b4e 541d 0fd3 79bf
000001b0: c44c 31cf 5f05 c33f bc7f c6f6 3999 babf
000001c0: d8f8 1027 f2f2 cf3f 4c54 24d2 df08 b33f
000001d0: 7298 6020 3449 c6bf 5054 510c afd2 b03f
000001e0: da08 8c32 f79e 943f 8b8d 6750 a26e c7bf
000001f0: b4a0 b460 09c2 d53f afac 1e83 b9db 94bf
00000200: 0404 6f1c 47ec dbbf 4274 febe da24 bdbf
00000210: fce6 261f e9e8 e83f 24a0 9a3c 380b b43f
00000220: 7994 c8ab 513d c8bf 8862 04b5 3e43 d6bf
00000230: 0b1b e97e bf34 e3bf 481f c7fa 9b76 eb3f
00000240: 0c46 28c4 6433 f13f 0c09 7bc3 30e8 ed3f
00000250: ede1 a059 3d73 e3bf f618 1a03 75e0 9fbf
00000260: 9b8d a958 8206 ef3f f299 990f efa9 ef3f
00000270: 1e34 98be b758 e0bf 697c ee73 7107 d6bf
00000280: 2a93 c525 0007 dbbf ba59 5881 5174 df3f
00000290: 6607 c1b3 c815 f53f 844f 8159 9c9e ec3f
000002a0: ea3a a1bf 05a8 e1bf 3631 516a e0c2 c6bf
000002b0: f016 56c1 1111 f53f 45d4 65b0 7b1f e63f
000002c0: 046a 729c 0a7c dbbf a985 390a f5dc c2bf
000002d0: 40d4 70b4 e055 d0bf 3655 5146 869f c03f
000002e0: ba91 afde b460 d3bf 9a16 15a4 a27a 91bf
000002f0: 908c 0d66 9324 9bbf 470e e2d7 633c d1bf
00000300: 747c f300 d019 d23f 98c7 010e 4bd5 c8bf
00000310: 00d9 ca86 8ebd a93f d5ec e40c e79a cabf

bias f8 [10]
-0.3710943826439882 -0.2589262863594501 -0.24644813947911282 -0.23817604511231247 -0.07811209241532957 -0.10378725948908206 0.3809851335786993 -0.4087829721149667
-0.019373539479716907 -0.29971956259104937
00000000: f6da 4ba7 02c0 d7bf b744 ff8e 3f92 d0bf
00000010: e485 9cd5 9c8b cfbf 2758 397a 8d7c cebf
00000020: 8091 5872 27ff b3bf 2f40 3f45 cd91 babf
00000030: a3e4 3e78 0f62 d83f 404f 190e 8029 dabf
00000040: 2a81 e439 a8d6 93bf e832 d3f5 9a2e d3bf

weight f8 [10, 10]
0.07170879474583658 -0.256864490879358 0.8963212503102962 1.0626559519998833 0.6327054162612533 0.11975527450851936 0.3807454188939725 0.44661902181789337
0.8523420588672509 -0.11477189670422347 -0.1825607894142296 -0.10291008356295464 -0.16545002019682958 -0.1744058041564079 -0.16349575794966215 -0.08396382048938873
0.07871458260880303 0.3504473683142317 0.49649490760782616 0.04508707718398447 -0.2737544470625779 -0.13018295717761103 -0.1620743180141384 -0.10474862831650902
0.03301569741165167 0.030464887391953743 -0.12525124455647896 -0.31342871696941743 -0.17118280761479981 -0.03904057298370628 -0.09490268822909385 0.133852116009187
1.703640721322096 1.4793363160825606 0.9433551718248918 0.02776389735697863 0.23090464532698513 1.0675764879494252 1.5035024366273986 -0.08326605638820449
0.005466617688972774 0.007984826615800134 -0.7184850421042642 -0.16661079283716465 -0.07853332602279385 0.031058734275429004 -0.22540220195162552 0.07040471400485637
-0.035533714803589946 -0.0851679273670696 -0.0035390701451019665 0.3073447822633566 1.7104560526223815 1.5576663960541253 1.185770199746959 0.19774692244309824
0.5385794694178823 1.2378851007332738 1.137313294396417 -0.08951206927300079 -0.05202404470419089 -0.0547104135847602 1.4967645841467607 1.3728208878673365
0.9939706927292098 0.03478130234604582 0.44118364595703563 1.2098252408547792 1.1976793177515659 0.13555953885748173 -0.1886200862908465 0.03697413649933934
-0.6379171328154916 -0.10486554459926982 0.034911325514946245 -0.059570184487395046 -0.7358625752641094 -0.15223930842294134 -0.38007595523952675 -0.08152825229805286
0.004167342134722085 -0.2425627524722777 0.2997647112708692 -0.09898061227870121 -0.11683263342462932 0.29019063537150075 0.4364812758698516 -0.11800659910417985
0.2546092465157415 0.21913796499753735 -0.08913498011015136 -0.14006291331132134 -0.15848719818094556 -0.19400744429855019 -0.4195920745926613 0.21349866128432066
-0.2033481571892111 -0.30322043263104315 0.1634465636185096 0.19954993123039844
00000000: 90d9 44f0 815b b23f 7327 f5c2 7770 d0bf
00000010: 965c 19e7 a9ae ec3f f2d3 0b87 a300 f13f
00000020: 4603 db6d 1f3f e43f b49f 891b 48a8 be3f
00000030: 7817 9008 225e d83f e0ad 1ef3 6795 dc3f
00000040: 81e2 7ada 6246 eb3f 1e33 d8e6 b061 bdbf
00000050: a074 08e6 265e c7bf 52de 54b3 5058 babf
00000060: 1618 ef5c 772d c5bf 13cc 8aec ed52 c6bf
00000070: 1ada b6d2 6ded c4bf 6594 0c27 a77e b5bf
00000080: d7e9 058e a326 b43f c33f 78cc ba6d d63f
00000090: 0b98 b393 92c6 df3f 2873 f443 a715 a73f
000000a0: 682c 515f 3185 d1bf 3286 c9cb d5a9 c0bf
000000b0: 8834 b2eb d9be c4bf 8a96 eb5c ced0 babf
000000c0: 707d 46f9 6ee7 a03f c05b 19fc 2f32 9f3f
000000d0: cca1 9397 3b08 c0bf 64b2 4052 370f d4bf
000000e0: 3ee8 2b78 51e9 c5bf c83e 5d40 20fd a3bf
000000f0: d716 3fe6 8a4b b8bf f842 61ee 1022 c13f
00000100: 6365 e3c5 1c42 fb3f 66c1 958e 5cab f73f
00000110: 0a03 702f f72f ee3f 6a82 a19c 236e 9c3f
00000120: b641 168e 488e cd3f 868a 5b15 cb14 f13f
00000130: f955 2c92 580e f83f 07e2 0d9d ec50 b5bf
00000140: bf1a 1a03 2a64 763f c0c7 6e49 595a 803f
00000150: 8f18 d057 d4fd e6bf 6db8 32a1 8053 c5bf
00000160: 41fc e992 c21a b4bf 545b df5f dccd 9f3f
00000170: 3010 eab6 fad9 ccbf 5895 2218 0b06 b23f
00000180: 253f f99d 7931 a2bf c2ac b5b6 90cd b5bf
00000190: 87be 01d1 f7fd 6cbf fcb5 1a73 89ab d33f
000001a0: 5722 742a 075e fb3f 2617 5299 33ec f83f
000001b0: d3c0 472c eaf8 f23f 7d8d 636a c54f c93f
000001c0: 7c4c ee02 0b3c e13f 65ae 7d9b 60ce f33f
000001d0: 6fd1 cb6c 6f32 f23f 86f4 1f52 43ea b6bf
000001e0: 8464 3845 e5a2 aabf 78c1 31da 0003 acbf
000001f0: c38a ab6b bff2 f73f 8a7e 0a09 13f7 f53f
00000200: 9e8a 4ea0 9bce ef3f 1057 2dd8 dace a13f
00000210: ba97 ba54 5a3c dc3f ac8b 35b6 715b f33f
00000220: c66a cdc9 b129 f33f 78e0 06d5 035a c13f
00000230: f972 fef6 b324 c8bf 5000 2026 46ee a23f
00000240: 1e05 e030 d169 e4bf bbf5 87e4 77d8 babf
00000250: 4083 b1b2 e5df a13f 014e 61b4 fb7f aebf
00000260: 9182 e3ab 2f8c e7bf e5cc 6be1 937c c3bf
00000270: 88fb 6f19 2a53 d8bf eaf6 5119 09df b4bf
00000280: c0c3 e062 c611 713f 7e4f 8cd8 4b0c cfbf
00000290: 1bcf d953 582f d33f e5d1 ac1c cb56 b9bf
000002a0: 2612 aa53 bee8 bdbf e9aa 21be 7b92 d23f
000002b0: f959 4b29 4fef db3f be58 dd33 ae35 bebf
000002c0: 01d6 c294 844b d03f 30fb 7c7c b60c cc3f
000002d0: a4b1 80d0 8cd1 b6bf 67fd 06e0 94ed c1bf
000002e0: 63cb 82fa 4e49 c4bf 27ae 3866 3cd5 c8bf
000002f0: 4b52 82b7 98da dabf 325c fa93 ec53 cb3f
00000300: 012e 6afa 4f07 cabf 7a46 68ac f667 d3bf
00000310: 5f4a b126 d1eb c43f b4dc 4626 da8a c93f

bias f8 [10]
-0.4014227863518878 -0.3378854183775816 -0.12453024779825944 -0.2910048223699919 2.9555958590111326 -0.29908129817002543 -0.27383465995476497 2.861194526865195
-0.15359660250930166 2.9448073794178966
00000000: 1009 d032 e9b0 d9bf 0387 6e29 ea9f d5bf
00000010: 4c03 a8dd 36e1 bfbf 84ac c3b0 d29f d2bf
00000020: af2a 1571 0fa5 0740 2b12 9fe2 2524 d3bf
00000030: 7816 41cf 8186 d1bf a90a c3f4 b9e3 0640
00000040: c9ee 46b0 0da9 c3bf 63f4 dc2b f78e 0740

weight f8 [1, 10]
1.0472054474032744 -0.3980749023429915 0.25152071770232687 1.1017308395691707 -3.7362103378155544 1.409524254318432 1.2181181537397932 -4.022821125386682
-0.09165112620172469 -3.4584048573092714
00000000: 4ca4 cc7f 5ac1 f03f 8cfa ba27 0f7a d9bf
00000010: 7c11 335a ea18 d03f 7d1b 4f84 b0a0 f13f
00000020: cb28 df3e c2e3 0dc0 9776 f34d 698d f63f
00000030: f99e 0f76 697d f33f 5dc6 cc6b 5e17 10c0
00000040: da8f adbd 7276 b7bf 56c4 732a d0aa 0bc0

bias f8 [1]
-1.6352633230866414
00000000: 2516 d0df 092a fabf
