k-ICBC ex4/NN_Train_Result/Pre_Result/k_ICBC_model.pth (torch, 8071 bytes, 10 tensors)

weight f8 [10, 3]
0	0x3fd9a89579d5f287	0.40091454408665367
1	0xbfb2cee547c126eb	-0.073469476717175
2	0x3fd8083a58badf4c	0.37550219216381175
3	0xbfdaf2bf1b0bbe39	-0.4210660709495389
4	0xbfd3a15f2f85e0c5	-0.306724354180471
5	0xbfe3b298e7f0b5c2	-0.615551426895472
6	0xbfca56090836603d	-0.2057505884265555
7	0x3fd07c1236d333d6	0.257572701969193
8	0xbfb2fb3360c93e0c	-0.0741455184263417
9	0x3fb2a6bac55eeb75	0.07285659140226904
10	0x3fc75e18a9cc7549	0.18255909243536397
11	0x3fb02a462920b13a	0.06314505104154913
12	0x3fd32ece6c30c1a1	0.2997318321750076
13	0x3fde446e4958ea0e	0.47292668497871737
14	0xbfde3b616d2bdaad	-0.47237430249462414
15	0x3fd9bb5e55ec2978	0.4020610655867567
16	0xbfd6472596ae21b7	-0.3480924579130504
17	0x3fed2e4cbd3da1d2	0.9119018264873893
18	0xbfddc2e51e66b5ed	-0.46502044648045066
19	0x3fe0dea33a32c82e	0.5271774422346931
20	0x3fd283390998b222	0.28925920426516616
21	0xbfb2feeb4a7c5d37	-0.07420225685597336
22	0x3fe3c9097c6f0737	0.6182906561227587
23	0xbfe82c3666fbd6c8	-0.755397034778718
24	0x3fe4ca5f3b859ba4	0.649703613523219
25	0xbfc54c4af771478a	-0.16639077264931884
26	0xbfd2c92cb363b312	-0.29352872389317597
27	0x3fb7a8de47cedf6a	0.09242047551276547
28	0xbf968c8be2aa4469	-0.022020517072239097
29	0xbfc9b6b90691561d	-0.20088875599564995

bias f8 [10]
0	0x3fc4c53c36d6d5f0	0.1622691409844914
1	0xbf8c70d0d2301add	-0.013887053884912454
2	0x3fc04db601fbc228	0.12737155052993043
3	0x3fe0eb5ba46785e3	0.5287302218459299
4	0xbfe68f15548f0bfa	-0.7049662257708171
5	0x3fb1e55d8e1b4a94	0.06990608901404932
6	0xbfd16614c35686f2	-0.27185553623176795
7	0xbfddd2d11fdb8794	-0.4659922419651761
8	0xbfe5f51395c400bf	-0.686166565428742
9	0x3fe167aa85d20b66	0.5439045537644744

weight f8 [10, 10]
0	0x3fd902d6d49e5028	0.3907982899047533
1	0x3fd8f69e6c70458e	0.39005241956427816
2	0xbfc0d3b5f566bfbf	-0.13146090013969844
3	0xbfe1387e5b4fcd74	-0.5381461890632822
4	0x3fc01d354c8a8e00	0.12589136350025854
5	0xbfc9b7b30f6136d9	-0.2009185624214556
6	0x3fcba6e0b0bc38a9	0.21603020314836854
7	0xbfcd50df4dd3ca09	-0.22903052616273126
8	0xbfd5192db2c7f70e	-0.3296617742451965
9	0x3fc42f2030aabe59	0.15768816353146312
10	0x3fc9a40442b78e23	0.20031789071718817
11	0x3fd2f87fc67ae869	0.29641718275855183
12	0x3fafc695a9ad0861	0.06206195541609883
13	0xbfcb858533f5466f	-0.21501221692101377
14	0x3fe10ad021a09588	0.5325699478895993
15	0x3fcc356f169635f4	0.22038067438954523
16	0x3fd3c9f7d19feaee	0.30920215102348336
17	0x3fdda33eb0177c61	0.4630886764188685
18	0x3fda4eb0ce51b240	0.4110528960070816
19	0x3fc9cf2565f4da19	0.2016340968927615
20	0x3fd315db4d705189	0.2982090240705238
21	0xbfdb38c5a8388baa	-0.4253400938779871
22	0x3fc252fa0d5b843d	0.14315724994870208
23	0x3fcbf4c572308097	0.21840732646615343
24	0xbfef708ae913e4a8	-0.9824881126688938
25	0x3fdb693e733b0a7a	0.42829858067504
26	0x3fc30b3e01900f2e	0.14878058506303077
27	0x3fd753ca76e786c9	0.36448918926008084
28	0x3f9b145e7efd5dae	0.02644488954623874
29	0xbfca81ea73ea4e0f	-0.20708971652912608
30	0x3fbec6a6f7a16a91	0.12021869226138394
31	0x3fe25570fb2bb01b	0.5729298501660226
32	0x3fac38f85f40f416	0.055122148158695136
33	0xbfd106160f7f4c05	-0.26599647057918246
34	0x3fe1d2e3ccb0c3a7	0.5569933889256519
35	0x3fd4cdbb34bbb51a	0.3250568404171915
36	0x3fc76386fa2962e3	0.18272483076977783
37	0x3fd8d29b92c89fc5	0.38785447439522286
38	0x3fe0190d6a97c85d	0.5030581552403067
39	0x3fa067251a88eed8	0.032036933411715374
40	0x3f81c01120c12366	0.008667119800650002
41	0xbfd66b0e0c039f5a	-0.3502841107679068
42	0x3fc57a4876a693c9	0.16779428285113188
43	0x3fc28e1adec96f96	0.14496169927849384
44	0xbfc7ebecaf00f9c8	-0.18688734574420907
45	0xbfc400b8b0888b71	-0.15627201671403726
46	0xbfb14cf1de5e54bd	-0.06758033446233731
47	0xbfcee4538342c22f	-0.2413429633065944
48	0xbfd375c77aa75c87	-0.30406367280870267
49	0x3fcfa82a15a6049d	0.2473194699960332
50	0x3fa29b8edb268c19	0.036343063594607546
51	0xbfc491fac4d23139	-0.16070494280246253
52	0xbfc8b93f42678db3	-0.1931532930603744
53	0xbfd893a83fe88293	-0.3840122818092279
54	0xbfd9024349ed6d4f	-0.3907631132076021
55	0x3fc4169211919657	0.156938799456088
56	0xbfdb6ccfa33b2679	-0.42851630154164116
57	0xbfccadd413a28a02	-0.2240548225282311
58	0xbfde976b9cf98089	-0.4779919655757188
59	0x3fd357d7e114e2cd	0.30223652821181873
60	0x3fd4fe84950eb19b	0.32803453976046065
61	0x3fd9ff501bafa52c	0.40620806411478116
62	0x3fa2e3f1407efbe8	0.03689531242661542
63	0xbfb1545e68518fdd	-0.067693615406426
64	0x3fdb4280c1085b1c	0.4259340176662805
65	0x3fb2349fb3fb8473	0.07111547607520823
66	0x3fe25f55c61b73d8	0.5741375798494301
67	0x3fd922701ac25550	0.39272692311472657
68	0x3fdc6b1711b3b37b	0.4440362618323019
69	0xbfc1f233108ac9b5	-0.14020384128305144
70	0xbfd5213b218cf9a7	-0.33015325809892676
71	0xbfa36867bdcf0161	-0.03790592376708691
72	0xbfd2b8bf7143ad83	-0.29252611218426966
73	0xbfb4924ffe715aeb	-0.08035755121214165
74	0xbfd34d6e46670532	-0.30160099864231704
75	0x3fc18abbf9ac9150	0.13704633418195522
76	0xbfb939b55a056f94	-0.09853681037696865
77	0xbf976ce0aa4ced55	-0.02287627257758847
78	0x3fcbd691f16f007a	0.21748565949201631
79	0xbfcc2299b9e93fa2	-0.2198059232491661
80	0x3fd2ed61f79e8799	0.2957386892468264
81	0x3fd45fc2732d1160	0.31834470031414774
82	0x3fb54afc56788253	0.08317544089414612
83	0xbfc8eab8fd09c470	-0.1946631656205997
84	0xbfe81f22eb206b66	-0.7538008301083721
85	0x3fd2d130bbd84066	0.2940179666920869
86	0x3fc80d226c49570e	0.18790083205629354
87	0x3fdfb8bd3eaefc6e	0.4956505882400454
88	0xbfd143b3a0a39682	-0.2697571820011505
89	0xbfb6cae4bf0fc393	-0.08903340973462397
90	0xbfce0ee307cb9028	-0.23482931023238618
91	0xbfb2273773ec36c4	-0.07091089801925948
92	0x3fc01e52561e9f37	0.12592534260806484
93	0xbfa64331839afa67	-0.0434813950682738
94	0xbfbf84902140fed5	-0.1231165009676219
95	0xbfcc6b1a19233797	-0.22201849200649512
96	0xbfe1e66f30819de3	-0.5593791911496137
97	0xbfd6e4c580f5e0d6	-0.3577131041888725
98	0xbfc8e28c88a94763	-0.19441372559463863
99	0x3fc86b12b23c3e84	0.19076760962387962

bias f8 [10]
0	0x3fa4bce2a7a004ea	0.04050358101086167
1	0xbfd5363eed5a2fff	-0.33143590144095464
2	0x3fba914356f25c84	0.1037790381691242
3	0xbfb4d92a8b9a7e68	-0.0814386931256138
4	0x3fd5cc0be62ed683	0.3405790088539577
5	0xbfa25893a29119a3	-0.03583203658540703
6	0xbfd125ba00d763d9	-0.26792764742054725
7	0xbfbe5ddd2202c48e	-0.11861974792806704
8	0xbfa2608306666569	-0.03589257672428909
9	0x3fe0afbc6d2ce922	0.5214521534283316

weight f8 [10, 10]
0	0xbfdd48f4e2a225ac	-0.45757791645209056
1	0x3fcbc5cf28ef52e3	0.21697415827534092
2	0x3fdc596bf066e192	0.44295786358591116
3	0xbfaac178e61b7ca1	-0.05225732621124136
4	0xbfc8d4ce48c9b7e9	-0.19399431757068378
5	0x3fdc72a431bbef98	0.4444971547779857
6	0x3fd1f22c04f69c8b	0.28040600285243816
7	0xbfc6d737203292dc	-0.17844285080095446
8	0x3fe33a6bb5f8b8e5	0.6008814386493923
9	0xbfe9c075f107d066	-0.8047437389018455
10	0xbfddf091880a5714	-0.4678081348914571
11	0xbfe1ddb587f3cf3a	-0.5583140998191773
12	0x3fcb17e0c3752e4a	0.21166619819483606
13	0xbfce12adb27eca2e	-0.23494502273168066
14	0x3f82ffef2d3d4381	0.009277218406767098
15	0x3fc367cccc547b84	0.1516052243905187
16	0xbfe31679fbbb8ed2	-0.5964937130597383
17	0x3fbdbc2e7e07197d	0.11615267350052778
18	0xbfe25566634d739c	-0.572924798918041
19	0xbfa7666210e00e58	-0.04570299583431553
20	0x3fd6335e7dc11f9a	0.34688532143308637
21	0x3f9a073b5c11d3f5	0.025418212408528224
22	0xbfe02869712dec81	-0.5049330912146531
23	0xbfb369cad6c6d27f	-0.07583301299639265
24	0xbfd22b50994d52d9	-0.28389372797873375
25	0xbfd6c550f230d362	-0.3557932248252681
26	0x3fe4c167e48eeb05	0.6486091102627546
27	0xbfc61c71be2d2b60	-0.17274305139502655
28	0x3fd25edc221365db	0.28703978851043893
29	0x3fc4cee5e982e2cb	0.16256402875821716
30	0x3feb0245efcfd59b	0.8440274890733009
31	0xbf9822cafe331565	-0.02357022453795334
32	0xbfe22dcb81025a48	-0.5680902023039573
33	0x3fab85858716fe62	0.053753063908058576
34	0xbfdfb8581501da54	-0.4956264691494756
35	0xbfc0e44c6c6d4100	-0.1319671182086566
36	0x3fdc6a60c8a03303	0.4439928015934102
37	0x3fab382fba5fd586	0.053163043499732374
38	0x3fbddf104bf85776	0.11668493132341759
39	0x3fd42f72887f9312	0.31539595918575103
40	0x3fcc81a13ce5716c	0.2227059886307744
41	0x3f897551489b6124	0.012430796650207805
42	0xbfd0343558f9a51b	-0.25318654717428196
43	0x3fa7edc2640ca9af	0.04673583480174003
44	0x3fd310670dc0a8a9	0.29787613242172967
45	0xbfeae9d7eba822b1	-0.8410453417464706
46	0x3fe5e6a47864e37d	0.6844045974204246
47	0x3fafd764041faee4	0.06219017553652664
48	0x3fd0b55085ef29af	0.26106656150354984
49	0xbf923242ebec309d	-0.017769857072423723
50	0xbfd5683710d774a3	-0.33448578495683473
51	0xbfc568705c4dbb46	-0.16724972254766096
52	0xbfb47ec1469e0d21	-0.08005912756020851
53	0xbfc03b11bdb103b2	-0.12680265199926805
54	0xbfbb89e8200cefe1	-0.10757303984149715
55	0x3fbaca79c11f858c	0.10465203251762584
56	0x3fbf4cbd5c614b83	0.12226470475552102
57	0xbfd012ae7442bf7a	-0.25114022592151
58	0xbfd41ef0a423c7e4	-0.3143884280135565
59	0xbfc3509d1cf67c87	-0.15089763559533173
60	0x3fd6f978fd88fd61	0.3589766002587194
61	0x3fda31dea58a34ae	0.40929380575182506
62	0x3fb1475fcd77d81a	0.06749533430397073
63	0x3fcd6fd93f0b06f8	0.22997584894442702
64	0xbfa5c9f518963bc7	-0.04255643773205225
65	0x3fe226b6e60874b5	0.567225884707702
66	0x3fe248daf07519fc	0.5713934608873497
67	0xbfbbd6b38443f806	-0.10874483088625206
68	0x3fce5a6658e16cc0	0.2371337827670228
69	0xbfc627fd3b4c6779	-0.1730953731101257
70	0xbfcdc7935d037d26	-0.23265306512528489
71	0xbfd2e1c0488d2050	-0.2950287540920771
72	0xbfcf0fd01ade389c	-0.24267007171551291
73	0xbfbd09b7ad5647e6	-0.11342952710972973
74	0xbfd3b4d7c2c3eb4f	-0.3079127695088361
75	0xbfd2c6456df8e7d9	-0.29335151423913214
76	0x3fc1b646aaab2c56	0.1383751233427996
77	0xbfce699cbe2c19fe	-0.23759803090815973
78	0x3fccfdcfd1c818a0	0.2264957212757439
79	0xbfb4920a23b37c0c	-0.08035338756188554
80	0xbfe69d2c768bfaa9	-0.7066862407080708
81	0xbfd5a7110e776460	-0.33832193768245666
82	0x3fd3ee0da0782d20	0.311404616077839
83	0xbfd205086de0d6a1	-0.28155718546200076
84	0xbf82e86a080ded6f	-0.009232357378769788
85	0xbfde2759baace9ff	-0.47115176420234656
86	0xbfe07c3dd0cb5360	-0.5151661947262305
87	0xbf97b2e5cc056b98	-0.0231433778547899
88	0x3f92c233eb0b825b	0.01831894991016934
89	0x3fd084b25aba4065	0.25809916362869095
90	0x3fec185b939a3299	0.877973354612169
91	0x3fe4960af560fd1d	0.6433157723003294
92	0x3fb626f04eefbbdb	0.08653165747794793
93	0x3fe057f1da882d9a	0.5107354419900958
94	0xbfd231960e954f9d	-0.2842764990248215
95	0x3fd03e167ca66bc1	0.25378954098567524
96	0x3ff0875f4e11966f	1.0330498742636356
97	0x3f8041ddf98a00f8	0.00793813150198773
98	0x3fc89db28db29bcb	0.19231254500229364
99	0xbfd5291678bf47a2	-0.3306327990695711

bias f8 [10]
0	0xbfccb5cd060d924a	-0.22429812236363694
1	0x3fd0170d3c0e4149	0.25140696396649226
2	0x3f6ad5b32f17ad32	0.0032757281958219137
3	0xbf90167b737f716a	-0.015710762905528787
4	0xbfc22827c00dcf6c	-0.14185044171938033
5	0x3f3ec97b924f7e4e	0.0004697729767126666
6	0xbfcf3435fcc342cd	-0.24378084985666817
7	0xbfbb3bda038fa1d8	-0.10638201319637319
8	0x3fd9cd900d710b10	0.4031715518250829
9	0xbfd6779b2fa09e55	-0.3510501828299984

weight f8 [10, 10]
0	0xbff48f15d70375ff	-1.2849329375234217
1	0x3fc22054c902756e	0.14161166968271338
2	0xbfdcff7219399bd7	-0.45309116805441135
3	0xbfeb8a2f615929e7	-0.8606182957967662
4	0xbfe2cc6f8ff520c2	-0.5874555408163575
5	0xbfb24509fc901deb	-0.0713659516915112
6	0xbfbedea937275e5f	-0.12058503719833301
7	0xbf9ce9269433d650	-0.02823314933353621
8	0x3fd0c42314fa8758	0.2619712548131381
9	0xbffae1e8628a307c	-1.6801532601557758
10	0xbff288f76418e009	-1.158439055447163
11	0x3fd82e24889404c3	0.37781632745470634
12	0xbf6d403b1d64d6c0	-0.0035706667505575884
13	0xbfead65ece67f652	-0.8386682540291963
14	0xbfd724ca3217708e	-0.36162047282938026
15	0x3f835a5c0c8423e1	0.009449690944636603
16	0xbfc959947f0b88af	-0.19804626658794208
17	0x3fca7978d58add18	0.2068320315063168
18	0x3fc4bf20b1b605f9	0.162082754872287
19	0xbfee51973c5b830b	-0.9474598101479342
20	0x3fb4d207f496f860	0.08132981988362209
21	0x3fc6003564a4ddca	0.1718813649583651
22	0xbfc9700dd0ce16ce	-0.19873211570318577
23	0xbfb27b77eaf41eec	-0.07219647871181295
24	0x3fac65ea9ff03610	0.05546506121036654
25	0x3fc310403874ed5e	0.1489334369342527
26	0xbfba72d199091696	-0.10331449495523723
27	0xbfc8736c77e11a85	-0.19102245191080072
28	0xbfc6669978c4b894	-0.17500608822723918
29	0xbfa581675f82acc0	-0.04200289765261678
30	0x3fd1770355357c90	0.27288897820648916
31	0xbfb2724b1a7d763b	-0.07205647846918677
32	0x3fb57d739418f678	0.08394548764860044
33	0xbfd0f83757629794	-0.26514991315559056
34	0xbfc19c846aa26139	-0.13758902746918425
35	0x3fc861c0f3334f58	0.1904832065107438
36	0xbfc945797335db33	-0.19743269086367263
37	0x3fd048e028846554	0.2544479747462749
38	0x3f9c45f80cd5bd35	0.027610660346394773
39	0x3fd1aabd3f7e6ef4	0.27604609680723446
40	0xbfd829729f2d4371	-0.3775297693692244
41	0xbfa2ae2b6d466d01	-0.036485058869596194
42	0xbfdb22c43b3105d4	-0.4239969804803796
43	0xbfe469c4d0351cb5	-0.6379112307121405
44	0xbfc12443053edd99	-0.13391912227755823
45	0xbfac4b72f1ada350	-0.0552631301896499
46	0xbfe4758b48694801	-0.639348641803963
47	0x3fd1e1c44806188c	0.279404707275156
48	0xbfc101951dc63fc8	-0.1328607936270585
49	0xbff46fd8f7124c9c	-1.2773065234403367
50	0xbff26836b1fd782d	-1.1504427864779345
51	0x3fb006587c07e467	0.06259682682129296
52	0xbfd4cd7da07d5ff0	-0.32504215882136034
53	0xbfe762b5fb25004b	-0.730799665943786
54	0xbfd9c90e04ebfafd	-0.4028964088501395
55	0x3fbeb13740050aa9	0.11989159882527169
56	0xbfb17be445408999	-0.06829668703770721
57	0x3fd0e645c21d406e	0.26405471760245447
58	0x3fd6a1b50eae6929	0.35361982759208616
59	0xbff4df99e49bcc75	-1.304590123178767
60	0xbfda405853ceb56d	-0.4101773088867365
61	0x3fc1fd1091438c0d	0.14053542225801188
62	0xbfdc9953d8ef9160	-0.4468583696855344
63	0xbfde0fa4b9a4f46a	-0.4697048008855008
64	0xbfd0722ec0b06e89	-0.25696915452292807
65	0xbfc03d885d1cae27	-0.12687782808767276
66	0xbfe3ef3a82b052f3	-0.6229527046694713
67	0x3f8c08eac94f4cc0	0.013688883083807446
68	0x3fa49fe5e5471b50	0.04028242515373981
69	0xbff28e8a2fc22dc8	-1.159799753719982
70	0x3ff212681f746415	1.1294938305566167
71	0xbfd0b5918526dbb4	-0.2610820579824875
72	0x3fdd6217c3eb8771	0.45911211140457114
73	0x3fecd9d54e2c3432	0.9015909697351445
74	0x3fe5819072372bb0	0.6720659476062476
75	0x3fcc79e7968b4fe1	0.22247023440161143
76	0x3fccb3c7f47a24d8	0.2242364829765282
77	0x3fb2bf3b2fa8c110	0.0732304564815005
78	0xbfc83a2e9bde09b3	-0.18927557573995343
79	0x3ff56beafa8e79e7	1.338847140060915
80	0xbfead276f9dac4af	-0.838191497800059
81	0x3fd1a8815d5bcb56	0.2759097491936492
82	0xbfdfa9cff5dad11f	-0.494739523022206
83	0xbfdf761a4277e095	-0.49158340922395755
84	0xbfe1c898d9c97aa6	-0.5557369474079976
85	0x3fcff8948e4838b5	0.24977356860512648
86	0xbfd7aef17a13f3cb	-0.3700526897590037
87	0xbfc47e2e7f1c1402	-0.1601007576611267
88	0x3fcc3dd584281d1d	0.22063702538455568
89	0xbff4ddbff71fc3d8	-1.3041381505283791
90	0xbff81f85a1a630c6	-1.5076958002492105
91	0x3fd280c8a73c91c2	0.28911033946704034
92	0xbfde77184903f809	-0.4760189736406351
93	0xbfee9295d0d371c9	-0.9553937033302243
94	0xbfe4dec175e59132	-0.6521918585463367
95	0xbfc42534d0a1d1f2	-0.15738544642557845
96	0xbfcf10a8f3beb140	-0.24269592191320477
97	0xbfbcc433c1bd3f76	-0.11236880760156773
98	0x3fd49809205a9db9	0.32177951964919377
99	0xbffdb6bb2e9d387a	-1.8571121044983827

bias f8 [10]
0	0x3fc439e163ab6e31	0.15801637045557151
1	0x3fd0a960e08bfb76	0.260338038715353
2	0xbf861764b17d9780	-0.010786806742270505
3	0xbfc223d2d85f87ae	-0.14171824994178678
4	0x3fc1e4273f86dac1	0.1397751865567525
5	0x3fb22ec5d4649430	0.07102619586346814
6	0x3fb219f956d00446	0.070708831495737
7	0xbfa5bd95aec15589	-0.042462041456626194
8	0x3fd7355501ebb279	0.3626301306492575
9	0x3fc5cc9c40cfd590	0.17030671276704057

weight f8 [1, 10]
0	0xbff4eac616c92cd8	-1.307317818648519
1	0xbfc70673141b74de	-0.1798843239002172
2	0xbfa37408a9a8d398	-0.03799464293516691
3	0xbfc8e92823da7262	-0.19461538077020452
4	0xbfd2ee45a5654a9b	-0.2957929721061789
5	0xbfe2b0f8036fc367	-0.5841026370163548
6	0xbfeafd21482a7400	-0.8433996591080586
7	0x3fd67d23aea2c6d1	0.35138790182382446
8	0xbfc2bb21a7116905	-0.14633579881303418
9	0xbff2f1265497c50b	-1.1838744453819483

bias f8 [1]
0	0x3fb53f652dd59f13	0.0829985844517263
