k-ICBC ex1/NN_Train_Result/Final_Result/Control_model.pth (torch, 4439 bytes, 6 tensors)

weight f8 [10, 2]
000000 41 28 37 c7 54 cd fa 3f c6 45 60 57 fe a9 d8 3f
       1.675129678902991 0.3853755811006433
000010 c9 19 be 69 81 da a3 3f b9 aa 47 ab af 87 e5 3f
       0.038776439817457105 0.6728132577239513
000020 00 e7 54 e3 84 fd 6a bf c0 26 3e b5 ca 12 ad bf
       -0.0032947154492405373 -0.056783995270121235
000030 fe 54 45 af 1f 9f d0 3f b4 bb 38 f4 f5 7c cf bf
       0.25971214405338106 -0.24600099968799116
000040 a4 cc e0 03 a5 de 88 bf 9a b8 bb 54 18 b0 f0 bf
       -0.01214341085515109 -1.0429919538396804
000050 e1 93 c4 29 92 2a ee bf f7 48 6a 5c c6 28 d1 bf
       -0.9426966491488394 -0.2681136991970016
000060 a7 e7 0d 7a 35 d0 e3 3f b0 47 8a 59 32 3d c8 3f
       0.6191661247132644 0.18936757442548702
000070 91 bf 5c df a5 21 e5 bf 19 46 70 5f af e1 eb bf
       -0.6603574144883045 -0.8712994445833743
000080 4f b5 03 8c 11 60 b5 3f 67 cb 86 49 6d 6a dd 3f
       0.08349713962862391 0.4596207826645497
000090 7f ba 99 02 01 46 e5 3f 38 cf af bc 29 6f e9 bf
       0.6647954035559706 -0.7948197064674565

bias f8 [10]
000000 53 ef 46 cf a6 74 c5 bf 33 3e 37 6a 1b da ca 3f
       -0.16762242432548166 0.2097811001426507
000010 95 72 77 6b 72 c2 df bf 59 78 aa 9a 62 ab e2 3f
       -0.49624310011658085 0.5834210415666902
000020 df 2f 92 0b 70 60 a8 bf 9e 10 aa 57 98 dd f0 3f
       -0.04761076108215411 1.0541003631961199
000030 f8 2c e6 b0 40 c9 dc bf f4 7f fe 3b 3c 58 d9 3f
       -0.4497834899454598 0.39601045473864294
000040 0e db 23 b5 b7 0f ca bf e5 d8 8a b4 64 68 eb 3f
       -0.2036046633217769 0.8564933325021938

weight f8 [10, 10]
000000 6a 57 ab c5 c3 f5 f0 bf 76 92 f6 f9 68 87 d1 bf
       -1.0600011559922344 -0.27388977442232176
000010 58 c8 5a 10 54 d9 c2 bf f7 07 6a 7c 7e 70 c9 3f
       -0.14725733564916044 0.1987455470553525
000020 1e f0 ac 18 cc 78 e1 3f cc e3 a5 c1 c1 3d d9 bf
       0.5459957582420463 -0.3943943396657772
000030 12 4c 57 a7 7a 8c c2 bf 8f 9e a4 ef d7 99 bf 3f
       -0.14491208239505277 0.12344121552143349
000040 92 44 1a 75 f7 c6 d1 bf d0 76 d5 7c cc 39 e1 3f
       -0.2777689593868412 0.5383055151139278
000050 4e 5d 31 a6 8d 6a e7 bf 4e f0 2e 21 07 b0 c5 3f
       -0.7317569967225752 0.16943444366723032
000060 d0 f0 ae cf a5 39 95 bf 5a 9d 74 65 5d 71 c5 bf
       -0.020727721024500323 -0.16752212003596406
000070 22 64 f4 27 63 ad e3 3f 83 74 f8 64 b2 4f e2 3f
       0.6149154453625025 0.572228619773924
000080 72 df de 6a 19 99 ad 3f c2 ed 8b ff ed 90 dc 3f
       0.05780867986271589 0.4463458056995614
000090 66 01 ef 5f be 9e b4 bf 65 3a 93 02 75 59 c2 bf
       -0.08054723589066767 -0.14335501313913138
0000a0 0d fd fd 09 b3 e3 f0 bf f8 72 48 b4 47 cb ce 3f
       -1.0555906668012682 0.24057861616974896
0000b0 f8 6c 24 0b 4e 58 ce 3f 2c fe ad 6f 3d be d7 3f
       0.237069850388117 0.3709863272306133
0000c0 b5 ab 2f f1 63 88 e0 3f 3f e3 7a 8a 3c bc ea bf
       0.5166492186229933 -0.8354780869186483
0000d0 f9 f3 c7 56 7c af d0 bf 4e f3 20 94 66 01 e5 3f
       -0.26071079706872485 0.6564209836138646
0000e0 cd 53 f6 1f 49 9e d5 bf 41 e4 80 d6 3f ca e1 3f
       -0.3377859890109079 0.5559386434098387
0000f0 5a fe 5d 8f 04 93 f0 3f 42 15 8c 1e 9c 1e ae 3f
       1.0358930206565646 0.058827284554392026
000100 d6 92 ed be 16 7b c4 bf 6d b5 94 07 55 86 c8 3f
       -0.16000637362153353 0.19159949178849037
000110 93 be 0e 27 b3 d9 b8 3f 53 57 da e0 fd d3 e0 3f
       0.09707183555178238 0.5258778945596795
000120 03 e7 5d 80 20 e9 c9 3f bd f1 28 44 1d 2c c0 3f
       0.20242697017584285 0.12634626224634174
000130 8d ee 10 59 a8 cd b8 3f db 5a ed db 60 14 d7 bf
       0.09688808607546147 -0.3606187961317297
000140 70 57 24 8c cc be f8 3f 5d fd 8c a0 92 9d c7 3f
       1.5465817903800279 0.18449623908416415
000150 42 e8 62 61 8a c2 d1 3f 76 67 1f bd 95 f5 d6 3f
       0.27749881277452826 0.35873931378375035
000160 e2 b3 a6 9c e9 8b d8 bf 27 ad c9 14 cc 53 ab bf
       -0.3835395841404631 -0.053373696839879074
000170 74 c9 08 0a 8b c0 f0 3f b4 bd d9 10 a0 ab 08 c0
       1.04700759811075 -3.0838013950776375
000180 44 91 59 ea 70 3c d5 3f f7 8b 59 18 6d 6f dc 3f
       0.3318140305111863 0.444300912646383
000190 23 42 b5 5e d8 0c f3 bf 53 34 3a 96 8a 30 d1 3f
       -1.190636033967288 0.26858772917404855
0001a0 00 20 f4 e1 99 3a 9c bf 1d f0 b1 3f 12 cf b2 bf
       -0.027567295471300213 -0.07347215704970762
0001b0 7c 96 a1 15 b3 ff f1 3f f2 c9 11 da 73 b5 a9 bf
       1.1249266476601454 -0.050212498063860425
0001c0 e2 3d aa dc 5f d7 ce 3f 69 6b 8d fe bb f8 c9 3f
       0.24094770693453343 0.20290327004735367
0001d0 92 eb 97 8c 76 f3 c3 3f 76 be 7b f4 fa 01 e1 3f
       0.15586740364946344 0.5314917349878232
0001e0 53 72 b5 3e 7c 06 b9 3f c2 98 b0 93 27 48 6e 3f
       0.09775520831085176 0.0036965153681363947
0001f0 98 25 cb 9c 1f 38 b6 3f ff 77 9c 24 68 50 c6 bf
       0.08679387643782943 -0.1743288210645346
000200 14 3e 7f 74 42 82 d5 3f 87 64 4c 06 f0 0d a6 bf
       0.33607541443504485 -0.0430750854195106
000210 0f 3d 31 67 5c 60 cc 3f c6 d8 c4 94 86 4f db 3f
       0.2216907028073156 0.42672886398521503
000220 23 0c 4b ac cd f5 d6 3f 1a 7c cd 98 19 8c da bf
       0.35875264955046954 -0.4148010246480581
000230 3a 6c ff 39 11 dd f2 3f e7 b5 20 51 bd 72 cd 3f
       1.1789715066468163 0.23006407224003952
000240 ea 36 d8 60 db 29 c1 bf e4 16 b3 ec c1 ca b2 3f
       -0.1340898726343121 0.07340633419797943
000250 05 bf a3 28 e4 83 df bf 5b 8f c8 c2 d5 2f c9 bf
       -0.49242500275339324 -0.19677230845365554
000260 8b 4c ed 28 58 7a eb 3f 96 95 cc db 82 7d 05 c0
       0.8586846160273053 -2.6862847492036037
000270 c3 6e e7 4f 60 ea c4 bf d7 46 d1 36 6b 5a d8 3f
       -0.16340259458126213 0.38051872590322716
000280 e8 71 f9 cb 23 a5 dd bf b8 cc 70 83 bc 3e ca bf
       -0.46320433539747663 -0.2050395623969956
000290 90 5c 31 05 12 f5 90 bf 17 74 e5 4d d6 bc ce 3f
       -0.01655986935324144 0.24013785174875643
0002a0 5c 0f c0 84 65 32 c8 3f e9 ba 9d 2a 56 07 b0 bf
       0.18903798086113965 -0.06261194744522992
0002b0 90 2e bb 90 92 5c e1 bf 8a 19 9b 4f 8a 21 a1 bf
       -0.5425503565579266 -0.03345901700736238
0002c0 24 f6 83 2c 0c 42 d1 bf 1d cc 9c 3d 29 ee d1 3f
       -0.2696562227937156 0.28016119973034553
0002d0 96 b0 6e b1 ca 98 f4 bf 1b 95 a6 c9 dc 5f d3 bf
       -1.2873026781990453 -0.30272597973301324
0002e0 04 2c 04 f4 cc 28 c0 bf e0 77 1a 69 94 dc d2 3f
       -0.12624513544901117 0.29471311820986834
0002f0 a0 1d da 1e ce 72 ed 3f 7c 12 f8 e1 37 ee f1 bf
       0.9202643015459451 -1.1206587626376452
000300 39 80 a1 d8 b2 0f c4 bf 97 3c 05 ba 67 7c ec 3f
       -0.15672908380202147 0.8901861794673945
000310 d5 d8 7e 92 3e fa ce bf 6a a9 82 37 4a ea e5 3f
       -0.24201185372448344 0.6848498424708798

bias f8 [10]
000000 0d 90 27 64 fc ae cf 3f e9 fd fd 50 ad f1 b0 3f
       0.24752764597280966 0.06618769862506436
000010 99 fe cf e9 f2 97 d7 3f a9 74 bf 36 e6 a1 ad 3f
       0.3686492236447321 0.05787581842717177
000020 25 ad 38 4f 38 20 b4 bf 55 ae 33 bd ce 84 bb 3f
       -0.0786166375552751 0.10749523276506896
000030 5a 16 57 ce 91 51 d6 3f a0 e7 32 25 bc 00 ca 3f
       0.3487286105194919 0.20314742866849844
000040 48 e0 db 11 5b 8d bf 3f cd 14 a4 f0 b5 ce d1 3f
       0.12325066743858415 0.2782416200646594

weight f8 [1, 10]
000000 55 ef 1c 79 cd 18 f1 3f 13 c4 c2 13 bb 58 e3 bf
       1.0685553294160475 -0.6045813928559504
000010 43 f1 03 54 95 8c f8 3f 8b e9 04 fe cd 83 d4 bf
       1.5343220979548995 -0.32054471785127053
000020 f0 ad fb 26 8e ea f1 bf 69 ab 21 13 66 5b d5 3f
       -1.119764473226379 0.33370353573143646
000030 4f 89 c4 ee 8a 3f d1 bf 12 de e9 ec 5b b8 f9 bf
       -0.2695033389774339 -1.607509541934523
000040 33 ea 15 73 78 56 ea 3f bd 3b f9 08 bb 6d f7 3f
       0.823055481697628 1.464289698651313

bias f8 [1]
000000 bc 55 fb 8e 71 7e d3 bf
       -0.3045925041490951
