k-ICBC ex5/NN_Train_Result/Pre_Result/Control_model.pth (torch, 5783 bytes, 6 tensors)

weight f8 [15, 4]
000000 81 f3 05 80 15 ab b1 3f 74 08 ce 61 4c 4f d5 bf
       0.06901678443496274 -0.3329649882435952
000010 b9 00 30 1a 6f c8 d4 bf a6 3e d6 bc a1 de c6 bf
       -0.32473352010130047 -0.17866918297339857
000020 d7 54 fe 09 2e d9 e9 3f 77 8c c2 b1 da b7 e1 3f
       0.8077612109360882 0.5536931487917077
000030 80 df 37 ab 2e 32 f4 3f 34 f4 b4 da 77 d9 f0 3f
       1.2622515381062556 1.0530928176151635
000040 98 83 ee d9 07 0d dd bf 42 99 5b a9 09 05 d9 bf
       -0.4539203289260114 -0.390932479275211
000050 dd 65 ea 66 aa d6 d9 bf ae 46 8e 52 3d cf d3 bf
       -0.4037271504435845 -0.3095238977631237
000060 ba 00 ef ce b3 5d d9 bf 83 38 28 36 fb 63 cc 3f
       -0.3963441391788468 0.22180118698492288
000070 96 37 f9 52 e5 27 d1 bf ea 15 5f 05 9d 1c d8 bf
       -0.268060046223462 -0.3767464210944512
000080 b3 7f 06 54 68 db d9 3f cb 5d da b7 09 41 f0 3f
       0.4040165730057154 1.0158784085996213
000090 db 2a 43 b5 b7 b1 f7 3f f5 33 ca d6 8d 36 e1 3f
       1.4808880882798607 0.5379094309915887
0000a0 55 cb a0 27 d8 3c e3 3f 6b 5f a2 ec 09 f8 c9 3f
       0.601177289389265 0.20288204245002403
0000b0 c8 27 b1 bb 75 9c ea 3f cf 71 87 90 69 cd ee 3f
       0.8315991083011278 0.9625747511705017
0000c0 29 6c 62 d6 0c 0d e3 3f 48 a5 ea e1 05 aa c9 3f
       0.5953430354305783 0.2005011895283053
0000d0 09 ef 1b 62 81 20 f5 3f 85 d5 f9 2f 73 63 e0 3f
       1.320435889471755 0.5121398865727974
0000e0 d5 b8 9f 1b 30 01 d2 bf bf 13 13 18 62 46 82 bf
       -0.28132250497482164 -0.008923307761856123
0000f0 9a 82 ee f1 73 be d3 bf 41 84 d6 d8 09 89 ce bf
       -0.3084993231405321 -0.23855708205977247
000100 38 0a 8e b2 aa 03 e0 3f 01 d3 10 98 5d d8 d0 3f
       0.5004476058387075 0.263205908300094
000110 b3 24 e9 ba a5 22 b1 bf 66 99 48 d7 fc d3 ee bf
       -0.0669349271130553 -0.9633773998983031
000120 98 0b fe 41 6a 1d e8 3f be d1 f1 4a 28 51 eb 3f
       0.753590706721627 0.8536569083940362
000130 94 0f c8 f5 d4 e9 e1 3f 64 c1 84 d4 41 c3 d5 3f
       0.5597939300937349 0.34004255059973887
000140 13 47 c3 a7 42 59 ee 3f 1b 48 ca 72 d8 66 f1 3f
       0.9483960415475131 1.0876087650290234
000150 ae 9e 56 d1 94 d2 e8 3f 50 2e 67 1a d0 51 cb 3f
       0.7757057274474926 0.21343423165523
000160 b3 f3 5b 95 04 fc eb 3f 4b 2d c2 ca 81 11 e8 3f
       0.8745139043017985 0.7521370849730514
000170 0f 37 33 3f 84 60 f2 3f 3f e9 5c a1 45 68 f6 3f
       1.1485636204483318 1.4004570296516048
000180 f0 0a 7a 78 fc 05 d7 3f 7a ea b9 44 26 95 e2 3f
       0.3597403694658814 0.5807067243870982
000190 a5 fc 2b ce 1b 2e df 3f ad 0f 7f 89 48 c2 f0 3f
       0.4871892465016095 1.0474324580145364
0001a0 32 7b 34 6b c5 16 e0 3f 24 d6 37 8b 24 88 ed 3f
       0.5027796834800482 0.922868987951635
0001b0 c5 51 bb 12 05 f3 d5 3f a3 4c 38 fd ab f3 a9 bf
       0.3429577525069159 -0.050687193546900454
0001c0 41 39 a7 3d 21 0e cb 3f 32 3c f5 0a 3d 53 e7 bf
       0.21136870870982175 -0.7289109434149224
0001d0 ee 91 58 9f a7 0c ee 3f 9a 59 a5 04 eb de 69 bf
       0.9390447723604305 -0.0031580534170345233

bias f8 [15]
000000 93 9b 39 a8 29 ec da 3f d0 54 4b 8f 70 2f ec 3f
       0.42066422870851133 0.8807909773555824
000010 e6 18 1f 81 8d 3a d0 bf 27 a9 09 7e 15 ba b2 3f
       -0.2535737763358966 0.07315191580861279
000020 86 53 46 c0 b3 02 dd 3f db 35 0c 98 3d 17 db 3f
       0.45328992630793896 0.4232934937325276
000030 ad 9a aa c7 06 4c d7 3f 27 d9 be 3d c7 bd df bf
       0.36401528834032143 -0.49595814733347016
000040 8c ac b9 16 6a d1 d4 3f 34 b2 7a 13 27 68 e1 3f
       0.3252816411902095 0.5439639454321594
000050 0c 10 05 80 bf 79 f0 3f 91 63 d7 ac 2e b8 dd 3f
       1.0297236443302635 0.4643665969757019
000060 1f 45 eb f4 fa 01 e1 3f c0 c0 e9 96 75 0b e1 3f
       0.5314917357992818 0.5326488444825586
000070 57 c2 5d 49 5a d6 ca 3f
       0.20966652471863043

weight f8 [15, 15]
000000 ed 33 3f f5 7c cb 96 3f e0 f0 8b b6 bd fe b2 3f
       0.022260620564157497 0.07419954020219022
000010 28 39 ea 9a bf 7d 9e 3f c9 6b f2 37 1a b0 c3 bf
       0.029776567297227136 -0.15381171924386042
000020 8d b5 7b ea ea 17 d3 bf 63 f3 92 95 1b 6d b4 3f
       -0.2983348169207936 0.07978985215863825
000030 fc ef 42 98 c4 ab c7 bf 35 81 28 15 bd 73 ab 3f
       -0.18492944178240112 0.053617390473166195
000040 fa 98 22 c7 1b 4b 99 3f 66 00 17 3a 49 c1 88 3f
       0.024700578717465206 0.012087413869153529
000050 16 e3 91 f0 78 35 c4 bf 33 3a 6f fe 7a 02 a1 3f
       -0.15788184877944705 0.03322204929246588
000060 2b 77 0c 7a 24 80 b6 bf 4e 88 c6 64 b7 83 c0 3f
       -0.08789279918388775 0.12901966496161993
000070 27 99 f8 e7 6a ab bd bf 67 ff ad f8 22 b3 b6 3f
       -0.11589687503201117 0.08867090770035944
000080 c0 4f 4b 5b 37 72 bd bf 42 82 b0 82 95 4c be bf
       -0.11502405146467165 -0.11835607948933904
000090 a3 5a 34 ad ff 67 84 3f 21 50 be 05 68 a2 c3 3f
       0.009963986848146538 0.15339374809684705
0000a0 fb 8c 7e 24 c8 28 df bf 8e 38 47 11 71 71 d7 bf
       -0.4868641239538218 -0.36629893004727243
0000b0 90 86 08 64 59 39 ab bf 91 86 3d 74 24 e5 f0 3f
       -0.05317191454038295 1.0559429684293813
0000c0 09 c8 41 a4 d2 eb b3 3f d9 84 76 61 5a 27 e3 3f
       0.07781712064914371 0.5985538390706565
0000d0 b9 bb fc c6 fe 0c db bf 81 6b 0e 55 f7 ac d6 bf
       -0.42266816551539993 -0.35430701547891635
0000e0 63 22 8c 6c ea 43 cf 3f 9d da c9 b1 69 61 f3 bf
       0.24426012325445176 -1.2112824387419672
0000f0 34 03 e0 19 6a 48 d0 bf 31 98 e2 89 64 e8 ab bf
       -0.2544198277174019 -0.05450739081543111
000100 e9 6c 23 1c 2b ac ca bf 2e 14 d2 ee 00 50 c1 bf
       -0.2083791625399052 -0.13525401745951754
000110 b3 b9 73 3a 12 6a c5 3f 23 45 30 ec 1c 47 d0 bf
       0.16729953626731983 -0.2543403917816979
000120 14 a1 8e b3 91 07 b9 3f a3 b0 ec 26 c1 b0 c3 bf
       0.09777174600333566 -0.1538316192685488
000130 dd 54 59 dc 61 fc d0 bf ef bb 8e 26 8e e8 bf bf
       -0.26540419119312536 -0.12464226189943849
000140 1b a9 a8 7f 37 a1 a7 bf 31 36 6d df 13 b4 c4 bf
       -0.04615186150870639 -0.16174553308012343
000150 4a 55 53 e5 47 b9 ab 3f b5 1d 65 6a 4e 92 c3 bf
       0.05414795565017501 -0.15290241427486043
000160 27 47 14 3a bf 04 c8 bf 0a f2 56 aa 79 4b b0 3f
       -0.18764486633204422 0.06365166100199118
000170 29 3b 16 ac 29 e4 b0 bf 3e c7 5c e6 77 ba 88 bf
       -0.06598148776377556 -0.012074410169222834
000180 d6 ab 62 47 d7 78 aa 3f a5 68 03 fd 40 c3 98 3f
       0.05170319315342169 0.024182334368426556
000190 26 30 c0 fb ec d0 de bf d8 67 3d 77 7d 21 db bf
       -0.48150181374581036 -0.4239190735294165
0001a0 03 16 e6 2d f9 72 b2 bf c4 ea 5c 8f 3b 9f e8 3f
       -0.07206685419631502 0.7694375801141509
0001b0 4e 3b df 41 0e 33 cf 3f 60 00 39 12 51 65 ca 3f
       0.2437455960884684 0.20621693982866685
0001c0 23 84 f2 8b c0 72 cf bf e0 86 04 36 9d fe d2 bf
       -0.245689457257897 -0.2967904117123066
0001d0 4d dc 9e 14 e7 e6 e0 3f 39 a6 eb aa 7c 9b e9 bf
       0.5281863596673105 -0.8002303446093669
0001e0 68 d5 6e 67 6c 50 cb 3f f0 d6 f2 4c 8a 6b b8 bf
       0.21339182901798925 -0.09539093378665675
0001f0 bd 63 47 4c be 38 d0 bf ca 4e 72 e7 cc 38 b4 bf
       -0.25346333932025883 -0.07899170542287517
000200 ce aa 80 11 36 b6 c4 bf 53 c9 8d 63 c5 2a c4 bf
       -0.1618106446706719 -0.15755526886966695
000210 76 33 a5 1b 6c a3 a5 bf 6a f0 4b 1d fb 1e cc bf
       -0.042262438177750036 -0.21969546251773703
000220 f0 e8 07 3b 06 a2 ae 3f 1f b8 58 01 b5 5c bb bf
       0.059829897600097826 -0.10688334734797465
000230 5e 4f 21 92 79 9c 92 bf 90 d5 e8 49 4f d5 c1 3f
       -0.018175029319834272 0.13932219609129648
000240 6c 8c 1c 68 90 24 c1 bf 15 5f 0b 59 8d a7 83 bf
       -0.13392834743089865 -0.009596924095077545
000250 8b 4a b0 a6 20 bf c5 bf fd d4 a3 c5 b9 af bb bf
       -0.1698952497395861 -0.10815011096186207
000260 e0 fe e7 e8 84 64 c2 bf f4 88 6c e0 1a 29 cb bf
       -0.1436926018941369 -0.21219192465020564
000270 dc ea 3a 02 38 e6 ac 3f 23 6f fa fd b1 75 c7 3f
       0.056443929931864395 0.1832792749527182
000280 c1 5a 54 37 07 50 c8 bf cc 1c 69 7d 20 2d d1 bf
       -0.1899422664798376 -0.2683793282235001
000290 f5 ee de 5a 2b 2f b2 3f 56 5c 6e 0c ef 2a b4 3f
       0.07103224724317754 0.0787801175450665
0002a0 d8 9a f4 ab 7c 01 a7 bf 38 66 5a 4b b4 4b b5 bf
       -0.04493321990076077 -0.08318640556026302
0002b0 b2 4a fd f6 33 2d b8 3f 73 4e 9b fa c2 e5 c2 3f
       0.09443974285140191 0.14763676869062045
0002c0 69 c8 95 7b 48 3c b9 bf d4 d3 4f 53 3d 06 c8 3f
       -0.09857609765256971 0.18769041603050474
0002d0 ac 7c 3a 60 1c f3 d1 bf 38 d3 4f 49 4c 77 d7 bf
       -0.28046330830870647 -0.3666563716827116
0002e0 3a 3c fb 8c e4 c4 c9 bf 1a 0e e3 93 b1 df ba 3f
       -0.20132119068009208 0.10497579441567276
0002f0 4d 34 b0 89 b0 f6 c0 3f ae 2a 74 eb b9 b8 d0 bf
       0.13252836916982105 -0.2612747954705509
000300 77 f5 b4 ee ef 3c db bf 38 c2 af 91 82 73 c1 bf
       -0.4255943137285025 -0.13633758653260641
000310 84 30 21 73 93 8c f0 3f 9f 70 48 9d 11 38 c5 3f
       1.034320306515867 0.16577358417351193
000320 b5 96 3e e0 ed d5 de 3f 84 dc 75 95 6c d0 c4 bf
       0.48180720232845015 -0.1626106004511919
000330 e9 84 71 a8 1f f4 d7 bf 7d b7 aa 33 29 4d ca 3f
       -0.37427512597612506 0.2054797651557542
000340 b2 af 93 70 03 20 f2 bf de 52 21 04 1c 03 bb bf
       -1.1328157804045813 -0.10551619625887151
000350 90 f3 41 96 9a b9 cf bf 03 1b cd d5 8e 98 90 3f
       -0.24785168015287384 0.016206962394131896
000360 2c f3 7a 89 0c 90 b3 bf 52 ec 7f 20 64 83 a6 3f
       -0.07641676289035776 0.04397118469929552
000370 a3 ec a4 7b 4c b3 e1 bf b1 34 dd b2 b2 64 ac bf
       -0.5531370558668595 -0.05545576508903006
000380 e3 9e ae 3f a9 21 ca 3f b2 84 5b ac 91 f7 f0 3f
       0.2041522561023533 1.0604416592325774
000390 a9 bf 7a ce 5f 92 a8 bf c6 ee 45 53 6d 0a d1 3f
       -0.04799174685956526 0.2662614167418095
0003a0 e3 54 2c fb 73 a9 b5 bf b6 68 a5 72 cd 59 a9 bf
       -0.08461689836652257 -0.04951326393593673
0003b0 2f 44 96 60 9f 95 d0 3f d9 dd 9a c5 70 9b f3 bf
       0.2591322367889601 -1.2254493445342318
0003c0 7d 7f c0 0f 95 55 c5 bf 22 94 71 6e 58 91 d0 bf
       -0.1666742636598392 -0.25887118134989084
0003d0 a6 cb 03 75 55 b5 bf bf 98 b2 df 03 2b d4 c0 bf
       -0.1238606844597557 -0.13147485436583817
0003e0 b6 84 98 a5 da d1 da bf ea 8a 30 c4 e5 37 d2 bf
       -0.41905847712957767 -0.28466171416418595
0003f0 dd e9 be 8e 6c c3 d0 bf 54 20 74 4f 03 7e cd 3f
       -0.26192773761763793 0.23040810947009283
000400 63 5f 7c 48 f4 91 ea 3f 0f 02 fb 51 0e ee d4 3f
       0.8303166785944821 0.3270297813978979
000410 66 9d a3 ff ce 12 d9 3f 5a fd c0 e4 aa 8f af 3f
       0.39177298512227876 0.06164297144322957
000420 f8 33 c4 02 1f 24 d1 bf f1 bb 7b 69 a1 ce d0 3f
       -0.26782965917737966 0.2626117258177479
000430 87 b6 ea ed 50 ce ea bf b6 79 54 a4 5b 7a c1 bf
       -0.8376850745023184 -0.13654656909871016
000440 55 a3 d6 87 9f c8 e9 3f 07 6f f9 57 84 04 a3 3f
       0.8057401326269465 0.03714383672624249
000450 69 24 a6 84 d2 3a c1 bf 14 78 e4 19 fa 08 f0 3f
       -0.13460761525155654 1.0021916400360213
000460 7e 50 5c dc 47 48 ec 3f 43 c3 a7 47 4d 02 ec 3f
       0.8838233283918411 0.8752809905546218
000470 b6 86 2a 31 fb c9 8a bf 72 51 21 31 72 55 ca bf
       -0.013080561101847504 -0.20573260687764222
000480 45 a3 e7 30 18 32 da 3f 8d b9 ad 83 d7 11 ee 3f
       0.4093075254045753 0.9396779605720426
000490 34 ad b8 f8 34 49 f1 3f d2 bb 6e 44 78 6d d9 3f
       1.080372783248845 0.397306505993524
0004a0 c7 77 c1 92 65 d6 e3 3f 9d 3a d1 c4 42 11 f4 3f
       0.6199214807818344 1.2542140663314634
0004b0 17 fc da fa 1e 62 ca bf 16 29 00 e1 fc 94 d0 bf
       -0.20611941574858925 -0.25909349415509675
0004c0 e7 07 47 36 15 a0 c4 bf e2 fe b6 5a 88 38 c2 3f
       -0.16113534116999448 0.1423502390807619
0004d0 c5 c0 1d b1 e2 cc d7 bf 9d 51 7b 11 76 2a db bf
       -0.37188021942621347 -0.42446662623594894
0004e0 61 52 cd 70 c3 56 d0 bf 2c 70 1f 01 8a cc c8 3f
       -0.2552956201155095 0.193742037342305
0004f0 bf 4a 9f 09 3b 14 f0 3f 91 f0 37 a4 b4 80 b5 3f
       1.004939115130284 0.083995142071162
000500 2a 1c 0e 50 36 c4 e1 3f 5e 2b 07 31 d0 45 b3 bf
       0.5552016795708188 -0.07528401562664785
000510 56 c0 3b be b5 97 c9 bf 71 24 66 b4 4f bb df 3f
       -0.19994231976261528 0.49580757729615416
000520 fe 47 c0 b6 d8 3e f0 bf 01 b1 3d d3 53 af b9 3f
       -1.015343393203238 0.10033153445482769
000530 2f a6 e5 5f 47 32 c0 bf c0 6e a3 30 9c 89 ad 3f
       -0.12653438742135978 0.05769050687532973
000540 3e 00 02 2a ca ed b7 bf b7 fb f2 31 d7 0d c5 3f
       -0.09347213292676401 0.16448488177226547
000550 cb 40 b6 35 9e 88 c1 bf 0c f5 8b 3f 7e 92 ca bf
       -0.1369817507043137 -0.2075956163679752
000560 e1 20 50 65 3c 3f aa 3f a2 97 c6 bc fe 75 b1 3f
       0.05126370178919771 0.06820671185286512
000570 ca 5b af da 56 aa d0 3f 0f 54 90 7d 33 13 cf 3f
       0.2603966842265747 0.24277347212833475
000580 76 e2 af ef 8d ac cd bf 1d e8 70 6a 78 2f cc bf
       -0.23182844356030657 -0.22019868085209363
000590 91 f1 68 85 92 07 ca bf 27 9e 22 92 11 95 c9 3f
       -0.20335608972699196 0.1998617137480647
0005a0 f9 32 1c fd dd 12 c6 bf df 87 e5 6b 96 e1 c7 bf
       -0.1724507795228403 -0.18657188671482935
0005b0 e0 8c ef fd 93 eb 6b 3f 16 4f a6 4b fb 46 b7 3f
       0.0034082308261403765 0.09092684361376899
0005c0 98 56 2f 6f 70 d2 b6 3f 9a d1 61 b9 25 fd 97 3f
       0.08914854731059518 0.023426618041825976
0005d0 6d f6 99 05 77 5b c4 3f 2f 4c ec fc c2 24 ba 3f
       0.15904128812319432 0.10212343859557003
0005e0 51 71 e2 c6 53 e1 c6 bf 3a bc 72 fd b3 c0 d2 bf
       -0.17875144206198937 -0.293011662967675
0005f0 2f 31 dd f4 e5 b5 ca bf b0 61 39 85 8a 79 ab 3f
       -0.20867609459163236 0.05366165996810268
000600 c4 1a d1 e4 fc 66 b7 3f df 11 29 c2 32 21 be bf
       0.09141522013042463 -0.11769406547779891
000610 26 e5 8f ed 52 b2 91 3f bb 0d 23 1a df 07 c1 3f
       0.017281814336432742 0.13305271888940048
000620 9a 45 bd b5 18 97 e3 3f c7 43 2c ec e8 a3 aa bf
       0.6121943997952031 -0.05203178294153293
000630 69 ed 8a 50 f5 31 b0 3f 49 0d 16 be 4f 13 ec 3f
       0.06326230255483768 0.877357360136025
000640 e9 0e 9f 79 47 9f ed 3f 4a 1c ab 6d 3e e8 eb 3f
       0.9256932616630965 0.8721000806771226
000650 20 f8 22 95 72 bd af bf 23 bb a0 89 14 d8 d5 bf
       -0.06199224539294357 -0.34131349029751074
000660 93 3b 06 95 7b 02 e2 3f 19 bd 38 68 f8 c9 ec 3f
       0.5628030691749352 0.899654582555658
000670 ca 47 b2 ce 98 b1 f1 3f ad c7 9d bc 4c db e9 3f
       1.1058586191252169 0.808019989386812
000680 8f 39 b2 0d 20 fc df 3f 08 e9 2e 46 af f6 f1 3f
       0.4997635015251029 1.1227257482083264
000690 d9 fe 54 bf 8e 96 cf 3f d7 7f fe f3 6c 65 cc bf
       0.246782153533778 -0.22184526361252097
0006a0 64 a1 9a bb d2 17 c1 bf 4b 23 4e b4 0f 24 ba 3f
       -0.1335395256076125 0.10211275245650346
0006b0 dc 0b 8f 69 72 a9 a7 bf 83 f0 97 3e 76 2a c3 bf
       -0.04621465242919218 -0.14973333412479314
0006c0 08 b1 1f 2a 21 db b5 3f f2 4d 27 b1 8b 06 85 bf
       0.0853749015656754 -0.01026639112834624
0006d0 bc 96 6b af 90 9b b4 3f 2a 11 93 57 e4 97 c0 3f
       0.08049873621674924 0.12963537479493797
0006e0 79 20 8f 6d 19 9f c3 3f bf 84 fc e3 b1 00 c8 bf
       0.1532928261715403 -0.18752120620869125
0006f0 6c ea fd 2f f0 07 c4 3f d8 fa 07 18 25 bb 90 3f
       0.15649225562431768 0.01633890113043432
000700 83 43 8d 01 de d7 a5 3f
       0.04266256112044344

bias f8 [15]
000000 7a 92 e5 b3 4d 37 cc bf 4a 39 09 a9 6b d8 db 3f
       -0.2204377296831302 0.4350842619650349
000010 98 f3 c6 0f fa 06 a0 bf 2f 40 e0 8d 5b 5f d8 3f
       -0.031303228784486936 0.3808201680667506
000020 c3 d3 e4 96 95 7d c2 3f cd ad 20 5d 01 83 c0 bf
       0.1444575297151954 -0.12899796530960686
000030 79 5d 2e 43 5f 45 d4 3f 78 21 2d d9 87 5f d2 3f
       0.3167341381135525 0.28708072861311207
000040 53 49 40 4a fe 6c c7 3f 06 06 7b 15 1f 10 e0 3f
       0.18301371217291748 0.5019679469625664
000050 50 63 e2 07 fc 39 c7 bf 02 57 24 55 97 bb b6 3f
       -0.18145704636551807 0.08879991367970422
000060 ad bf 3c 94 26 bc c6 bf 45 0e c8 4d 62 d7 e3 3f
       -0.17761690366887475 0.6200419921082775
000070 d0 62 ed 14 b2 91 d0 bf
       -0.25889255565338676

weight f8 [1, 15]
000000 4f d9 8f bd 44 5e b5 3f e2 86 a0 ce ee 13 ed 3f
       0.08346967342354115 0.9086832080540399
000010 60 f9 d6 fd b5 19 c9 3f 13 25 b1 49 f4 94 f0 3f
       0.19609713453787503 1.0363657835571913
000020 2b 8a 01 b2 8a d8 9d 3f 4d dd 09 a3 f7 25 be 3f
       0.029146353830933485 0.11776683550293861
000030 3c 62 f4 20 ee b7 ec 3f 7c fd da cb 95 cb eb 3f
       0.8974524158139228 0.8686017018844008
000040 e2 f7 e0 99 ab 29 f3 3f 6d 17 93 ef 0b b5 ee bf
       1.1976734171762407 -0.9596004180136625
000050 b3 1c 94 32 a2 d1 ec 3f d2 5d 5b 3c 85 f4 cf bf
       0.9005900371420438 -0.24964967200388216
000060 e6 d5 d0 23 51 5e c1 3f 2f 9f dd 9c ff ea e7 bf
       0.1356908249742183 -0.747436338785496
000070 d0 54 4f e8 5d c2 c4 bf
       -0.16218160479789967

bias f8 [1]
000000 fc 73 3d b1 ef dd d0 bf
       -0.2635459166393159
