k-ICBC ex5/NN_Train_Result/Pre_Result/k_ICBC_model.pth (torch, 5783 bytes, 6 tensors)

weight f8 [15, 4]
000000 89 2e 13 cc 24 a3 d4 bf cb 21 06 b2 5a 28 d9 3f
       -0.3224575035971858 0.3930880297198455
000010 84 95 83 46 9f bc d1 bf e1 26 51 f1 14 ad db 3f
       -0.27713758360035734 0.4324390751468013
000020 7d f8 ed e3 ca 32 a0 3f 02 32 9a eb 79 2e c7 bf
       0.031637516330179395 -0.18110584262866786
000030 cd 8e 79 54 a5 8d d3 bf 32 34 88 35 92 36 d7 3f
       -0.3055203747701228 0.36270575740565214
000040 2c 44 a2 43 ad 0e c3 3f aa 0f f2 95 4f 15 d6 bf
       0.1488854007953092 -0.3450507129966761
000050 f3 4f 75 4e 40 09 ce 3f a9 c8 2e fc 10 dd d9 bf
       0.2346573241326265 -0.404117819092003
000060 b7 be b6 3e 83 b4 d4 3f 6b 93 5b ac b4 6f b0 3f
       0.3235176193656843 0.06420449455215553
000070 c2 fd c3 42 b9 73 de 3f 1e 3b 3e de b9 10 cd 3f
       0.4758132125861857 0.22707293845857007
000080 0e 61 2a 05 5e 14 d4 3f 30 14 c9 03 71 14 db bf
       0.31374311928222276 -0.4231226479499268
000090 33 a4 04 15 07 36 dc 3f 63 41 fb 99 91 a2 b1 3f
       0.4407975869422131 0.06888685235322138
0000a0 f3 86 c3 bf 0a 47 d2 3f 77 5e 5e fc a8 70 d1 bf
       0.2855860588734764 -0.2725012268578903
0000b0 82 d8 bb 8a 42 f6 d2 3f 52 16 11 6c 51 d5 bd 3f
       0.2962805132696148 0.11653622520778953
0000c0 cd 4c 4e d3 d1 85 d1 3f 6e f4 67 0f 78 b2 d1 bf
       0.2737927020581992 -0.2765178823900162
0000d0 4e ce d5 8c c9 5e b8 bf 8c 88 9f ce f6 4e ce 3f
       -0.09519633949622028 0.23678479279539422
0000e0 9d 88 27 59 00 35 b1 3f e0 38 3a 64 50 14 9e 3f
       0.06721498657819543 0.029374366872212287
0000f0 e0 fd 55 f4 df f8 d6 3f 91 b1 5a d0 9b 59 d7 bf
       0.35894011364868383 -0.3648442778310477
000100 a5 57 f2 0e 33 fb d4 3f 5c 35 4a c6 ab f1 cf 3f
       0.3278319974864366 0.24956271345255743
000110 a2 74 0b ee 6f 58 ae 3f a5 17 6c c7 41 58 c0 3f
       0.05926847248859103 0.12769338834203584
000120 95 56 f1 0e 78 2e d2 bf fc 1c 73 ef ed 6d da 3f
       -0.28408624133349153 0.41295956023937186
000130 e4 95 e1 94 1d f1 b1 bf d1 b4 7c 4f 7a c3 c3 bf
       -0.07008538136286507 -0.15440300828178136
000140 76 e3 92 05 22 d1 8d 3f 7a 4c 67 a3 ed e3 d2 bf
       0.014559045596216551 -0.29516163785337535
000150 ff 92 91 04 b6 ba d8 3f 11 0f ec 06 20 57 ba 3f
       0.38639593549878265 0.10289192360874845
000160 05 a6 e0 47 95 a3 e2 3f 1b 3e db 94 60 50 bd 3f
       0.5824686435564109 0.11450770982923368
000170 58 6a 26 7c fc 49 dd bf 35 43 1a 9b f7 fb d4 bf
       -0.4576407635119373 -0.32787885805832967
000180 b7 26 54 be 16 3b c6 3f a4 5f 90 7f 00 48 bc 3f
       0.1736782483424599 0.11047366251329876
000190 29 a1 e7 7a 0e f5 c3 3f 90 50 2d fc 28 af d5 bf
       0.15591603280268743 -0.3388159239450568
0001a0 01 27 94 af 37 89 da 3f 2a 64 42 64 4f ff b2 3f
       0.4146250929485263 0.07420822332132163
0001b0 a4 13 d0 82 37 d4 d7 3f 96 c9 79 fb 08 8b b2 bf
       0.372327687975764 -0.0724340070681023
0001c0 fd 74 82 f0 b8 ad cd bf 47 e4 4f 25 e7 c4 8d bf
       -0.23186408752091117 -0.014535718752073502
0001d0 93 fc 5d 0c d2 20 b7 3f b7 55 5c c0 fa 35 c3 bf
       0.09034455110485089 -0.15008482353793592

bias f8 [15]
000000 6a 9c b7 07 86 14 87 bf 70 c7 7f 7a aa aa a7 3f
       -0.011269614325057204 0.04622395272589486
000010 a8 6d d8 26 15 24 da 3f 14 26 8f d8 81 ab b5 bf
       0.4084523085927807 -0.08464824235047558
000020 fb 44 7d 97 47 0a c3 3f 92 77 fa d7 48 cb da 3f
       0.1487512101835263 0.41865750400199275
000030 1b 1c c5 b8 a5 c4 6d 3f bb 03 0e bb b5 d8 d0 3f
       0.0036338078263358337 0.26322692172112355
000040 b0 18 e5 68 10 a3 c4 bf 68 8c b5 68 be 13 dc 3f
       -0.16122632142850568 0.4387050650167965
000050 3f bf 71 94 07 5e e0 bf 73 bb b4 6e d7 28 d4 3f
       -0.5114782237342083 0.31499276934749004
000060 03 3e b3 ed 58 31 85 bf 3a 44 1a d2 98 5f d3 3f
       -0.010348028902085643 0.3027097751410711
000070 70 7d 15 dc 7e b0 e7 3f
       0.7402948664202267

weight f8 [15, 15]
000000 b4 67 57 bf 49 24 b0 bf db b6 64 f7 0f ae e1 3f
       -0.06305371209546601 0.5524978477385177
000010 c1 f9 51 cd 12 4b b3 3f c3 45 c9 c5 6b 55 b7 bf
       0.07536427986813178 -0.09114717081799655
000020 f4 d5 24 7c 72 91 d5 3f 88 35 0e 0f 26 78 bf bf
       0.3370023929922745 -0.12292707316938423
000030 5e 33 ed 59 f8 6f d7 3f 23 ce 79 7d 4a 2b cd 3f
       0.3662091139020073 0.22788363577602508
000040 f0 5b f8 c9 94 8f a8 bf 42 be c8 07 0e ab dd 3f
       -0.04797043767410247 0.46356535682841493
000050 d7 dd 24 08 2c 6f b5 3f ac da fd e5 f7 ed 91 3f
       0.08372760008648271 0.017509339726042114
000060 16 40 14 72 57 3b a3 3f d1 81 71 35 2e 40 ba bf
       0.037562115359946954 -0.10254181675691788
000070 3a 1b 83 e9 ad 62 d2 3f c1 55 77 e8 c0 04 9b 3f
       0.2872729092018066 0.026385320843322683
000080 18 fd 6d 26 7b 1f d1 3f 4d a4 b1 c7 01 a8 ca 3f
       0.2675464511193737 0.20825216532401428
000090 6f 6b b8 60 51 6c c3 3f 31 72 9e e5 54 e5 b2 bf
       0.1517430994288946 -0.07381182294779688
0000a0 b4 88 77 d4 0a cd b0 bf c3 bf c0 16 a5 33 be bf
       -0.06562869727307225 -0.11797553830615386
0000b0 14 3b 6b c5 ff 87 a2 bf 5e 3d 5f 07 57 9c c4 3f
       -0.03619384083650892 0.16102111682855996
0000c0 03 0d bd 66 15 52 ce bf a8 ad 2e f6 c5 c8 c3 3f
       -0.23687999264266332 0.1545646144926256
0000d0 ba 8b db 0c 70 2b c2 3f 8a 38 13 f0 68 fc ba bf
       0.14195061328709163 -0.10541396962364238
0000e0 a9 7b e5 46 b1 d3 bc bf 13 f3 c7 24 a3 88 d4 3f
       -0.11260517102117142 0.3208396777334183
0000f0 c1 68 15 8c 27 ee c7 3f 7b 74 dc a8 20 fd a3 3f
       0.1869553979875658 0.03904058514874805
000100 16 55 9b 67 5c 92 c6 bf e9 bb ed 55 f9 14 94 3f
       -0.1763415819065492 0.019611259336155405
000110 db 42 3c 1b b8 26 c5 3f 75 3c 52 ec ed c2 c8 bf
       0.1652441151604965 -0.19344877280352404
000120 1a d6 95 20 cf d4 cb bf ca 13 67 f5 a4 00 96 3f
       -0.2174319180591489 0.02148683307474978
000130 b3 b2 c9 5f a8 aa a7 3f 25 ac 92 6c fa c2 b2 3f
       0.04622389001165086 0.07328763151842617
000140 58 96 68 ef 31 18 b7 3f ab e1 b6 ca 91 85 74 bf
       0.0902129373067394 -0.005010194301057795
000150 2d e2 78 f2 c5 e6 cc bf c1 81 e7 cd c7 de cc bf
       -0.22579264010870884 -0.225548720874043
000160 47 6c 0d 70 a8 16 9f bf 67 16 84 be 9e 5c b7 3f
       -0.030359870757234366 0.0912570204855797
000170 29 1c d0 08 db 02 d4 3f 99 e1 00 b8 2e 0e d1 3f
       0.3126742921890036 0.26649063080869834
000180 7c 7d 46 6a 11 5e 96 3f 76 bc a0 b4 53 e3 c4 3f
       0.021843216048748712 0.16318746871681683
000190 cb b4 89 8e cd 8c b7 3f 88 96 41 fb 07 1f d2 3f
       0.09199223260812343 0.28314399277437774
0001a0 8c ee 57 84 f9 9f a3 3f 23 b5 6a 8d 72 ca c8 bf
       0.03832988491555253 -0.19367820649260023
0001b0 6f 40 64 f7 7f 56 b1 bf 6b 97 89 fa 3c 08 b9 3f
       -0.06772613324960884 0.09778195492398616
0001c0 4b 78 da 97 4d 17 d1 3f c7 e7 a1 46 19 b9 57 bf
       0.26704730824883843 -0.0014479395709074848
0001d0 d3 f7 da 5c e6 e4 bc 3f 85 bf e5 06 ca f0 c8 3f
       0.11286773459411785 0.19484830223836638
0001e0 f5 6b b9 45 83 01 d0 3f 7c 25 5a 71 9e 37 84 bf
       0.2500923329259302 -0.009871709665520305
0001f0 9c 11 1c 50 df d5 cf bf cf 69 47 cf 56 42 b9 bf
       -0.24871436511615463 -0.09866850433846895
000200 d6 02 ae ed f4 26 ce 3f 78 57 d4 83 ec 43 c5 bf
       0.2355638657136498 -0.16613537251458488
000210 ee 31 fd 0e 0b 47 c4 bf 90 ab cf 62 dd 5d cc 3f
       -0.15841806632887717 0.2216145260311717
000220 99 9b 94 ca c3 ea c9 3f 74 7a ec 99 00 d9 9c 3f
       0.20247695342660846 0.028171548266181692
000230 46 fd d4 6d 85 ae ba bf 7b a4 02 27 bc f7 c8 bf
       -0.10422548228688297 -0.19506027130890743
000240 ac a7 9f 86 1a 2e c5 bf 31 55 f5 a2 38 bf c7 3f
       -0.16546947072430152 0.1855231090254761
000250 e2 96 d4 32 49 0f c4 bf 92 cb 90 e7 2b d1 b8 3f
       -0.1567164896197744 0.09694170382935699
000260 ff 85 2e 82 ec cf d2 3f 10 5c df 2c 59 eb c7 3f
       0.2939406653696039 0.18686976138153044
000270 70 9d 45 ae e3 bb bd bf 56 08 aa a8 db 6d c1 3f
       -0.11614821438489797 0.13616510139042032
000280 5a 08 68 f4 07 06 c8 bf 17 66 be d2 4b ba 85 bf
       -0.1876840537443652 -0.010609238022698126
000290 01 58 2e 88 2d d6 bf bf 49 05 7e f7 e1 2f b0 3f
       -0.12436184477550684 0.06323063175479605
0002a0 42 31 e7 38 77 56 b6 3f 72 9c 38 ea 1c 61 c8 3f
       0.08725686206088759 0.19046365200594867
0002b0 ba 37 0d 60 d5 76 c0 3f b9 bd a5 32 2f bd cd 3f
       0.12862651052495072 0.23233594868677956
0002c0 2d ef 3d 8b ea 1d 8d bf 17 45 09 72 de 7a d4 3f
       -0.014217216848684789 0.3199993241915577
0002d0 7b 29 aa 2c a1 f5 98 3f 69 fc 2b f1 79 26 da 3f
       0.02437450251685778 0.4085984091943318
0002e0 b8 77 4b 4f 40 b9 c0 bf 90 b3 bb b1 fd 5f b7 bf
       -0.1306534182721728 -0.09130845631780304
0002f0 5c f8 f1 58 7c 99 8a bf 0d 00 1a a5 20 dc b3 bf
       -0.012988063301460233 -0.07757762938308606
000300 7c 13 04 96 f9 c7 a4 bf 49 ef 66 ac 17 00 cf 3f
       -0.04058818775414516 0.24219032209463823
000310 63 76 f7 af 09 95 c1 3f 06 56 35 5a a7 f5 72 3f
       0.1373607739650878 0.004628804893703547
000320 29 d6 ce 72 33 e6 ca 3f cb 96 f8 dc 98 9f a5 bf
       0.21015017610413736 -0.04223325440788769
000330 97 53 18 85 9a 33 a1 3f a3 c8 18 a8 8e d2 b2 3f
       0.03359682917304168 0.07352534870077192
000340 72 01 21 94 18 7c d2 3f 31 fe 98 93 54 65 bb bf
       0.2888242193767133 -0.10701492885072451
000350 93 1d 0b 0f 28 58 c7 3f de 46 7e bb 23 a3 ae bf
       0.18237782225172036 -0.05983840621696655
000360 25 4b b9 94 e5 3b b9 3f 42 5a 5f 3f 8a 73 c7 3f
       0.09857020264579981 0.18321350187643942
000370 04 78 ec eb 5b ef cc 3f bb 78 98 5f 49 53 af 3f
       0.2260546590777609 0.06118230144441968
000380 16 3a 01 a7 50 1e c4 3f fc 5c 63 c4 6e 2f ba 3f
       0.15717514185458076 0.10228626532203927
000390 b5 65 17 bd 66 a5 ac 3f a1 c6 79 11 4c 31 d0 3f
       0.05594941194767548 0.2530088587437636
0003a0 e8 75 9c 18 45 8b c8 3f 73 6b 71 3e fc c4 d0 bf
       0.19175018026082502 -0.26202303026155177
0003b0 c3 ac 0c 27 ac 72 d2 bf d2 f1 5b 55 aa b7 93 bf
       -0.2882490521757967 -0.01925531526556929
0003c0 0c e9 8d e0 51 a0 c8 3f 31 be 0c e5 f0 f6 90 3f
       0.19239257301871537 0.01656700513848203
0003d0 33 0a f9 08 75 46 c7 3f c7 35 ea 99 ba 5b 9e bf
       0.18183768213391857 -0.029646793026179254
0003e0 b0 cb 0e 42 5a 8d c7 3f 12 72 5e e5 e7 0a b7 bf
       0.18400123811224267 -0.09001015996768327
0003f0 d5 4f fe 9a 9e 65 ae 3f 2b e8 25 e0 45 f9 b4 bf
       0.059369045658200705 -0.08192860338559231
000400 29 cc 38 0c f8 8d 92 bf b4 2e 75 37 92 b6 c5 3f
       -0.018119693513835387 0.16963412959954882
000410 8c 72 f2 b4 6a eb bc bf 3c af 4f 64 ee 60 cb 3f
       -0.11296717565205422 0.2138956060219871
000420 fa f3 2a 8f d7 6a c8 bf 43 e0 1e 1a 51 09 a2 bf
       -0.19076055994619862 -0.03522733157973381
000430 71 1f b8 01 a7 cc d5 3f 39 6e d2 12 ae a4 c3 3f
       0.34061598937886745 0.15346313399355596
000440 e2 69 a0 cc 22 4b b3 bf 06 d1 89 15 95 cf c2 bf
       -0.07536523338095649 -0.14695991088559185
000450 dd aa 9c e7 d3 e6 bc bf 47 52 df 45 24 86 b6 3f
       -0.1128971519907895 0.08798433977001095
000460 cd f2 26 23 cc 99 c8 3f cb d6 b1 70 fd 3e d7 3f
       0.19219352451718522 0.3632196045431157
000470 4c fc f5 8d da ba bc 3f 89 f1 c2 27 42 a0 67 bf
       0.11222616163102933 -0.0028840343566953236
000480 62 98 4b d2 51 02 d2 3f a6 94 06 37 05 c1 ac 3f
       0.2813915780701618 0.056160128561978426
000490 d5 dd 5d 12 d8 6d d0 3f 42 60 a9 92 b7 77 b8 3f
       0.25670434754962673 0.09557673769575195
0004a0 c4 13 93 a5 39 78 b5 3f 1e 74 58 20 b5 53 83 bf
       0.08386574070307434 -0.009437003182990063
0004b0 6e 00 7f 2a 67 37 c3 bf b0 4b d3 da 8d e8 b7 3f
       -0.1501282651424875 0.09339224426666592
0004c0 ca b7 6a 45 34 84 cb bf ff 34 5c 9f d6 cd c7 bf
       -0.21497205152030424 -0.18596918851145713
0004d0 2d 00 47 b4 44 a1 ca bf 97 00 9c 6d 51 8d cf bf
       -0.20804652025799567 -0.24650018550892547
0004e0 c4 23 3f af 45 d8 b7 3f e8 d6 c8 56 1d 6e cc bf
       0.09314380196077737 -0.22211043107534256
0004f0 5e c3 78 50 d0 ea c5 bf 20 d8 7f a1 84 0d ca bf
       -0.17122844628604644 -0.20353753934586027
000500 1c 1b 78 e2 72 0e c0 3f 82 43 bb c0 8f 88 c4 bf
       0.12544094141068107 -0.16041752730100362
000510 80 5c f1 ee d0 49 9f bf 60 6d 7e 84 30 b9 a9 3f
       -0.030555023750221455 0.050241008924070796
000520 e4 ca e0 05 88 56 c3 bf 3a e7 48 2c 11 70 bf bf
       -0.1510782269193306 -0.1228037579648146
000530 5f ce c9 7d 41 c2 af bf c8 42 2b 69 61 7f a6 bf
       -0.062028929333703735 -0.04394058617402191
000540 60 56 f5 74 83 f8 ca bf 43 5a 80 c4 a5 59 b8 3f
       -0.21070903025490662 0.09511791274449259
000550 b7 b7 cb bd 83 9d 9f 3f c9 08 5e 04 90 22 b5 3f
       0.03087430807038746 0.08255863291381894
000560 ac 8c e3 14 05 52 c6 3f 86 91 db d6 10 66 c6 bf
       0.17437804717983363 -0.17498980036829098
000570 b4 fa 35 4e 25 66 cc bf 46 ea 30 ec 0b 69 c4 3f
       -0.22186724013223158 0.15945576699034997
000580 eb f3 d8 01 ec 2b 80 bf 19 00 d0 50 83 41 cb 3f
       -0.00789627438200032 0.21293679662630963
000590 4b ce a6 0c 66 44 d2 bf d3 47 8c 41 9d b7 c7 bf
       -0.28542472110277534 -0.185290963178487
0005a0 20 be 7b 61 0c 25 a9 3f d1 0c 6c 02 71 05 c1 3f
       0.049110781574082774 0.13297855966820873
0005b0 f5 32 3b 99 b6 57 c2 3f 3c 52 e8 ac cc 61 d0 bf
       0.14330179674143265 -0.25596920857904926
0005c0 49 51 cf 1b 78 12 cc bf e5 f7 31 9e 74 a6 8c 3f
       -0.21931363447095922 0.013989363744482073
0005d0 04 51 43 ba a3 ce c2 bf 8a 78 a9 43 30 3c 9d 3f
       -0.14693113894339416 0.028549913530121297
0005e0 b6 76 62 4e 59 de ca 3f 24 82 9e 0b e1 78 c2 bf
       0.20991054847120488 -0.14431393687574812
0005f0 db fb ef fa 75 3d ce 3f 38 89 48 2b 25 d2 c3 bf
       0.23625063660435228 -0.15485062230534097
000600 2d 51 a1 b0 05 0f 97 bf b5 80 bb 76 fb 70 bc 3f
       -0.022518242746017925 0.11109897278538734
000610 9c dc c6 03 70 fe b4 bf ca 01 5e cc f2 02 d0 3f
       -0.08200740902144549 0.25017995794044323
000620 cb f9 86 6f 5b 79 c2 bf df df 6f 78 48 25 95 bf
       -0.14432852693239648 -0.020650036192790707
000630 03 cc 54 6a 91 14 c6 3f 8e 2a 99 bf 70 ca b0 3f
       0.17250268642382602 0.06558899572079666
000640 cb 1f 98 da 31 23 d0 bf c6 e6 73 8e ed c7 d1 bf
       -0.2521481165608718 -0.2778276339664497
000650 da 12 2c 57 26 d1 c5 bf 2a 83 a6 c8 28 b4 c4 3f
       -0.1704452443738294 0.1617480258692237
000660 ce 7b e2 68 18 7e 53 bf e3 e8 25 e6 90 6f af bf
       -0.0011897314430269093 -0.06139805612015594
000670 b9 dd 1a 80 65 83 a1 bf ea 84 4d 11 e3 c5 b9 3f
       -0.03420560063153339 0.10067576572830075
000680 b8 0e 56 d6 f0 88 ba 3f 16 c2 76 b1 66 b0 b9 3f
       0.10365205033127267 0.10034791786780092
000690 6e 62 f2 94 bf b3 9c bf 34 8f 80 73 4b 66 c6 bf
       -0.028029435602180568 -0.1749967874503625
0006a0 92 21 7b a1 cd 38 d3 bf 18 cf f1 3f de 95 cd 3f
       -0.3003419949495988 0.2311361133794143
0006b0 3b e3 29 e3 dc 74 ad bf 48 bd a8 03 dd ce c7 3f
       -0.05753221772187663 0.18600046805065973
0006c0 9e 80 3a d4 ed 19 bd bf 53 91 2a 86 2f 66 b0 3f
       -0.11367689544067835 0.06405922914070077
0006d0 3a a3 32 1c 41 c4 cc 3f 23 8f ab b8 a4 cd d3 bf
       0.2247392070469461 -0.30942647966570486
0006e0 36 46 55 e6 a2 48 c2 bf 75 e9 52 57 ef af c3 bf
       -0.14284168478711629 -0.15380660785542558
0006f0 88 ef a3 06 db 0b c4 3f 16 e6 29 3b a0 ea a8 bf
       0.1566118032859516 -0.048665053579451875
000700 c8 ea b1 22 7c fd c0 bf
       -0.1327357453736424

bias f8 [15]
000000 1a 43 af 18 26 43 a1 3f aa ba 73 2e b1 be c9 3f
       0.03371542979551219 0.2011319615189298
000010 c9 62 7a 3b f1 cc 8f 3f c1 ff 93 a8 53 64 56 3f
       0.01552761519205727 0.0013666932084674818
000020 fc f3 b9 c3 25 d6 c3 3f 0d 09 6e be 16 1e c4 3f
       0.15497276360466106 0.15716823862391785
000030 4b 45 df ca f4 03 b7 3f e5 92 6b 80 bb 2d ca 3f
       0.08990411713536621 0.20452064295309139
000040 40 1c f6 62 60 7e 6b 3f 57 09 97 16 14 8d 81 3f
       0.003356159453406643 0.008569867076293631
000050 bc ea b6 fd 14 cf cf bf f4 c2 70 a0 cd 49 90 3f
       -0.24850714100269566 0.015906536977300115
000060 8b ad 70 7e a5 6f c9 bf 0b ef 50 df 11 20 a3 bf
       -0.198719679582933 -0.03735404826190177
000070 b5 10 fa 71 d0 33 c1 3f
       0.1343937450911931

weight f8 [1, 15]
000000 85 7a df f3 42 2a cc bf 98 75 f8 34 f9 f2 61 bf
       -0.22003971965655836 -0.00219105408883875
000010 11 79 bf 34 61 9d a3 3f 7d f5 e0 ee ed e6 aa bf
       0.03831008690734639 -0.05254310170173946
000020 32 d1 00 83 b3 f1 b6 3f 21 aa 89 4d 68 b6 cf bf
       0.08962556789703482 -0.2477541330911928
000030 2e a9 9c bb 34 52 b7 bf 0e 1d df b2 dd 32 97 bf
       -0.0910981138264659 -0.02265497593159887
000040 a0 39 8c 51 3d 96 d2 bf 66 c2 1f d6 49 19 c9 bf
       -0.2904198929180897 -0.19608424144054765
000050 cc 11 3f c2 96 20 bc 3f dc dd e8 19 fa f2 a5 3f
       0.10987226717322257 0.042869392073437956
000060 6c 70 cb b2 e5 83 b0 3f e8 79 58 84 4d 8c c1 3f
       0.06451259245972246 0.1370942016810226
000070 f0 9a eb 95 b9 b8 c7 3f
       0.1853248579056621

bias f8 [1]
000000 91 48 9f 4a 81 77 c0 3f
       0.12864700454389724
