k-ICBC ex1/NN_Train_Result/Pre_Results/Control_model.pth (torch, 4439 bytes, 6 tensors)

weight f8 [10, 2]
-0.4933935734782601 -0.8964905425283966 1.148088476626953 0.13680020431209264 1.0824859142240466 -0.3648100874319321 0.35039777427906527 -0.8276386328561202
0.28917472496792884 -0.7592590615400832 0.000701855948809235 0.4150608392062381 0.36867322945165926 -1.3658611399798537 0.6717317155503895 -1.1759641210091025
-0.534987743269032 0.44210053385052805 -1.181780417226729 -1.0172398723388174
00000000: 2653 89a3 c293 dfbf f9a5 2aef 0cb0 ecbf
00000010: 826f c005 925e f23f a1a3 cd49 ab82 c13f
00000020: 2b91 ffbf dc51 f13f de58 b168 0c59 d7bf
00000030: 66aa 47c9 ea6c d63f f3bd a003 047c eabf
00000040: 884a a4b4 d681 d23f ae33 d0a8 d94b e8bf
00000050: 4ba8 5e2c 98ff 463f 4d6e 8f56 5b90 da3f
00000060: 08f5 d999 5798 d73f b673 f135 91da f5bf
00000070: 5c32 bf82 d37e e53f 430e 10c1 bfd0 f2bf
00000080: 263e a39d 9e1e e1bf 7ea8 9b09 604b dc3f
00000090: 2eac 3095 92e8 f2bf 751e fe50 9d46 f0bf

bias f8 [10]
0.18795244035531286 0.41814730092268143 0.24960595195193044 0.1798050229864231 0.46865989894337173 -0.42220965975588093 -0.31206209812638236 0.6384891469738821
0.9918219255755821 0.5868853247823799
00000000: 53c5 4358 d30e c83f dbe8 97e5 ecc2 da3f
00000010: 5f9f 427c 16f3 cf3f 340d b1da d903 c73f
00000020: fd23 ba16 86fe dd3f 253c 2daa 7b05 dbbf
00000030: 7b88 714e d3f8 d3bf 0352 a3ca 806e e43f
00000040: 1fb1 b955 01bd ef3f 452a 8ebb c3c7 e23f

weight f8 [10, 10]
0.24671163010178665 -0.1400126486726377 -0.004518627257645569 -0.18644781110505887 0.0011123454524287757 0.12952103556391337 0.14939675740266384 -0.2490867124679526
-0.11991273887565515 -0.22634931257627205 0.20510028887501328 0.301399183946102 -0.29496683862477774 0.08886007452885286 -0.2863986041637174 -0.10732480426173212
0.12267755723017257 -0.0940432387805267 -0.06975432090042406 -0.09082926239315635 -0.34964965861377073 0.6069055699298816 0.6537950147466353 0.26996819430843094
0.5772356473087625 -0.27591964953332687 0.1519910779587746 0.313967232964056 -0.23457174909038522 -0.4753672007842534 0.5057581496380997 -0.9088018063018097
-0.5749319456298141 1.245539514360329 0.9853582598310134 -0.19085125540494294 0.934452795078447 1.2153609759440158 -1.3794771987269847 0.40813279920234824
0.23078233933267314 -0.21814481588268436 0.25839602779863424 -0.2756589770891312 -0.029181144226208246 -0.09711896495435776 0.2896283873331524 -0.03117040064700955
-0.15965883649696852 -0.25109878812208075 0.21382092569039302 0.14987592688619966 0.10049001318890197 -0.3032120244570417 0.1817732417621584 0.3424482690432916
-0.426136766992792 -0.5460827380896951 0.9141388778661288 0.2886104876171314 0.14293960351439974 -0.1469478812444184 -0.41798135545596976 -0.26865094321695526
-0.028966323972204024 0.22747074851458515 -0.22452454844996056 -0.6517020681634614 1.2633750557638475 0.3652341073177012 0.3901940357009588 -0.2766702942799799
-0.46505662775411055 -0.5990096721640544 -0.29241500745584503 0.10569093695218346 -0.42666643618167976 -0.6688771107946294 1.2952130395512884 0.5403236393363041
-0.0028477821119744506 -0.22023603057937644 0.16708642467793428 -0.18413185456828288 0.045940202158454346 0.040769733612814815 -0.23307002212892616 -0.08719768235622088
0.0010213924736777276 -0.0036282439149721846 0.07607243735161884 -0.2621386491315905 -0.25334554024252737 0.04278061128187299 0.18380807217739648 0.24229582892234136
0.02074383381157674 -0.10836336604401173 -0.17404819955232198 -0.2022350975910694
00000000: 303e 6a27 3f94 cf3f fba3 8939 efeb c1bf
00000010: c0de b5c4 1f82 72bf 9eb2 8d99 85dd c7bf
00000020: 0026 c3d5 8339 523f 480e f231 2594 c03f
00000030: 2a21 96d5 6e1f c33f 6a81 f5c9 12e2 cfbf
00000040: 0240 d8eb 99b2 bebf 965b 7ea7 03f9 ccbf
00000050: 9725 8fec b940 ca3f f2bb 85cd 1f4a d33f
00000060: 4911 5397 bce0 d2bf 0484 05aa 88bf b63f
00000070: af34 a0cf 5a54 d2bf c38e 5a6c a379 bbbf
00000080: feba 41e0 cb67 bf3f 6ae7 f8ba 3713 b8bf
00000090: 7da2 054f 6bdb b1bf bf97 7f27 9640 b7bf
000000a0: fc6f 33f6 a860 d6bf 9b7d d33a c56b e33f
000000b0: 05fd d385 e3eb e43f ddf3 60ad 2847 d13f
000000c0: 4cd9 68e4 b678 e23f 6371 c4e3 aaa8 d1bf
000000d0: caf0 8e92 7174 c33f b128 6605 0a18 d43f
000000e0: 0351 7473 7206 cebf 5d67 3d8d 6a6c debf
000000f0: 1332 0cb7 2b2f e03f 8095 9386 e714 edbf
00000100: 82fb fcad d765 e2bf 76da 80d7 baed f33f
00000110: 612a 9a0b 0e88 ef3f e3b0 2e5e d06d c8bf
00000120: 2991 508c 09e7 ed3f 203a c859 1e72 f33f
00000130: f0c2 e1ae 5612 f6bf f4ef 3f08 d91e da3f
00000140: 71cf f693 468a cd3f 7608 0159 2bec cbbf
00000150: a6ee 337e 8f89 d03f 9d95 dc8c 65a4 d1bf
00000160: 0a19 7270 a9e1 9dbf dee2 4cda c9dc b8bf
00000170: fbb3 e580 4589 d23f 524b 872d 22eb 9fbf
00000180: 53cd a264 b36f c4bf 282c c3a6 0012 d0bf
00000190: 2435 85ed 7b5e cb3f 848a 3766 222f c33f
000001a0: b28f 38a8 b6b9 b93f 2b01 3368 d367 d3bf
000001b0: fd03 5478 5844 c73f 3e37 0725 acea d53f
000001c0: 98dc 7625 d345 dbbf 062c a081 8279 e1bf
000001d0: 3afd 0d2d a040 ed3f c848 661f 9878 d23f
000001e0: 09e3 324d d84b c23f 75a4 142c 30cf c2bf
000001f0: 615a 01df 34c0 dabf 1002 cab9 9331 d1bf
00000200: c775 9518 59a9 9dbf 2c59 d5f0 c21d cd3f
00000210: 9af1 5e6c 38bd ccbf 95ec af4b beda e4bf
00000220: 0b68 31c3 c836 f43f cb0c 94e0 fe5f d73f
00000230: 1083 9b67 f0f8 d83f ec42 6d52 f7b4 d1bf
00000240: 1f7c bfdf 7cc3 ddbf 5dd5 fd54 162b e3bf
00000250: 127a 786f edb6 d2bf 4077 b1ad 8f0e bb3f
00000260: 3ae0 6cbd 804e dbbf 26fd 7cf8 7067 e5bf
00000270: ce9b e34e 31b9 f43f 6390 06cd 544a e13f
00000280: 00a1 2f61 3b54 67bf a7a0 5eba b130 ccbf
00000290: 2a74 cc84 1663 c53f a9e4 c2f2 a191 c7bf
000002a0: 8833 af63 7985 a73f 663d 1141 c5df a43f
000002b0: c961 5c0d 3dd5 cdbf 74c8 015a 9652 b6bf
000002c0: 2c38 55d1 07bc 503f 006c 9d9e fab8 6dbf
000002d0: c05d 8db6 7b79 b33f 516b 422f e1c6 d0bf
000002e0: 7d76 7b36 d036 d0bf a891 b71c 57e7 a53f
000002f0: a011 5fdd 0587 c73f 90de 96ba 8c03 cf3f
00000300: 20ed 411f df3d 953f 7e56 3e99 b3bd bbbf
00000310: b8a0 801e 3647 c6bf c0e5 20f5 d6e2 c9bf

bias f8 [10]
-0.1518999979597856 -0.06563914443866459 0.2258262906289207 0.4592250816729292 -0.2748038949615844 0.2515649872256494 0.018305254804754343 0.2488733168946445
-0.003726923320455728 -0.02475474116741007
00000000: acf7 bf89 7571 c3bf 8094 b31a bacd b0bf
00000010: a502 6a3a e0e7 cc3f 3671 d298 f163 dd3f
00000020: 6219 6b13 6396 d1bf 09fb 3c08 a419 d03f
00000030: 69eb ecda 9cbe 923f e36b 74b2 14db cf3f
00000040: a875 d5b8 ec87 6ebf 449c f08e 4e59 99bf

weight f8 [1, 10]
0.30285890635796653 -0.06475732517607974 -0.6460211891507355 0.9286047897131829 0.023781197840217233 -0.6660246201952275 -1.2323969908180241 -1.2397969934190791
-0.06281943464223508 -0.17000782827323524
00000000: d806 8752 0a62 d33f 6cc5 cea1 ef93 b0bf
00000010: 329d fda0 34ac e4bf 3944 5764 21b7 ed3f
00000020: 980a ef2b 195a 983f e537 42dd 1250 e5bf
00000030: 1e09 34e8 e5b7 f3bf 0aa0 465f 35d6 f3bf
00000040: b273 5739 ef14 b0bf 0caf 3f07 d1c2 c5bf

bias f8 [1]
0.13930878288956483
00000000: 0c33 47c5 ded4 c13f
