k-ICBC ex1/NN_Train_Result/Pre_Result/k_ICBC_model.pth (torch, 4439 bytes, 6 tensors)

weight f8 [10, 2]
00000000: ac92 b320 d279 c5bf def4 f06e 0312 d13f
00000010: ca16 c7d8 b082 e73f 1fde f723 f0e6 e1bf
00000020: c6ab 80e9 d094 e03f eade 4a45 7b36 bb3f
00000030: 9369 f85b 845a debf ea9c 4b3b 0f06 da3f
00000040: 4a87 5b17 da84 e43f ee66 4f2d 976f e4bf
00000050: 0f11 a0b2 16eb df3f 5493 7c92 451d abbf
00000060: 3b85 514b 882a c13f 43d4 5742 d1d3 cd3f
00000070: 06ea 4a21 f003 d63f d5f9 398a 899b e03f
00000080: af55 1dce cfc8 cc3f 73b1 f838 d092 c2bf
00000090: 1cae 9e96 6c4f b4bf 5422 c641 8b3b e43f
-0.16778017613173313 0.2667244513903152 0.7347034677447593 -0.5594406797890236 0.5181660233114307 0.10630007211409134 -0.47427472096901474 0.4066198424392967
0.641217275257284 -0.6386218914951465 0.49872367328522754 -0.05295770085493837 0.13411048581751026 0.23302665461929636 0.34399035693391544 0.5189864825950347
0.2248782879275217 -0.14510538846787888 -0.07933691670648851 0.6322685513160402

bias f8 [10]
00000000: 1058 d071 35f0 df3f 8d55 68b7 b5eb cf3f
00000010: cf20 b358 c68e cdbf 2b11 7ca6 869c b43f
00000020: d3b1 cfc8 8fbb ce3f c339 840e aae7 c3bf
00000030: 4a5a fc75 7bb3 e5bf 497b baa4 17a8 b3bf
00000040: 276c cf14 702e c3bf a519 7a1d e112 953f
0.49903617968209435 0.24938079314658204 -0.23091964083710656 0.08051339687887508 0.24009892754783255 -0.15550733288587368 -0.6781594566735489 -0.0767836358231594
-0.1498546697247047 0.020579831527834398

weight f8 [10, 10]
00000000: cb14 e980 917d c53f deb4 7b90 8272 c03f
00000010: 5093 715f 8231 b93f 8a3d 4d59 2ec0 c93f
00000020: 09c8 75fb 9e5a c13f 075b 17bc cb7f c93f
00000030: ef78 3922 162d cdbf b855 ce20 013d ca3f
00000040: 44ae d16b e3d0 d2bf d358 35b0 da85 81bf
00000050: 4acd 9000 0d62 c13f 0108 705e 76f1 ca3f
00000060: af22 6edc 0172 c93f daa2 293e 6e48 b53f
00000070: 0a2e 4ff2 2b6f a3bf 8abb 7387 7f0d c63f
00000080: dad1 30a4 aaa8 90bf 17b2 bf5a 291d c1bf
00000090: 646e 0cbf c0ac d33f 98d0 c14d 43b1 b53f
000000a0: c981 6df6 acaa bcbf 9f58 0dec 21ba cebf
000000b0: 8f19 9d4e 8ce0 cd3f a824 1411 0bbd ce3f
000000c0: 7fe5 bff4 2ae6 9d3f 46f0 d5b9 472e cf3f
000000d0: c1a9 792a d0bb 6c3f 4518 e7b2 1488 acbf
000000e0: bcde a4fd 6f6c bbbf 05e0 e982 cfbd b13f
000000f0: 7908 dc20 d322 ce3f e337 3b6f f77c c7bf
00000100: c366 2188 ec71 c43f 6f1b 39cd 06e2 c7bf
00000110: d123 3745 463b a0bf 6f3a 7036 52df bd3f
00000120: c052 b045 6b2b b93f 852d 8dd8 547e c8bf
00000130: 4bcd bc0f d730 d03f e67f d6d5 a417 c33f
00000140: 9312 59b0 a6fe c4bf 6f6d 6fb2 aa08 8b3f
00000150: b352 5fa8 ecc9 cbbf ccda ea85 4a39 d83f
00000160: 74e1 0222 edc7 b2bf afdc 63a6 cafb a63f
00000170: a546 cc2f d36d c63f 6cf1 f559 b3bb b53f
00000180: 7024 807b 2d13 a13f 1779 5a70 8302 cf3f
00000190: 94ad d88a 0455 b13f d24d 6bc1 c84d d3bf
000001a0: a57d 170e e570 c3bf 2851 8076 49ba b53f
000001b0: 343f e729 6d26 bdbf 2e30 1894 9ba0 cebf
000001c0: acb1 9568 d50d c9bf 20d7 6ebb ce65 b4bf
000001d0: a83a 24ff 0325 b63f 1373 1647 c858 c0bf
000001e0: 7810 df0b af2e b93f 82bf c051 f225 c1bf
000001f0: d05c 4727 4970 a13f e1a6 d362 7f08 d1bf
00000200: 1579 eabb 52ce c43f fc5d 4991 d8b3 c7bf
00000210: 00a0 3031 9714 993f d0e5 0377 df6d c83f
00000220: 4098 dfbe d443 a1bf 120e 47d8 70b6 cdbf
00000230: 9b9c 53f9 8c8e c03f b8a3 6d53 2d3d d2bf
00000240: 4273 c200 a057 b43f caeb aca0 134b b73f
00000250: dd0e 5811 0851 c73f 097a 2d08 591f a53f
00000260: 0714 8a3f 9619 d43f b864 d335 c350 d83f
00000270: ce68 6223 bd12 d23f e0b9 25c0 f822 abbf
00000280: d154 8296 825d bb3f 5274 ec26 89cf c43f
00000290: 0049 c151 30b5 b8bf 9bac 1182 1ef1 cd3f
000002a0: cc6a 2f2f 290f d43f 19f1 1b56 bd13 be3f
000002b0: 7797 7f56 28c8 ba3f 3854 5c60 e64f db3f
000002c0: 81f8 8ce0 5fc7 bb3f b595 6ebf eae8 a33f
000002d0: 0497 e6fb 2f16 df3f a17a e4a2 7448 d1bf
000002e0: 373f a6d2 d2ce cbbf cae7 0c52 2e56 a9bf
000002f0: 8b30 842b fec9 cf3f fbdd 0505 c661 b1bf
00000300: b166 cede 7262 ccbf 6917 1f80 882e cd3f
00000310: 7e1c 032d 78dd a53f a735 3dea cd78 b5bf
0.1678945426412269 0.1284945683941378 0.09841170149009071 0.20117740021167335 0.13557803419422523 0.19921251949445937 -0.22793842955702057 0.20498670675139663
-0.2939995339317856 -0.0085560879730732 0.1358047726404073 0.21049384700023668 0.19879172576135803 0.08313645379679305 -0.037957547501346126 0.17228693117018806
-0.016268411895184666 -0.13370243960470482 0.30741900117002374 0.08473606727949556 -0.11197930351546072 -0.24005531335814553 0.23341516340788046 0.2401441415206922
0.02919833296616536 0.24359985898979825 0.0035075250378231175 -0.05572571452971479 -0.10712337439042136 0.06930252977497282 0.23543776611774428 -0.1835011761781394
0.15972668311115087 -0.18658528347642853 -0.03170222849764282 0.11668886021673484 0.09831877185235793 -0.19135532926371127 0.25298096215120286 0.14915905419638803
-0.16402133570422403 0.013200124330913636 -0.21709974499994686 0.37849677160140227 -0.07336313324311111 0.04488976746682149 0.17522659143337652 0.08489533373171348
0.03334943897795817 0.24226420389181477 0.06770351781658795 -0.30162257088269684 -0.15188277423929467 0.0848737634954132 -0.11386759064702973 -0.23927635890174898
-0.19573466879536505 -0.07967845989227529 0.08650231341401116 -0.12770942183569697 0.0983685878737236 -0.13397053710786727 0.03405979732968378 -0.26614365244914323
0.16254648376065775 -0.18517596334525865 0.0244926093838842 0.1908530551079779 -0.0337206347465302 -0.23213015137126597 0.12935030149603652 -0.28498395106594954
0.07946205156845301 0.090989329078112 0.18216038557885997 0.04125478958916424 0.3140617008687631 0.3799293542520661 0.2823937268782516 -0.05300118775891227
0.10689560102976549 0.16258348846978038 -0.09651472087833568 0.23392087317492813 0.31342534645015685 0.11748870231889831 0.10461666213777031 0.4267517033598014
0.10851096374696746 0.03888639056030333 0.4857292137115652 -0.2700473395106347 -0.2172492531358274 -0.04948563338844243 0.24835183262655777 -0.06789815542821735
-0.22175441626750605 0.2279825807183287 0.04270530271019711 -0.08387457817771936

bias f8 [10]
00000000: af7e ef69 63f5 d4bf fa0b 285d 38f5 cb3f
00000010: 7294 fd58 ec7c cebf 21a9 6532 72b9 d1bf
00000020: 6fb8 add9 e470 c33f b4e2 1229 cef0 d1bf
00000030: ea08 22c5 0e73 c4bf 678b cc76 23fb a73f
00000040: 4a04 b724 677b c9bf 7a49 6dd7 ccea c5bf
-0.3274773153807286 0.21842102574018424 -0.23818735451928635 -0.27694373056023563 0.15188274983251257 -0.28032258998022574 -0.1597612822116113 0.04683790993865138
-0.1990784577629106 -0.17122803229228706

weight f8 [1, 10]
00000000: c715 e384 6adf ca3f 2519 588c 8682 cbbf
00000010: 8116 328d 59d4 c33f e338 2fec ee87 ccbf
00000020: 3110 4746 bf39 c03f a085 3620 dd43 d0bf
00000030: da8e 12ce 0a23 b5bf aba4 7d40 114c 9d3f
00000040: fa4f 5b88 4c1a be3f a44e 0217 44b6 c7bf
0.20994311798692264 -0.21492082455387976 0.1549179019386209 -0.2228983548397486 0.1267623036529826 -0.2541420759754036 -0.08256595164362626 0.028610486565786058
0.11758879021664362 -0.18524981616484582

bias f8 [1]
00000000: 7943 7b1f 76b7 983f
0.024137349769094627
