k-ICBC ex3/NN_Train_Result/Final_Result/Control_model.pth (torch, 5639 bytes, 10 tensors)

weight f8 [5, 3]
00000000: 7237 c7c1 66ca cabf 2cf4 65ad 068f da3f
00000010: 5ea3 dc5d ae8b bebf b51f 2368 0372 e3bf
00000020: 17a5 ab98 36da efbf b85d c621 4342 d7bf
00000030: 50fd 7209 052b bd3f 1192 632a 68e6 c93f
00000040: 14d2 ef3c 8146 d3bf 7784 a7c0 8803 d23f
00000050: 4ae8 6cd6 9268 d3bf f633 31cf 1d48 c4bf
00000060: ef19 660e 994a f03f 5b4a 9a08 9814 df3f
00000070: 9e6b 40dd 4e6e c03f
-0.20930180036378548 0.41497961934493577 -0.11931886474179751 -0.6076676401071298 -0.9953873617024865 -0.3634193258125964 0.11393767815296951 0.20234396047375516
-0.3011782736860209 0.28146570981886704 -0.30325766506178253 -0.15845081917578313 1.0182123720602438 0.4856319507609094 0.12836633494665944

bias f8 [5]
00000000: 56d3 85c4 923e e1bf 885c a0e1 ba4a d83f
00000010: 9a62 338b 5c7e c7bf a396 fcc8 a4fa cbbf
00000020: 7c40 d814 62d8 e53f
-0.5388883436522558 0.37956115754918374 -0.18354374691877667 -0.21858653844644946 0.6826639563678465

weight f8 [5, 5]
00000000: f769 c8cd 0b1d ccbf 3c2e c50c 8cac b4bf
00000010: cabe b287 a29c d43f ecfd 7c79 90dd c03f
00000020: 84ba 74f5 0fc9 dbbf a2ea 56a7 3653 d33f
00000030: 33c8 83aa aac8 d1bf 5a03 f1dc 630a d03f
00000040: 07e1 4fb7 6ad4 bebf d151 9c72 12c7 d93f
00000050: 57d9 46a5 ab64 c13f 0379 6b83 7df3 c13f
00000060: 6452 2d84 4eff a93f c20b 839a 8624 a3bf
00000070: e015 0f20 f3d4 e63f 2cc9 fa6a 909b d43f
00000080: 5354 6d9a 4979 e3bf 10a4 1ea8 1d9f b3bf
00000090: cb28 4251 8ad9 c4bf 3697 9a14 d6ad e53f
000000a0: f0b5 5b6c 3781 90bf 6b04 4cb1 ecf2 e63f
000000b0: 7bf9 be40 0585 d3bf f7da 59f0 9e68 d3bf
000000c0: b74c 4965 2c11 ccbf
-0.21963641689292476 -0.08075785934232099 0.32206023456363353 0.131761607475695 -0.4341468712836234 0.30195394841909196 -0.2778727212127052 0.250634160769598
-0.12042872405425352 0.4027753943676347 0.13588471956399914 0.1402432338426892 0.05077596057404746 -0.0373880447018773 0.7134948373938492 0.32199488112668706
-0.6085556045678778 -0.07664666513905183 -0.16288880317399043 0.6774702455920536 -0.016117921818411263 0.7171538794356257 -0.3049939281735516 -0.30326055022980775
-0.21927409120198657

bias f8 [5]
00000000: 5cfc 4bd5 ec41 dbbf ced8 0b93 ecb0 d23f
00000010: 6460 48a6 b22a e13f 26f9 36b0 2551 e23f
00000020: 24d1 6fdb 47e2 d93f
-0.425898750589061 0.2920485912321852 0.5364621398648635 0.5724056665128827 0.40443607739804777

weight f8 [5, 5]
00000000: 00d4 8e7f af26 57bf 3447 f009 979b b9bf
00000010: 816f 5b7f d07a be3f c359 0b17 60e5 d23f
00000020: 2aa3 1850 60b6 d1bf 1f0b 0be1 1e74 dabf
00000030: b4b2 51e2 63f6 da3f df60 b339 e31a e83f
00000040: e060 9232 61a7 e83f e30f c48d 2462 e1bf
00000050: 78b5 741a a911 d33f 3a95 d456 e251 e23f
00000060: 3c0e 661a 86f0 c33f 8591 6a3b 0702 d43f
00000070: e4de 433b 2406 d8bf 48dd aa92 d4bf a7bf
00000080: 94b5 93a0 7106 d1bf b02a ced6 de03 ccbf
00000090: 88cd ac02 5ce2 c83f c0ca 153a 2ab1 c9bf
000000a0: 1d64 9ecf b2ba d8bf 07cd 52a9 5a36 d1bf
000000b0: 81a8 97a6 c1db ca3f cf49 e7cb 147f dcbf
000000c0: c8f0 6752 f34b e53f
-0.0014130319452594353 -0.10003036492005607 0.11906149968439018 0.2952499604265563 -0.2767563612165299 -0.41333744027012814 0.4212884626529487 0.7532821776358353
0.7704320895891463 -0.5432303208222006 0.29795291503508947 0.572495622244481 0.15577770508763134 0.3126237945782793 -0.3753748492012916 -0.04638542452215205
-0.2660183017859137 -0.2188681172231859 0.1944079411565378 -0.2007191451662802 -0.38639517092957637 -0.2689425138043621 0.20983143457789669 -0.44525642311523667
0.6655212983601126

bias f8 [5]
00000000: bb50 4130 5753 e2bf 06bb 0f50 7df6 b6bf
00000010: 0d85 94c3 0ed5 cc3f c0d9 afce 3b74 d3bf
00000020: b5e4 3311 9b5b e83f
-0.5726734106524626 -0.08969863133073028 0.22525200414478555 -0.30396933731335807 0.7611823402395631

weight f8 [5, 5]
00000000: 274d 16cd 3c08 c7bf 0dc4 60c6 50d8 e33f
00000010: da20 45ef 2915 da3f 18d8 9ff6 a3ad abbf
00000020: 2b4f 5476 94be d6bf 409b 1d96 712b 97bf
00000030: 1895 c20c 4cbe c43f 5a5f db6a f966 cbbf
00000040: b78c 0658 e6cb cebf 882a d41f 93dc a3bf
00000050: 1bdc ce3b 491e c2bf 5d9f 5066 0e41 c5bf
00000060: 8fff a0d4 2ee7 6dbf 0025 b4df 6027 c6bf
00000070: 2c0a 7c80 60ca e33f 7f00 1b90 ae20 d0bf
00000080: 3e0c 566c b263 ca3f 5994 b417 472e c7bf
00000090: 011b a83b aace d5bf 0899 a671 b4c0 b03f
000000a0: a39c 346b 2c89 8ebf c863 9365 4d70 e93f
000000b0: 60b1 932d c7a9 cd3f 6474 4c7c d00d c03f
000000c0: 89c6 dfeb ce07 d9bf
-0.1799388886835029 0.6201557039804598 0.4075417362805759 -0.0540591467433133 -0.3553820758399861 -0.022626662051517643 0.16205740569163463 -0.2140800258409808
-0.24059752748607874 -0.03879222644362296 -0.14154925747217892 -0.1660478591522815 -0.003650275674800647 -0.17307673380881994 0.6184542188132744 -0.2519947440414469
0.20616750993585414 -0.18109978349198988 -0.34073882890554336 0.0654404427974421 -0.014910075208332712 0.7949587806607434 0.2317437145751553 0.1254215819289214
-0.3911015799959406

bias f8 [5]
00000000: ba49 4474 e21e d93f d684 7cec d996 d3bf
00000010: 8459 40cb 5a73 da3f 47f5 7faa 580f d6bf
00000020: 749d 9576 ea8f d03f
0.3925100455682259 -0.30608223051428973 0.4132906899334545 -0.34468666696905753 0.25878392773161996

weight f8 [1, 5]
00000000: 7e06 3f2e c303 c4bf 4b02 c230 3dae d8bf
00000010: 237c 3dec 5bb9 ec3f ab08 1e2e 0982 d23f
00000020: 973c e97d 719d e2bf
-0.15636482008089908 -0.38563470613010925 0.8976268400255133 0.2891867590298129 -0.5817191561890408

bias f8 [1]
00000000: 6acd b125 5479 d43f
0.31990531617267115
