k-ICBC ex3/NN_Train_Result/Final_Result/k_ICBC_model.pth (torch, 5639 bytes, 10 tensors)

weight f8 [5, 3]
000000 96 1c 1c 21 a6 28 db bf 16 59 ff 66 c2 0b dd bf
       -0.42435601457004546 -0.4538427358469489
000010 dd 60 6a c9 e5 f9 e2 3f 92 f9 da 49 cb 2b de 3f
       0.593005078687408 0.47142297947348155
000020 f1 89 62 92 ea 29 e3 3f 2b 20 0d 14 b1 2b de 3f
       0.5988667353706757 0.4714167304814533
000030 6b ca 63 34 ab ce db bf 62 ca ea 6d 7c a5 d6 3f
       -0.4344890605563367 0.3538504670533823
000040 1e 23 3d 4d e4 52 db bf d2 17 73 e7 d3 1c ba bf
       -0.42693431418278915 -0.10200237656235281
000050 cc 0f 1a c1 84 29 c0 3f 5b 60 06 98 8d cc e3 3f
       0.12626704624938012 0.6187198609577637
000060 47 56 03 83 ee 38 e6 3f 6a 30 87 eb 48 ed e6 bf
       0.6944496687744469 -0.716465435043131
000070 2c ea c6 22 62 23 d4 bf
       -0.3146596278781171

bias f8 [5]
000000 56 fc 73 35 86 f6 cf bf 4e f2 f5 46 6a 55 ba bf
       -0.24971082315457477 -0.10286583168449079
000010 59 df cc 40 c2 b8 9b bf 3a 86 96 84 6b a2 bf bf
       -0.027071986394019507 -0.123572082395662
000020 12 da c3 c3 5a 7a 6a bf
       -0.003232171320742391

weight f8 [5, 5]
000000 21 99 27 f6 bf 7d b7 3f aa 52 52 22 ca 0f c3 3f
       0.09176254043231725 0.14891935993059252
000010 9a 70 08 11 84 fa b9 3f 25 b7 2f ad 6b 9f b5 3f
       0.10147881904453229 0.08446381548102673
000020 ee c0 3d 5c 6a 43 e5 3f 4c c0 c9 17 9b 1f d3 bf
       0.6644794274889401 -0.2988040668778964
000030 e9 0b ee 17 95 f2 bb 3f 48 a0 57 a9 79 7a b1 3f
       0.10917026361680339 0.06827507385571707
000040 3c 51 41 4c 94 a5 cc bf 0a a3 93 46 16 e2 c8 3f
       -0.22380307887454787 0.19439962812546013
000050 83 5f 52 28 43 b2 d3 3f ae 4d ee 78 43 51 c9 3f
       0.30775526940987435 0.1977924671633508
000060 66 f6 c3 2c 8d c4 a1 bf 16 82 cf aa 20 1c ce 3f
       -0.03470269366696925 0.2352333864246396
000070 dc 37 a4 4d 80 0f b1 3f e2 bc 88 e0 44 2c d8 3f
       0.0666427793077839 0.3777019684520849
000080 b6 d1 63 10 75 52 d0 3f b3 81 98 82 91 85 e3 3f
       0.25503279305055615 0.6100547362039407
000090 24 10 63 05 50 d5 d8 3f 9c 78 b4 4c 17 0d c6 bf
       0.38801956678458027 -0.17227450604781758
0000a0 3c ad ad c5 12 7c a0 3f 33 2f a7 f8 15 ff c3 3f
       0.032196604376475396 0.15622210160506142
0000b0 e1 1a fb 53 1d b8 d5 3f 4b 80 8a 7d e8 ca ce 3f
       0.3393624611020823 0.2405672657960188
0000c0 65 af b5 ad 34 bf d6 3f
       0.35542027438963536

bias f8 [5]
000000 24 0a 53 a8 58 db c0 bf ad 6f 4a 17 80 4f d6 bf
       -0.1316939184089999 -0.34860231661309166
000010 04 b3 08 50 59 76 c1 3f fd 30 bc 9d ad 6b d5 3f
       0.1364242211142469 0.33469715503521497
000020 1e 9f 8c d7 c1 b0 d1 3f
       0.27641340303169837

weight f8 [5, 5]
000000 e1 cc 0a 6f 83 50 d4 bf 70 bb 73 4c f9 b7 a1 3f
       -0.3174141487499594 0.034606733877686646
000010 48 34 58 85 25 fb b6 3f ba f9 8b 0c f7 11 c4 bf
       0.08976969247324107 -0.15679824936519343
000020 1c 13 2d cf 33 ec c6 bf 18 97 e9 1a 51 ac d8 bf
       -0.17908332458514387 -0.3855173838440904
000030 6a 3a ab 41 0f 77 d8 bf 9c 91 7c e1 d9 da c3 3f
       -0.38226682103132836 0.15511630544746147
000040 f3 14 b2 aa 6a ca d7 bf 1c 33 1c 14 76 7e bf bf
       -0.3717295329045804 -0.1230233954522188
000050 0c 80 8a 28 17 50 d2 3f a1 54 42 fc ac ac d0 3f
       0.28613833388408305 0.2605392898052035
000060 cb e3 1f b5 f3 d0 67 bf c8 a1 c0 96 a8 42 e1 3f
       -0.0029072532570322044 0.5393870300659325
000070 37 a4 48 71 ae 40 b4 bf 47 f6 5d 97 05 5e dc 3f
       -0.07911196008412068 0.4432386377519361
000080 cf c0 54 7d 8f 86 d0 bf 5c b8 42 1b 1a 21 cd 3f
       -0.25821292151796355 0.22757269221387133
000090 91 96 08 0f c2 67 de 3f 7e 11 c0 a7 5c ca dd 3f
       0.47508288829917783 0.4654761923013878
0000a0 0a ef 26 53 48 e2 da bf 3e 4a d3 3b b3 78 d5 bf
       -0.42006118889160915 -0.33549195139235966
0000b0 83 07 4e 50 99 b6 db bf df e3 44 b6 d6 ed d9 bf
       -0.4330199512697776 -0.4051415233585071
0000c0 36 ee 57 9d e8 bc d2 bf
       -0.2927800690228851

bias f8 [5]
000000 40 00 08 ad de 1c 82 bf 93 7a 69 9d e2 b3 d0 bf
       -0.008844127326483542 -0.2609793221690008
000010 2e 87 26 94 6d 00 97 3f ca 49 c7 2e 6b b6 d7 3f
       0.022462570350064208 0.3705089527913087
000020 46 46 65 be a7 5e c8 bf
       -0.19038864895496682

weight f8 [5, 5]
000000 46 01 5c ed f1 92 da 3f 02 0c a4 15 ae da cc bf
       0.4152188127482258 -0.22542358452491845
000010 e0 a9 46 2d 8d 39 a7 3f d4 3d 91 9e aa 0f c9 3f
       0.04536095788656147 0.1957906030897748
000020 86 ba f2 8f a0 42 d7 3f 00 3a 0a d1 71 72 58 bf
       0.36344160134732595 -0.0014921294679514086
000030 90 8e 56 26 2a 21 a2 bf d3 f7 6e 65 16 97 e0 3f
       -0.03540927618021528 0.5184432965395395
000040 3a bf 8d 53 7c c2 d3 3f 5e f9 f3 ef 8a 8e d1 bf
       0.3087454620317548 -0.2743251174250839
000050 00 c3 d0 72 1e 3e a6 bf e0 6f 63 eb 28 e3 d9 3f
       -0.04344267989688966 0.40448973643446884
000060 c5 6e da 8a c8 65 cb bf 36 59 70 f7 a5 d4 de 3f
       -0.21404368190711956 0.4817290226359491
000070 8b b6 25 27 ff 69 db bf cc f4 83 06 c8 7a b2 bf
       -0.4283445246027006 -0.07218599471157744
000080 70 89 a4 97 fb 0e a5 3f e8 b1 e5 41 b2 0d d6 3f
       0.04112993455989311 0.3445859569099228
000090 70 04 30 35 cc 4b bb bf b8 31 54 21 74 b2 d8 3f
       -0.1066253309109173 0.3858919454076175
0000a0 cd d2 90 f7 70 3c d6 bf aa c8 af 71 d2 86 d0 bf
       -0.3474390428193999 -0.25822888471806016
0000b0 28 3a f2 4c 1f 35 c1 3f 20 be c5 a8 d8 b5 bd bf
       0.13443366295946757 -0.11605600471897803
0000c0 16 e2 c8 21 47 65 d3 3f
       0.3030565099648198

bias f8 [5]
000000 4e 2b f5 a3 22 07 d7 bf bb 1f 2f ee ac 5d c6 bf
       -0.3598105050229393 -0.17473374967653207
000010 88 63 f8 f4 9d 7d cf 3f 71 55 ea 0a ac 39 d7 bf
       0.24602102719725516 -0.36289502206758245
000020 9e 19 9b 95 e6 04 c8 bf
       -0.18764955811475387

weight f8 [1, 5]
000000 88 d8 e2 5e c0 87 ca 3f d4 d8 e9 b9 b7 8d da 3f
       0.2072678054152599 0.41489976077663226
000010 d9 6a 2b a1 58 75 d5 3f 38 40 b1 72 ef cc d0 3f
       0.33528724421709694 0.26250826073101363
000020 ef 8d 5f 67 0e 94 d0 bf
       -0.2590366372589576

bias f8 [1]
000000 a2 b3 0a 4c 81 06 d7 bf
       -0.3597720377536523
