k-ICBC ex1/NN_Train_Result/First_Train/k_ICBC_model.pth (torch, 4439 bytes, 6 tensors)

weight f8 [10, 2]
0	0x3fe4e7cbf30b7c66	0.6532954928369576
1	0x3fbce877a659533c	0.11292217074635585
2	0xbfa145a4442cce61	-0.0337344487401452
3	0xbfd815b0cf98dea6	-0.3763238932910816
4	0x3fe338f368f32414	0.600702004413622
5	0x3fe4d7f216a75a01	0.6513605539756214
6	0xbfaa6865a9d84abc	-0.05157773683835873
7	0xbfe0377c9b06a8a4	-0.5067732837535641
8	0xbfe55e0e025c22ee	-0.667731289490886
9	0x3fa42c38a0639c39	0.0393998809611777
10	0xbfe38f6ef75eecbb	-0.6112589675389225
11	0x3fe3baf5a42123eb	0.6165722089436917
12	0xbfca09bd5c087c66	-0.20342223161512435
13	0x3fa7be7db491b0b8	0.04637520627224617
14	0x3fe36786f450b6c9	0.6063875934393873
15	0xbf842612676233a7	-0.009838241367356405
16	0x3fe309b40fea3538	0.5949344931447405
17	0xbfb66e2dcd4cd39b	-0.08761869680604521
18	0xbfe6dca9e8ba6e28	-0.7144364877198699
19	0x3fe0ff30085deed2	0.5311508334557067

bias f8 [10]
0	0xbfbdf4ce1ffb957a	-0.1170166805346379
1	0x3fe05dae96d10b74	0.5114357896458004
2	0xbfd59f7349498cba	-0.3378570762344669
3	0x3f90491470deb92b	0.015903777493513942
4	0x3fe467cca6866bec	0.6376708271449139
5	0x3fe0dd676dccef52	0.5270268578092134
6	0xbfb6e3cefba75b21	-0.08941358226671216
7	0x3fc613620050a06e	0.17246651664141005
8	0xbfb32359fdbf50ee	-0.07475817151072636
9	0xbfe2aab077bd7244	-0.5833360994980201

weight f8 [10, 10]
0	0xbfc3ee25d4aa33e8	-0.1557051933672533
1	0x3fc2237c31978260	0.14170792027927614
2	0x3fc4c06227fac96a	0.16212107612734467
3	0x3fd19ae44086ee7b	0.2750788335940581
4	0x3fcf8aef9f2d24e2	0.2464274909237139
5	0x3fbf6174a5fab11c	0.12258080532291554
6	0x3fa30f2e8cd727d8	0.0372252032207851
7	0x3fc7937d7c133178	0.18418854292248077
8	0x3fd040e22ea85a5b	0.25396017605217985
9	0xbfcdaab7e67744c9	-0.23177241090028236
10	0xbfcce6359cecccf8	-0.2257754341349949
11	0xbfb355dd9c317796	-0.07552895606337837
12	0x3fc7ade2abc1a851	0.18499406229540452
13	0xbfd92972a85759d5	-0.39315477790424086
14	0xbfcf86b9e4079783	-0.24629901537189988
15	0xbf2e539ece9628a0	-0.00023137391626121707
16	0xbfc2e7b84256622e	-0.147696525946928
17	0x3fd86dc116846993	0.38169886778782675
18	0x3fcc470e7526feb2	0.22091847153023064
19	0x3fc10295102ab9d6	0.13289130486869166
20	0xbfce06eeb158b567	-0.23458655986307095
21	0x3fadf5faae766045	0.05851729755085037
22	0xbfc64f2453175442	-0.17429021889862112
23	0xbfb617bedbc4c350	-0.08629982819981064
24	0x3fd6682af17c7469	0.3501078947318264
25	0xbfd22c27b72e71e1	-0.28394501580058146
26	0x3f7156d93620b822	0.004233215791869001
27	0x3fccf95b0cc1e634	0.22635973093911022
28	0x3fb73169cfd5e6b2	0.09059773754224912
29	0xbfb8f47c52fbc1c6	-0.09748055482828652
30	0xbfa11fb9fff6d5be	-0.03344517945826507
31	0x3fcd175eacca4bab	0.2272756904318077
32	0x3fcb024a97f167b0	0.21100742739764433
33	0x3fb1d4587ce03fe7	0.06964638756494389
34	0x3fbe0939f6cad641	0.11732828402713215
35	0x3fc31f6adb3cdb69	0.14939628319708767
36	0x3fc041d8223996e9	0.12700940772190641
37	0xbfbb6bd0e2202cfa	-0.10711389084478987
38	0xbfb3b2c5e9202c68	-0.07694661084694732
39	0x3fa598c07f248c91	0.04218102981601491
40	0xbf9abebdfe31929e	-0.02611824859595179
41	0x3fd4bf2848c6e98d	0.3241673193657782
42	0x3fc4847d35909b3c	0.16029324641677956
43	0x3fa9bc636f7e43b8	0.050265414581310564
44	0xbfd0505bd69445cb	-0.2549047084331419
45	0x3fb5a13e5d918907	0.08449163231265198
46	0x3fd749bf3092abfe	0.36387614959193104
47	0x3fd039c37cc06137	0.2535256117130475
48	0x3fd1e6427dcbbd49	0.27967893872024213
49	0xbfc29e830813fb1b	-0.14546239752231646
50	0xbfcd90dc91565e7e	-0.23098332497169233
51	0xbfb660a8816674d3	-0.0874123874586588
52	0x3fb1353224b1f2e9	0.067217954596298
53	0xbfbf713eedf580a1	-0.1228217440561843
54	0x3fd3558713893011	0.3020951929836438
55	0xbfcdd231f8f30b6a	-0.23297714858753277
56	0xbfd2c630a4eb333b	-0.29334655862185216
57	0x3fbdaf2af3b48ba5	0.11595409822306964
58	0x3fd445087afa6c71	0.31671344766227266
59	0x3f9a114f8393bf07	0.025456659704047115
60	0x3fb46def5a8a04ce	0.07980247459819909
61	0x3fb31cbca00f13b4	0.07465723903358318
62	0xbfcb6f93e8c668b6	-0.21434258333176154
63	0x3fc5ac6de15bdb15	0.1693246221909354
64	0x3fcb0a5a5ea63652	0.2112534486918088
65	0xbfc0e04623c52507	-0.13184429880701762
66	0x3fd19c8b1dd947ab	0.27517965235630965
67	0x3fd10cdc2c547b8b	0.2664099152479415
68	0x3fc7bbfda7268d7a	0.18542452489519318
69	0x3fc0f2db5eccde59	0.13241140488547634
70	0x3fc00f191e397f30	0.1254607579785385
71	0xbfd1e9eabf5cdb9b	-0.27990215957418635
72	0xbf850334ec468bc0	-0.010260022602613605
73	0xbfbfc71feeb7af60	-0.12413215234817931
74	0xbfc3a3a5964ef40f	-0.1534316047599593
75	0x3fbca0ff8a6efb0c	0.11183163766598286
76	0xbfad9a370d4387a8	-0.05781719242965205
77	0xbfcd1bb446760d5b	-0.2274079650925199
78	0x3f935aacfe6f2650	0.01890058806364997
79	0xbfd2f3b74d3ce343	-0.29612524550207214
80	0x3fc5799f8a4749d6	0.1677741456210941
81	0xbfd3441ee6c1db00	-0.3010327580918073
82	0x3fbd7ea6089a4e6a	0.11521375379589363
83	0xbfb401b4108f9521	-0.07815099148099992
84	0xbfabdc9094e248e2	-0.054417150663668826
85	0xbf8395a469cf5b20	-0.009562763670982799
86	0xbfc7279b445260f0	-0.18089619480156882
87	0xbfc48e8d64f88f07	-0.16060035162183103
88	0x3fd0cce531a0de2e	0.2625058159496544
89	0x3fd46b20119bcd39	0.3190384075125681
90	0xbfc163bc43f3d002	-0.1358561832236092
91	0x3fd5e25fdf6c16ba	0.34194180315567346
92	0x3fd13f7a02ba4e6f	0.2694993044508242
93	0x3fb3a738a4090857	0.07677034382598556
94	0xbfd3af5785c91a3f	-0.307577019357641
95	0x3fabf149d535ddcf	0.05457525947252472
96	0x3fe0829d04a68936	0.5159440127211272
97	0x3f6d484684e471b8	0.0035745026899702513
98	0xbfbf68dc7f3589c7	-0.12269380670253503
99	0x3fb848be64c42b99	0.09485998115648754

bias f8 [10]
0	0xbfc0b894eda7992b	-0.13063298801643816
1	0x3fc193054337175b	0.13729921133033937
2	0x3fc2070f866541e2	0.14084047376901682
3	0x3fb27e51ed3ea7f6	0.07223999063594974
4	0xbf991ec47e2d806e	-0.024531431390073903
5	0xbfad33d85b04653c	-0.057036172018522596
6	0xbfba828f923ef6c5	-0.10355470009286723
7	0xbf72007c46f9edc0	-0.004394994218837878
8	0x3fc19cea709f66a5	0.1376011896052677
9	0xbfb1be6df66af742	-0.06931197420177873

weight f8 [1, 10]
0	0xbfd01c62d8b96fd2	-0.2517325512360432
1	0x3faae6053c2407c9	0.05253616675510348
2	0xbfac8aa2635d0ba7	-0.05574519598896837
3	0x3fd117558ac8f4d2	0.2670492034265638
4	0x3fc5c0e0ffcbbc84	0.16994869699508197
5	0x3fd067f3b4b8a84a	0.25634472511831474
6	0x3fcd029a0ecfc24f	0.2266419002840103
7	0x3fa157ef20a191d0	0.033874008878033046
8	0x3fcfdaca55dc09e8	0.24886445228919674
9	0x3fd4ce019627882d	0.32507362044828164

bias f8 [1]
0	0xbfcd36ff44ba728a	-0.22824087959169886
