k-ICBC ex2/NN_Train_Result/Pre_Result/k_ICBC_model.pth (torch, 2847 bytes, 4 tensors)

weight f8 [10, 2]
0	0x3fbd772e2b54a1af	0.11509979780078682
1	0xbfe0028834b3deb6	-0.5003090886447896
2	0x3fd0d29be6fadfff	0.2628545528091308
3	0x3fb1300185f25290	0.06713876266651142
4	0x3fa22c4c36bfae7f	0.035494214709470555
5	0x3fd0d25d502b935a	0.2628396304046895
6	0x3fe09df5ca2d8d5c	0.5192822407520157
7	0xbfada8d43d1cdcdd	-0.05792868848805608
8	0xbfad2a16c378a8a2	-0.05696173797726202
9	0xbfc8ecd52278fedc	-0.1947275560687477
10	0xbfc758f4b97fef78	-0.18240222032170172
11	0x3fe03ace67244ad5	0.5071784986961015
12	0xbfe28c0a7131fdfe	-0.5795948229642247
13	0x3fa8c617fb44e972	0.0483863348221857
14	0xbfc638145b392414	-0.1735864110399069
15	0xbfb145e1dc4ce6e6	-0.06747256878307048
16	0x3fa6b3d7093cd50a	0.044340820195808275
17	0x3feb8f82eb486faa	0.8612684817667191
18	0x3fd507927a045d44	0.32858716884353023
19	0x3fcfa2e327ae56ed	0.24715842664289003

bias f8 [10]
0	0x3fd1fc6482435f38	0.2810298225499426
1	0x3fe6d0014976a618	0.7128912386735378
2	0xbfa10bd3dc2546f1	-0.033293362258190025
3	0xbfc8d08eb5da795b	-0.19386466865121119
4	0xbfe33deaf8a265f0	-0.6013083320751189
5	0x3fdd8594f103ee86	0.46127818619400107
6	0x3fda332123e1bdf1	0.4093706941993949
7	0xbfc709ac4a1879cd	-0.1799826967043842
8	0x3fba4fb6c642854d	0.1027788385422543
9	0xbfcbdb4f65bfe655	-0.2176303145241031

weight f8 [1, 10]
0	0x3fcf54564eba57f0	0.24476126522193864
1	0xbfde5eb44b0d6bfe	-0.47453028992975976
2	0xbf6715e6d962963e	-0.0028180607578913988
3	0x3fd596a386a0e083	0.33731926104838567
4	0xbfd1074d5cee73a2	-0.2660706908734999
5	0x3fc7ff702c20725a	0.1874828544104215
6	0xbfb2a9d402d3b4b3	-0.07290387219446152
7	0x3fccd49fe9b87833	0.22523878967416663
8	0x3faf57541725af4b	0.06121313841398875
9	0x3fd349f5e0d9842b	0.3013891883657062

bias f8 [1]
0	0xbfabcaaa366874a2	-0.05428058542404669
