k-ICBC ex5/NN_Train_Result/First_Train/Control_model.pth (torch, 5783 bytes, 6 tensors)

weight f8 [15, 4]
000000 82 73 ac a4 41 69 d0 bf c1 a4 b2 ad d5 85 de 3f
       -0.25642434197816766 0.47691862070730556
000010 6c d9 ce 45 2a 32 d0 bf 1d c9 e1 e6 c3 5f dc bf
       -0.2530618364065933 -0.4433450464922702
000020 5d 57 6c 34 3a 3f e0 3f f7 cd 38 16 97 14 b2 3f
       0.50771818388851 0.07062668125654868
000030 da b0 44 81 04 b9 c1 3f b9 f5 b8 e9 6b 03 b6 3f
       0.13845878898553715 0.08598970848193845
000040 0c 80 7b 9e 61 74 c7 bf 15 c2 bf cc 5b f2 da bf
       -0.18323917616271534 -0.4210423945906155
000050 23 40 c4 69 cd 04 a4 3f 00 2b 10 79 a9 e9 c9 bf
       0.03909913936706768 -0.2024432984474842
000060 32 42 27 51 49 bc 9b bf cd 3c fc 66 c6 30 c8 bf
       -0.02708544309445155 -0.1889884951455997
000070 2f 81 96 81 08 78 b7 bf 07 62 7c ee de 7d d2 bf
       -0.09167531169669439 -0.28893254556308573
000080 7a 8e e5 c7 65 f1 de 3f 74 30 60 ef bd ad d3 3f
       0.48348373910105347 0.30747936607873005
000090 b0 dd 48 ca 42 4a e4 3f 01 d5 68 9b e5 a1 a1 bf
       0.6340650511619312 -0.03443830034340501
0000a0 9e b5 3b ea cc 40 cc 3f 6c 99 80 23 38 22 d6 bf
       0.22072755276842043 -0.34583857981706134
0000b0 1e 3a e2 57 a3 1e da 3f 00 2f cc 1f 5f a5 da 3f
       0.40811999876396665 0.41634348016008005
0000c0 79 d9 dc c8 19 f5 c1 3f 1e 32 f2 42 93 20 da 3f
       0.14029238040684414 0.40823823487952093
0000d0 56 05 03 05 3d f8 e0 3f 78 9c 60 80 3f a0 dd 3f
       0.5303025339018557 0.46290576493124247
0000e0 8a 83 83 53 14 1c df 3f 73 48 ed 3e 97 fd be 3f
       0.48608883052480023 0.12105698858548113
0000f0 df 44 1a 38 fa cc ab 3f d0 75 72 8e d3 04 c9 bf
       0.05429822859617572 -0.1954597898046999
000100 1e d2 29 1a 3c 10 e2 3f 45 09 43 9d 75 6a da 3f
       0.5644817839625522 0.4127477679977754
000110 55 d4 07 e0 a2 ae e7 3f 92 95 55 31 c7 f6 e3 3f
       0.7400678992841089 0.6238742793618022
000120 ed 68 73 99 8e 84 d5 3f 02 3c e2 45 d8 ec de 3f
       0.336215638975445 0.48320586037237956
000130 70 67 87 8d 30 56 de 3f a1 b9 a3 92 6c d4 cd bf
       0.47401059933837697 -0.23304516945013368
000140 33 3f e1 5f 0a b6 9b bf 82 6a e3 5e 0b 85 d8 bf
       -0.027061616994898684 -0.3831203867572769
000150 e4 a7 5a 50 bd 63 d7 3f 93 db 75 83 fa 33 d7 3f
       0.3654626164158101 0.3625475200455465
000160 06 ad 20 64 76 08 c2 3f 44 fa 95 c5 2a 13 d6 bf
       0.1408832539467328 -0.3449198655652348
000170 60 f4 89 b6 1e a4 b3 bf b0 96 fd 7c d0 c8 c9 bf
       -0.07672302204623938 -0.2014408693605012
000180 4c d8 71 c7 38 45 b4 3f 91 d1 3b f0 af b1 69 3f
       0.07918124074225935 0.0031364857003330433
000190 80 64 86 ac 57 0f d4 bf 79 cc 6a 27 07 29 d7 bf
       -0.313436430436532 -0.3618791470464156
0001a0 26 bc 5f 29 e1 f7 cc 3f 48 92 32 44 88 43 bd bf
       0.22631468315327757 -0.11431171097735515
0001b0 c9 56 2c 8a 07 c9 d0 3f 9b 24 e6 9e f9 02 e6 3f
       0.26226986402012337 0.6878631690498368
0001c0 17 ba 81 26 1a 3f d6 bf 25 e9 cb ad 82 3b 95 bf
       -0.34760144958900824 -0.020734826905916343
0001d0 7e 3d 10 3f cc dc d7 3f 16 e0 03 eb ba 9d dd bf
       0.37285143049754044 -0.4627520842618663

bias f8 [15]
000000 50 49 50 03 06 ee d2 bf 13 06 89 92 b3 a1 d8 3f
       -0.29577780078502247 0.3848694735534945
000010 55 95 68 5e f9 10 b4 3f af 86 a1 f1 c6 43 77 bf
       0.07838400416274756 -0.0056798716778715804
000020 2a 8a 4d 08 58 b8 db 3f 36 84 54 ab ea e0 dc 3f
       0.43312645731762933 0.4512278245111391
000030 5b 19 60 89 c6 3a b9 3f 52 48 08 a0 ed 2b d1 3f
       0.09855309347049028 0.2683061659637406
000040 4d a2 c6 e0 90 99 88 3f 58 db 51 9d cd fb cf 3f
       0.012011653766266362 0.2498719232714517
000050 a4 fd fe af a1 4e d3 bf d0 cc 0e 82 57 76 dd bf
       -0.301674291487837 -0.4603480119796588
000060 14 3c 0f bb 8d ca d0 3f 9f 9b c1 0b 4d 97 d8 3f
       0.2623628927948982 0.38423467777323056
000070 f8 df 5f c3 b7 1a db bf
       -0.4235057266191684

weight f8 [15, 15]
000000 ac b9 bf 3c fe 2c a4 bf 68 9b 9c 61 a2 e5 bc bf
       -0.03940577022136735 -0.11287894137477184
000010 a4 c3 ac ee b1 af c4 bf 6e 20 3b 32 95 2e c0 bf
       -0.16161178735776816 -0.12642159416850823
000020 f8 cb 8f 59 4e e4 b1 3f 39 1e c4 de 25 c1 cc bf
       0.06988992392125215 -0.22464440705538083
000030 ee f0 fb 17 ca 37 b0 bf 84 9c e5 e9 d3 cf b8 3f
       -0.06335127912092606 0.09692120037435542
000040 c4 84 38 8c 1e 96 c3 bf 1a 6b f0 25 ec d6 c7 bf
       -0.1530187782928235 -0.18624641277787007
000050 94 b3 8f 3d e6 45 bb 3f e4 18 0e 11 f2 db c9 3f
       0.10653532984697583 0.20202470619933088
000060 e0 01 7b db 31 4c 96 3f c9 f7 ee e5 43 b3 ce bf
       0.021775034924532366 -0.2398457405778898
000070 a6 67 96 48 ae 69 c1 3f 71 61 6d 24 30 9a a0 bf
       0.1360376219207044 -0.03242636150997925
000080 04 54 d2 c9 a5 5d 9f bf 1b 71 a9 7c 08 b3 be bf
       -0.030630674784863046 -0.11991932910445195
000090 20 9d 04 f8 88 11 c3 3f 2b de 28 68 da 9b c7 bf
       0.14897262678389556 -0.18444376073760912
0000a0 72 48 60 02 d5 60 b7 3f 56 d3 47 96 18 02 b2 3f
       0.09132129009256731 0.0703444830795211
0000b0 83 d3 03 07 56 6d bd bf 18 ed 8e 22 c7 9c 95 3f
       -0.11494958564055761 0.02110587261607319
0000c0 a9 15 f5 c1 fe 80 c3 3f 71 a5 e2 f3 1c a6 a0 bf
       0.15237411947798066 -0.032517342349204344
0000d0 3e a6 16 d2 4b 60 cf bf 40 c2 80 a7 b5 5c 9b bf
       -0.24512622602678563 -0.026720846508569318
0000e0 f6 63 f7 77 8f 64 a9 bf b2 0d 43 7e e9 e8 cc 3f
       -0.0495953401511499 0.22585791268475713
0000f0 97 f7 3f 13 84 ec b6 bf 6b 77 61 de 81 f7 bf bf
       -0.08954644651382036 -0.12487041167466166
000100 d0 7a b7 50 f1 38 bd 3f 6c 65 7c 35 2a f5 c6 3f
       0.11415012570021621 0.1793568383371097
000110 8e 35 9a 54 ba 2c a6 bf 36 64 5c 3b 1c 56 ae bf
       -0.04330999644035237 -0.05925071930523311
000120 e4 d7 a4 a0 61 70 83 3f 33 92 f8 7c f7 82 a3 3f
       0.00949169417854629 0.03810857201122921
000130 f4 cc 3f 98 ed 87 97 bf 4a b1 62 03 4b fe b6 3f
       -0.022979462068133352 0.08981770355848542
000140 ec 60 fe 64 ef ef b7 3f d8 45 d2 1a ff 2f ba bf
       0.09350486961045917 -0.10229486851519398
000150 1f 25 3f f2 77 7c c3 bf 4a fe 0e e5 89 66 69 bf
       -0.15223597839784817 -0.0031006520516425927
000160 42 d1 b5 90 44 b7 cb 3f 06 99 86 3f fc 88 ce 3f
       0.21653039041451377 0.23855546094745977
000170 94 9b 59 f3 54 01 b3 3f ae 66 6c 44 f9 d0 cc 3f
       0.0742390722385678 0.22512737122524612
000180 a3 bb 88 b3 5e f9 b5 bf 72 f4 0f df c7 15 ae 3f
       -0.0858363331142145 0.0587599239151836
000190 26 a0 98 da c6 86 c3 3f 28 a1 cf d7 e9 df a9 3f
       0.152550560699866 0.05053644904529825
0001a0 6a 1b d5 81 79 1f b7 bf 99 0e cb ff 37 65 cf bf
       -0.09032401485192812 -0.24527645101453713
0001b0 d4 93 67 e5 ec d2 bf 3f 81 b5 4a c3 e0 c9 ad bf
       0.12431221581171253 -0.05818083175595757
0001c0 41 7b 8b 21 21 20 c1 bf be 9a 41 7a 1a 83 a2 3f
       -0.13379301202709296 0.03615648977647855
0001d0 bf ff 2c 19 f1 50 a5 bf 61 c4 1e 60 69 2d ae 3f
       -0.04163316185304166 0.05894021318761911
0001e0 db 19 c6 e7 aa 01 d2 bf 80 1c 9c 37 ee 98 c5 3f
       -0.28135178217089923 0.16872956958124874
0001f0 12 59 94 d1 e8 f4 ab 3f 3e 74 1b dc e8 8e c5 bf
       0.054602885802682036 -0.16842375514434765
000200 fc cc b0 a2 30 03 c3 3f 46 22 23 39 33 4f bb 3f
       0.14853485053900062 0.10667724747612181
000210 00 0c 0c 8c d6 0c c5 bf 17 67 14 5a 83 5f c1 bf
       -0.16445428693995723 -0.1357273282854343
000220 fa 64 97 9f 13 ea 85 3f 36 7a be 8f 02 75 b4 bf
       0.010700372035830064 -0.07991043099762227
000230 54 18 e3 78 c4 00 7a bf 30 67 b8 db 6e 17 90 3f
       -0.006348388166037184 0.015714389954246843
000240 a8 3e 06 fa 13 ab ca bf 02 85 97 1c 9b a9 b2 bf
       -0.20834588726255743 -0.07290048072856695
000250 b9 97 dd dd fa c8 a2 3f ee 7c fd c1 41 5b 9b 3f
       0.036689605315401726 0.02671530481836453
000260 ff ba c0 78 bb 39 cb 3f 61 7b 42 a3 39 57 c9 bf
       0.21269935032020013 -0.1979744002500992
000270 df 32 87 9c 35 51 d0 bf 0c ec a6 ba 9b 9b a2 bf
       -0.2549566296191141 -0.036343447241471066
000280 c7 66 c5 f5 94 f4 60 bf 81 ff a5 1c 8f 3f c4 bf
       -0.0020697507263037515 -0.15818966769074552
000290 b2 e4 53 1c c1 33 c4 3f 01 af 2a 24 c4 99 d2 bf
       0.15782941706837544 -0.29063514263064866
0002a0 b3 8c ca 6b db 2a a1 bf ab 54 e0 c8 ea cd cd 3f
       -0.03353009882746374 0.23284659202969257
0002b0 98 f9 ba b3 c2 bf b6 bf ff a0 1d c6 9c cb c8 bf
       -0.08886353385876189 -0.19371375726337445
0002c0 1d d1 84 2b 9d 0e 8d 3f 80 d8 88 25 6a 09 95 3f
       0.01418803013857733 0.020543726483275737
0002d0 2f 22 b4 f6 59 51 be 3f c6 6f 95 c9 19 72 d5 3f
       0.11842882416761634 0.3350891560164623
0002e0 85 40 10 3e 38 3e a3 bf 2e 85 64 bf 25 5d d0 3f
       -0.03758407361613173 0.255685269266979
0002f0 63 bd 58 58 43 4b dd 3f 0f 23 48 9a 05 1e ae 3f
       0.45771869304276985 0.058822798808313086
000300 29 a2 cd 3d 86 40 d9 3f 2b b0 eb 1f 4a 14 c7 3f
       0.39456325564836675 0.18030668791414092
000310 0e 30 cb 05 b2 4b d7 3f 2e b7 13 b5 c8 1e bf 3f
       0.36399508062163555 0.12156347676110776
000320 31 cf 05 90 ab 19 b2 bf 51 77 d1 60 e2 ee ca bf
       -0.07070419565371534 -0.21041516997768864
000330 75 1b bf 4f 00 eb c3 3f 78 18 78 70 09 a8 d5 3f
       0.15560916799423877 0.33838115676224545
000340 b7 1d 07 72 02 aa b7 bf ba 9b ba f6 c7 3d c2 3f
       -0.09243788989907996 0.14251040980636082
000350 ed fb bc 16 09 d1 d3 3f 3a 86 a5 ee 79 dd b0 bf
       0.30963351460007865 -0.065879460109067
000360 40 ea 3e fe 7d 39 a5 3f 43 e4 07 64 8c 6b cb 3f
       0.0414542553766819 0.21421961674039566
000370 34 c0 9f 32 37 82 b0 bf d7 30 40 ac 76 fa d1 3f
       -0.06448693262041233 0.2809120828758415
000380 82 95 0b 23 cf 4d d7 3f b7 9c 7b 8c 5b ef db 3f
       0.36412409231555654 0.43648422926930713
000390 7c d7 55 21 ce 96 e0 3f 7e 2c 94 f3 8d d3 ba bf
       0.5184088374214606 -0.10479056545971052
0003a0 e8 87 bb fe a4 13 b2 bf a4 32 f8 e5 33 64 a1 3f
       -0.0706122514634725 0.03396761114354277
0003b0 8f 02 d1 40 c4 17 db 3f 00 6f 44 8e 54 3a b3 bf
       0.4233255990002726 -0.07510879967997752
0003c0 98 b1 8e a0 ad 58 9e bf 9e e4 4c 38 c0 96 c3 3f
       -0.02963515560593208 0.15303805111924346
0003d0 98 33 03 76 c7 0c b6 3f e0 e2 37 ed e3 5a cb bf
       0.08613249426998804 -0.21371125300335958
0003e0 20 99 ee 40 42 22 c1 bf b0 be 7f 71 a7 77 bc 3f
       -0.13385799570569024 0.11120077630016101
0003f0 68 2e 7e e6 d7 a0 b1 3f 14 32 60 2c 64 3d c0 bf
       0.06886052491443595 -0.12687351385865553
000400 20 b6 d3 26 04 34 d0 bf b0 ab db 36 3d be a1 3f
       -0.2531748179597759 0.034654534288925176
000410 54 72 16 39 19 95 aa bf 1c 3d e2 96 5a 3c b3 3f
       -0.051918781489096816 0.07513967689213924
000420 c4 49 34 fe 2b 20 b7 bf 4b 56 53 f5 b2 80 d0 bf
       -0.09033465343626462 -0.2578551669842894
000430 70 e6 b9 2e 50 ca c5 bf da 44 8a 2d ff 4b cc bf
       -0.17023660928298368 -0.22106923793447814
000440 a6 be 2c a8 dd 9e c8 bf ca f3 a0 21 75 66 62 3f
       -0.19234820090922716 0.0022461211893003196
000450 b8 31 bc 18 6e fd 91 bf 05 17 f0 ad 16 b3 ca bf
       -0.01756832147570872 -0.20859035008486884
000460 92 d8 7a e7 72 75 c3 bf a4 8a 9c e5 17 f8 c1 bf
       -0.1520217542908467 -0.1403837081098419
000470 30 ce ff 45 4e 13 a3 3f a4 a6 33 1f 74 67 ce bf
       0.03725666622622403 -0.2375321533539153
000480 ac a4 ad 57 46 8e c5 3f 0a 88 0a 14 3b f4 b6 bf
       0.16840438157240578 -0.08966416587148288
000490 7e 3c 44 7e 86 61 b6 bf 90 ff c6 22 02 dd b6 3f
       -0.08742561896018405 0.08930981968933183
0004a0 a2 96 24 f6 4e 07 ba 3f 3c d4 53 5b 76 df c0 bf
       0.10167401799534528 -0.13181952914570327
0004b0 76 34 69 47 1d 7b b6 3f fb 94 7e c1 ff 7f c4 3f
       0.08781607621604501 0.16015622089359013
0004c0 d2 bf 30 70 af 89 d0 3f d3 85 59 be 77 65 be 3f
       0.25840364414307004 0.11873577496728353
0004d0 16 ae 18 07 8f 95 b8 3f 02 19 7e 52 f6 d8 d6 3f
       0.09603208468677624 0.3569923215476508
0004e0 05 a8 52 0b 74 6f db 3f 56 42 11 d3 ce 95 af 3f
       0.42867756944417607 0.06168981863504956
0004f0 cf 25 c2 1f 37 02 d0 3f f8 b5 cd 46 1b 14 bf 3f
       0.2501352129116556 0.12140055159189689
000500 d8 3b df e2 97 24 a5 bf e0 ce 93 29 a3 aa b2 3f
       -0.04129480976518324 0.07291621937821047
000510 32 c0 26 45 70 42 c5 3f f3 85 66 63 8e 16 ce 3f
       0.16609004379779574 0.23506336072482234
000520 a5 a5 e7 66 a2 44 af 3f 0f 22 07 a4 0e f6 8f bf
       0.061070513784055515 -0.01560603559563936
000530 30 ef cd c6 2e 77 8e bf 58 b8 38 b7 83 4f d0 3f
       -0.014875760499982599 0.25485318081598995
000540 1e c3 ce 50 96 45 cf bf 00 3c aa 6c 4e 9c 56 3f
       -0.2443111319130588 0.001380039774321551
000550 8b 7d 5e ba 4a 63 c5 bf ef 1d a5 53 f7 29 be bf
       -0.16709264850667824 -0.11782785217393842
000560 34 d5 d3 ad ee 9c b4 bf 6f c2 43 fb 3c bc ce bf
       -0.08051959747156873 -0.24011957424910998
000570 f0 07 09 2f 8b 00 9f bf 0d 1e 63 0f c8 96 b3 bf
       -0.03027551149921942 -0.07651949287093647
000580 66 34 e0 dd 21 4f bb bf 79 47 41 2d 58 ee b3 3f
       -0.1066762129487003 0.07785559754236528
000590 ea ad 29 10 d3 28 cb bf 17 40 a0 f9 dd d8 ce 3f
       -0.2121833638114901 0.24099325836914495
0005a0 cf bb 71 aa bf e8 c1 3f 62 29 3f e4 10 84 d2 3f
       0.1399154264686033 0.2893106678935934
0005b0 f0 3b fd 8c b6 ed 84 3f 7f fb cf f6 bc 4e d0 3f
       0.010219026734970854 0.25480579474236004
0005c0 11 cd 4d ec 5b 19 d4 3f e1 44 1c cc 47 58 bb 3f
       0.3140477950721144 0.10681580289044092
0005d0 60 ed 52 69 c2 88 c2 3f ac fc d1 32 b2 99 d2 3f
       0.1447985662724518 0.29063086474338706
0005e0 11 1c 42 d5 8e 47 d0 3f 23 a0 10 c9 6a cd d2 3f
       0.25436755014419626 0.2937876666569556
0005f0 13 52 af 9f 2e 65 9a 3f be 36 8a 4e ea 7d c4 3f
       0.025776604172124417 0.1600926288123698
000600 a9 8b e1 99 e5 bc c4 3f 3d e9 d0 46 8d 37 ab 3f
       0.16201467527124905 0.053158202070749706
000610 de 36 ad 24 3c 1b b1 3f 4c ba 9c 8d f8 57 c4 bf
       0.0668218221228147 -0.15893465914401117
000620 f5 5c 14 45 6e ba cb 3f cb 98 f6 5b 0d 55 a4 3f
       0.2166269147207697 0.03971139667128084
000630 94 42 b0 00 55 7d a6 3f 5c 2e 5b 6a 84 97 b1 3f
       0.043924957593963004 0.0687182197245248
000640 a4 a4 94 37 db 75 56 3f 23 f9 30 02 09 3c dd 3f
       0.0013708725730999039 0.4567892571830205
000650 30 2c 3c cd 72 8b ac 3f 90 19 a7 a8 04 eb d7 3f
       0.055751407197100256 0.37371937246316467
000660 93 3d 40 7d 85 d1 d9 3f 5e 3b c3 21 38 71 c3 3f
       0.403413173976298 0.1518926777702871
000670 30 3b ae 81 10 fb 80 bf 3a 67 5f 5c 87 a9 b2 3f
       -0.008291367490327411 0.07289930348579512
000680 0f 1d f3 96 bc 8c c4 3f e1 55 b6 f2 a9 e9 d0 3f
       0.16054494257534954 0.2642617101895138
000690 b8 00 e1 0c fb d9 81 bf e9 81 af 46 17 17 c9 3f
       -0.008716546373875964 0.196017179026071
0006a0 1a ea d8 3d 6c 67 bf 3f 36 22 50 b6 df 57 c1 bf
       0.12267185697502506 -0.13549419786456135
0006b0 1d 95 7c 78 d7 90 c8 3f 65 3a f4 d0 be 2a c7 3f
       0.1919202173532221 0.18099198534806074
0006c0 3a 6d a6 6d 3b a1 e0 3f 29 50 d2 04 d4 5c c1 3f
       0.5196816579440686 0.13564539180208726
0006d0 4f fb fb 1a 01 d3 b6 3f 80 62 a7 fe d1 86 ce 3f
       0.08915717037960501 0.2384893887927042
0006e0 55 ae ea 1b a3 e4 d6 3f 50 c2 3f 48 99 34 98 3f
       0.3577049038528675 0.02363814834092387
0006f0 66 19 9e 7c 28 54 b6 bf fc c9 11 e9 d1 fe d2 3f
       -0.08722165148183122 0.2968029762334081
000700 29 31 1d b1 36 b6 d0 3f
       0.2611214379910672

bias f8 [15]
000000 80 7b dc 61 52 a5 c0 bf 91 54 e1 93 a9 29 bd bf
       -0.13004522112256822 -0.1139169679675709
000010 b9 c2 f4 4f d8 2c c1 3f ff 41 7a 95 df 0c c6 bf
       0.13418105987650167 -0.17226786421498727
000020 c5 bc 5f 62 ce 82 c6 bf 04 8c a5 23 50 a9 c3 3f
       -0.1758668880788489 0.15360452404556224
000030 68 0a 1f a6 91 c0 af 3f 6d 4c 35 37 cf b9 a4 bf
       0.06201605942580529 -0.04048011349609557
000040 95 7c 77 ab 04 ee c0 bf 37 80 b9 26 df 29 9c 3f
       -0.13226374027633328 0.027503477800905975
000050 0b c4 fd 9b 59 c7 d6 3f cc db cb 23 00 77 b6 bf
       0.3559173606254837 -0.08775330423291833
000060 1f 2e 57 37 a4 5a d3 3f 20 cc 5d e7 63 3e d5 3f
       0.30240731624937384 0.3319329986035786
000070 23 52 8d fd 22 06 cd 3f
       0.22674977665396154

weight f8 [1, 15]
000000 70 fb fc ab 0e a9 c0 3f 46 25 f5 5a 55 7b 98 3f
       0.13015921972143074 0.02390797965680249
000010 04 eb d0 b5 b2 97 c0 3f 4e a5 8f ad b5 71 94 3f
       0.12962945821512772 0.019965018003778305
000020 8a 1e 35 62 27 44 c3 3f 0d aa 04 b9 66 19 93 3f
       0.15051739020622207 0.018651585619560197
000030 fb be 38 96 e1 ef df bf a6 6e 3e fd a1 a1 d9 bf
       -0.49901618642887485 -0.4004902813992238
000040 51 c2 76 4d 03 4f c4 bf 51 0d 57 f1 be 9c ab bf
       -0.15866128237168423 -0.0539302510838079
000050 c2 53 cd 1e e7 74 d6 bf 25 19 03 a6 94 81 c6 bf
       -0.3508851815034256 -0.17582948785838784
000060 a0 83 96 58 ab c9 d4 bf 96 03 e6 bc 2d bc d8 bf
       -0.32480891848723026 -0.3864855141364897
000070 ba 77 10 16 ea 2f df bf
       -0.4872994628402655

bias f8 [1]
000000 c0 95 e3 03 9e a3 75 bf
       -0.005282990691033829
