k-ICBC ex5/NN_Train_Result/First_Train/Control_model.pth (torch, 5783 bytes, 6 tensors)

weight f8 [15, 4]
0.018636817209573064 -0.3767531265420162 -0.3636876410422515 -0.2712150555429759 0.4718164558811944 0.25077706586460746 0.8656831044205322 0.6736770206869793
-0.4539203289260114 -0.390932479275211 -0.4037271504435845 -0.3095238977631237 -0.3963441391788468 0.22180118698492288 -0.268060046223462 -0.3767464210944512
0.026551011846498922 0.6643330385841687 1.0496837783398423 0.12767744346084148 0.2900495693792354 -0.0722458901729177 0.4558326246486992 0.5996457079353523
0.2710906250457636 -0.08968846935700606 0.9319085107787466 0.1386243376331864 -0.28132250497482164 -0.008923307761856123 -0.3084993231405321 -0.23855708205977247
0.5247910694531265 0.1270443749423503 0.10004438292010402 -0.5000511519981004 0.41710803834719545 0.4771404814604232 0.18763384271811812 0.09965482209755754
0.16391997727248037 0.2224598433539825 -0.03026176987369143 -0.45710834823848057 0.5185826566084627 0.42268203696312645 0.7349151993530433 1.021642492462765
-0.14146738121034105 0.16808448877111337 -0.09235968534238372 0.4048151653769593 0.18322986922035617 0.5499527818233108 -0.01960745365388853 -0.29044896700874956
0.18974070086136818 -0.45944788634511013 0.3678959999209281 -0.4213970949936973
00000000: 53a5 aaa1 8715 933f 367a 4a25 b91c d8bf
00000010: 4a18 0f87 a846 d7bf 9b5a 6f64 965b d1bf
00000020: dd5b eea5 3d32 de3f c26b 1e40 bb0c d03f
00000030: 36f3 c50d adb3 eb3f 745a 7d1c c38e e53f
00000040: 9883 eed9 070d ddbf 4299 5ba9 0905 d9bf
00000050: dd65 ea66 aad6 d9bf ae46 8e52 3dcf d3bf
00000060: ba00 efce b35d d9bf 8338 2836 fb63 cc3f
00000070: 9637 f952 e527 d1bf ea15 5f05 9d1c d8bf
00000080: 8bc6 393e 3030 9b3f c7e1 4b5c 3742 e53f
00000090: 08c8 b137 81cb f03f 3af4 0c06 bc57 c03f
000000a0: 05f9 ac11 2c90 d23f 9f26 90e7 b47e b2bf
000000b0: 7439 d499 5c2c dd3f 849c 1832 4c30 e33f
000000c0: 5fb8 347e 8c59 d13f aa75 b7d2 d2f5 b6bf
000000d0: ba14 15cc 31d2 ed3f a137 483a 71be c13f
000000e0: d5b8 9f1b 3001 d2bf bf13 1318 6246 82bf
000000f0: 9a82 eef1 73be d3bf 4184 d6d8 0989 cebf
00000100: e116 11a4 16cb e03f f352 c275 fd42 c03f
00000110: 3b54 ca38 829c b93f 4016 0546 6b00 e0bf
00000120: 1065 e6e9 e5b1 da3f f417 de3a 7889 de3f
00000130: 986e 0cc1 6204 c83f 9336 cc79 fa82 b93f
00000140: 56ef c56e 54fb c43f 3477 f06b 9079 cc3f
00000150: 1bd2 b4ff f0fc 9ebf 306c 9a5f 4341 ddbf
00000160: 25ff cca7 3a98 e03f 2a40 57f5 380d db3f
00000170: 9fbf 51e1 6c84 e73f d54d 55cc a558 f03f
00000180: 1fe5 df67 9a1b c2bf d44f 1ee3 ca83 c53f
00000190: f9ae 0364 e2a4 b7bf fe01 0ede 7de8 d93f
000001a0: 26d4 f98b 1374 c73f 9ccf 8893 3699 e13f
000001b0: 2a1e cef0 f913 94bf 7869 9d43 b796 d2bf
000001c0: 94b8 755c 6c49 c83f 8063 841b 9867 ddbf
000001d0: af55 ffa9 9b8b d73f 4326 6885 2bf8 dabf

bias f8 [15]
0.37053453070150766 0.5561371713024102 -0.2535737763358966 0.07315191580861279 0.07632532765604504 0.12848861999660874 0.0529506667032629 -0.49595814733347016
0.18763790394454716 0.1521227617616916 0.1434582997693915 0.10956497774514438 0.11088063296945455 0.14123260643139665 0.3052186122890951
00000000: 2eb5 d976 d6b6 d73f 81ae 5a2e e0cb e13f
00000010: e618 1f81 8d3a d0bf 27a9 097e 15ba b23f
00000020: 77a2 2382 0e8a b33f e394 65aa 5072 c03f
00000030: 4475 958b 591c ab3f 27d9 be3d c7bd dfbf
00000040: dc45 77d2 8404 c83f 6830 5f37 c278 c33f
00000050: e4b5 ec70 d75c c23f 0fce 334c 730c bc3f
00000060: 0414 5d54 ac62 bc3f 4f37 e0f8 e813 c23f
00000070: f260 7aa5 b388 d33f

weight f8 [15, 15]
0.022260620564157497 0.07419954020219022 0.029776567297227136 -0.15381171924386042 -0.2983348169207936 0.07978985215863825 -0.18492944178240112 0.053617390473166195
0.024700578717465206 0.012087413869153529 -0.15788184877944705 0.03322204929246588 -0.08789279918388775 0.12901966496161993 -0.11589687503201117 0.13570095273663474
0.09850060116655948 -0.11835607948933904 0.009963986848146538 0.23589765165371562 -0.10765056024388284 -0.17764350817172536 -0.05317191454038295 0.13844725106488973
-0.03796411395911334 0.1384845495429485 -0.1248989527083747 0.07147237451897083 -0.23332132056267413 0.03316818959653312 -0.2544198277174019 -0.05450739081543111
-0.2083791625399052 -0.13525401745951754 0.16729953626731983 -0.2543403917816979 0.09777174600333566 -0.1538316192685488 -0.26540419119312536 -0.12464226189943849
-0.04615186150870639 -0.16174553308012343 0.05414795565017501 -0.15290241427486043 -0.18764486633204422 0.10990000886139702 0.05271544674982719 -0.012074410169222834
0.05170319315342169 0.041401766646853716 -0.25149062085566914 -0.33048409521020017 -0.07206685419631502 0.05468028768411613 0.18637797761921218 -0.1998948710341704
-0.06915076412005647 -0.012847314089571682 0.19092066266431143 0.053247129428548076 0.21339182901798925 -0.09539093378665675 -0.25346333932025883 -0.07899170542287517
-0.1618106446706719 -0.15755526886966695 -0.042262438177750036 -0.21969546251773703 0.059829897600097826 -0.10688334734797465 -0.018175029319834272 0.13932219609129648
-0.13392834743089865 -0.009596924095077545 -0.1698952497395861 -0.10815011096186207 -0.1436926018941369 -0.21219192465020564 0.056443929931864395 0.1832792749527182
-0.1899422664798376 -0.2683793282235001 0.07103224724317754 0.0787801175450665 -0.04493321990076077 -0.08318640556026302 0.09443974285140191 0.14763676869062045
-0.09857609765256971 0.18769041603050474 -0.23423198449279017 -0.20630094342853592 -0.20132119068009208 0.10497579441567276 0.1924817872765535 0.011396834746378124
-0.27623590175887974 -0.13633758653260641 0.19459748599591942 0.14432039086789822 0.07011447288311433 0.05359600485202089 -0.06051633594286222 -0.11171289346441692
-0.1422081757089872 -0.05928911437604292 -0.12878564636002435 0.016206962394131896 -0.07641676289035776 0.10608782624480154 -0.3638003575375081 0.07291792086055762
0.2041522561023533 0.2016969376144086 -0.03329005642452637 -0.0955038404249719 0.06324844814443233 0.18944651183185982 0.05783614768926783 -0.21514196004291125
-0.12041040676116777 -0.16710404543311252 -0.1238606844597557 -0.13147485436583817 -0.35776664818661347 -0.15855272058114755 -0.17007150817092045 0.23040810947009283
0.16625194489283882 0.38162069484089967 0.23427730713035877 0.16627970250057725 -0.08342948965372166 0.2099075430900859 -0.23351144289851575 -0.18453263576186518
0.39826607886121146 0.03714383672624249 -0.13460761525155654 0.5860435512061176 0.4568094744622484 0.43407065241844 -0.013080561101847504 -0.05262740108936959
0.0044077960023486676 0.12219415999212287 0.6754562568115395 -0.10750925141429347 0.15908920305270732 0.11972284698597915 -0.15988981340472508 -0.05883783057280107
-0.16113534116999448 0.1423502390807619 -0.26956280668189814 -0.12547558510670787 -0.06716891967554833 0.193742037342305 0.14993406951914295 0.1507661388963379
0.21746569724227097 0.171690006201273 0.1658109367211177 0.28690220012693674 -0.2046144923455565 0.10033153445482769 -0.12653438742135978 0.05769050687532973
-0.09347213292676401 0.16448488177226547 -0.1369817507043137 -0.2075956163679752 0.05126370178919771 0.06820671185286512 0.2603966842265747 0.24277347212833475
-0.23182844356030657 -0.22019868085209363 -0.20335608972699196 0.1998617137480647 -0.1724507795228403 -0.16594624026127627 0.0034082308261403765 0.09092684361376899
0.11071728363648405 0.044122995393954645 0.1807765985439216 0.10212343859557003 -0.17082753488322905 -0.2747082828718668 -0.20867609459163236 0.0738193297332101
0.11242142573488724 -0.10521606002728712 0.04220921665632808 0.08513241373590384 0.18900519964142917 -0.05203178294153293 0.06326230255483768 0.44514069857141564
0.4812979416063177 0.41296692546684544 -0.06199224539294357 -0.15682200761667955 0.14141336755345443 0.06601313113358376 0.6852278682927371 0.27895119732602636
0.018467752071463915 -0.046757555327640594 0.246782153533778 -0.20370957326357295 -0.1335395256076125 0.10211275245650346 -0.029469677172247664 -0.13180948534117476
0.10214643740373555 -0.01026639112834624 0.10445115280458353 0.1494895884230729 0.1732088795494883 -0.16930630331410038 0.17482568295784456 0.03661453200804979
0.04266256112044344
00000000: ed33 3ff5 7ccb 963f e0f0 8bb6 bdfe b23f
00000010: 2839 ea9a bf7d 9e3f c96b f237 1ab0 c3bf
00000020: 8db5 7bea ea17 d3bf 63f3 9295 1b6d b43f
00000030: fcef 4298 c4ab c7bf 3581 2815 bd73 ab3f
00000040: fa98 22c7 1b4b 993f 6600 173a 49c1 883f
00000050: 16e3 91f0 7835 c4bf 333a 6ffe 7a02 a13f
00000060: 2b77 0c7a 2480 b6bf 4e88 c664 b783 c03f
00000070: 2799 f8e7 6aab bdbf 0c1b 0519 a65e c13f
00000080: f28e a5dc 5537 b93f 4282 b082 954c bebf
00000090: a35a 34ad ff67 843f 0628 87ed e431 ce3f
000000a0: febf a4b3 fc8e bbbf d0dd f8c0 05bd c6bf
000000b0: 9086 0864 5939 abbf 17bc c5b7 a3b8 c13f
000000c0: 3c84 c047 0870 a3bf 8fe5 a499 dcb9 c13f
000000d0: 18e7 2fb5 60f9 bfbf 995e 2077 034c b23f
000000e0: 1a5b a318 79dd cdbf 9155 2bc3 6bfb a03f
000000f0: 3403 e019 6a48 d0bf 3198 e289 64e8 abbf
00000100: e96c 231c 2bac cabf 2e14 d2ee 0050 c1bf
00000110: b3b9 733a 126a c53f 2345 30ec 1c47 d0bf
00000120: 14a1 8eb3 9107 b93f a3b0 ec26 c1b0 c3bf
00000130: dd54 59dc 61fc d0bf efbb 8e26 8ee8 bfbf
00000140: 1ba9 a87f 37a1 a7bf 3136 6ddf 13b4 c4bf
00000150: 4a55 53e5 47b9 ab3f b51d 656a 4e92 c3bf
00000160: 2747 143a bf04 c8bf 9dca e32f 6822 bc3f
00000170: dfae 91df 84fd aa3f 3ec7 5ce6 77ba 88bf
00000180: d6ab 6247 d778 aa3f 545e 7dc3 9c32 a53f
00000190: 79da f41d 6c18 d0bf 54a9 31c3 a626 d5bf
000001a0: 0316 e62d f972 b2bf 1ea5 adfe 0dff ab3f
000001b0: 75d9 48cb 3bdb c73f 596d ddb6 2796 c9bf
000001c0: f698 634e ddb3 b1bf 6065 d94e b14f 8abf
000001d0: 090e 2399 1670 c83f b6c3 002f 3543 ab3f
000001e0: 68d5 6e67 6c50 cb3f f0d6 f24c 8a6b b8bf
000001f0: bd63 474c be38 d0bf ca4e 72e7 cc38 b4bf
00000200: ceaa 8011 36b6 c4bf 53c9 8d63 c52a c4bf
00000210: 7633 a51b 6ca3 a5bf 6af0 4b1d fb1e ccbf
00000220: f0e8 073b 06a2 ae3f 1fb8 5801 b55c bbbf
00000230: 5e4f 2192 799c 92bf 90d5 e849 4fd5 c13f
00000240: 6c8c 1c68 9024 c1bf 155f 0b59 8da7 83bf
00000250: 8b4a b0a6 20bf c5bf fdd4 a3c5 b9af bbbf
00000260: e0fe e7e8 8464 c2bf f488 6ce0 1a29 cbbf
00000270: dcea 3a02 38e6 ac3f 236f fafd b175 c73f
00000280: c15a 5437 0750 c8bf cc1c 697d 202d d1bf
00000290: f5ee de5a 2b2f b23f 565c 6e0c ef2a b43f
000002a0: d89a f4ab 7c01 a7bf 3866 5a4b b44b b5bf
000002b0: b24a fdf6 332d b83f 734e 9bfa c2e5 c23f
000002c0: 69c8 957b 483c b9bf d4d3 4f53 3d06 c83f
000002d0: 6d6f 894c 50fb cdbf c16a 94be 1168 cabf
000002e0: 3a3c fb8c e4c4 c9bf 1a0e e393 b1df ba3f
000002f0: abd6 b642 3ea3 c83f d2df 1b44 3957 873f
00000300: ef44 0259 d9ad d1bf 38c2 af91 8273 c1bf
00000310: d03e 1e07 92e8 c83f 3637 762f 1779 c23f
00000320: 875e 02a8 05f3 b13f 9245 1280 ef70 ab3f
00000330: c226 7f47 fffb aebf bfa0 f857 3799 bcbf
00000340: 066c f2a3 e033 c2bf 3400 828e 245b aebf
00000350: 51bf a74d 0c7c c0bf 031b cdd5 8e98 903f
00000360: 2cf3 7a89 0c90 b3bf a2a3 3960 9228 bb3f
00000370: 9b63 794b 8148 d7bf ea6e 63b5 bfaa b23f
00000380: e39e ae3f a921 ca3f 26ed 608b 34d1 c93f
00000390: f82b 40ef 640b a1bf 2c85 448f f072 b8bf
000003a0: 3997 4de0 0c31 b03f e15d 5486 c83f c83f
000003b0: 723d b415 b39c ad3f aad9 3091 c589 cbbf
000003c0: 5024 2367 37d3 bebf e00e 1555 aa63 c5bf
000003d0: a6cb 0375 55b5 bfbf 98b2 df03 2bd4 c0bf
000003e0: 1fe8 6315 a6e5 d6bf d43e cb9e 744b c4bf
000003f0: fda9 c936 e7c4 c5bf 5420 744f 037e cd3f
00000400: 8906 1b65 be47 c53f a661 f434 796c d83f
00000410: 78f0 287e ccfc cd3f 6542 1d3e a748 c53f
00000420: 38af 9591 a25b b5bf 7ab8 6018 40de ca3f
00000430: b3d5 3ef5 b3e3 cdbf 7c29 d2f1 c39e c7bf
00000440: f229 f401 317d d93f 076f f957 8404 a33f
00000450: 6924 a684 d23a c1bf 83c8 ce67 dec0 e23f
00000460: 185f 54ce 5d3c dd3f ea98 1246 d0c7 db3f
00000470: b686 2a31 fbc9 8abf 51c9 1a8d faf1 aabf
00000480: 9f26 d7ba e80d 723f f5a8 edd0 1d48 bf3f
00000490: df4a 9c70 569d e53f 5182 d7ee b985 bbbf
000004a0: cf08 21f6 085d c43f ea87 6310 28a6 be3f
000004b0: 10b7 c4f7 4477 c4bf 69d1 27fc fd1f aebf
000004c0: e707 4736 15a0 c4bf e2fe b65a 8838 c23f
000004d0: 96ab ba5b 8440 d1bf 4469 3d7f 950f c0bf
000004e0: e46a 5079 fb31 b1bf 2c70 1f01 8acc c83f
000004f0: 5209 9222 0a31 c33f 1eb5 f309 4e4c c33f
00000500: 6525 d47c ead5 cb3f da9d d728 f0f9 c53f
00000510: 55a6 44f3 4a39 c53f 5f85 ac0b 9b5c d23f
00000520: 1cb6 74c4 ce30 cabf 01b1 3dd3 53af b93f
00000530: 2fa6 e55f 4732 c0bf c06e a330 9c89 ad3f
00000540: 3e00 022a caed b7bf b7fb f231 d70d c53f
00000550: cb40 b635 9e88 c1bf 0cf5 8b3f 7e92 cabf
00000560: e120 5065 3c3f aa3f a297 c6bc fe75 b13f
00000570: ca5b afda 56aa d03f 0f54 907d 3313 cf3f
00000580: 76e2 afef 8dac cdbf 1de8 706a 782f ccbf
00000590: 91f1 6885 9207 cabf 279e 2292 1195 c93f
000005a0: f932 1cfd dd12 c6bf d57d 68f5 b93d c5bf
000005b0: e08c effd 93eb 6b3f 164f a64b fb46 b73f
000005c0: 7116 52c8 f757 bc3f 88eb 6f0c 4a97 a63f
000005d0: f96a 5005 b023 c73f 2f4c ecfc c224 ba3f
000005e0: d635 ca39 addd c5bf c1ff b70c d294 d1bf
000005f0: 2f31 ddf4 e5b5 cabf 8d4b 04d7 d2e5 b23f
00000600: 21aa e68a a6c7 bc3f a0c7 d490 70ef babf
00000610: f6e5 414a 729c a53f 7743 d3e4 3ccb b53f
00000620: 15f0 9d87 5231 c83f c743 2cec e8a3 aabf
00000630: 69ed 8a50 f531 b03f 97e6 9e69 2f7d dc3f
00000640: 3d33 b5e1 95cd de3f e26c cdd3 0c6e da3f
00000650: 20f8 2295 72bd afbf 99db 0059 be12 c4bf
00000660: 03fe 6d4e d519 c23f f846 538f 3ce6 b03f
00000670: d400 94fe 62ed e53f 3880 6c1f 56da d13f
00000680: e6d5 b5dc 35e9 923f b13d f235 9bf0 a7bf
00000690: d9fe 54bf 8e96 cf3f ef4a 86c1 2713 cabf
000006a0: 64a1 9abb d217 c1bf 4b23 4eb4 0f24 ba3f
000006b0: d9c3 b68e 4c2d 9ebf 5ce5 6b1a 22df c0bf
000006c0: f24c 0dd8 4426 ba3f f24d 27b1 8b06 85bf
000006d0: 523f 538d 4fbd ba3f ff4e af8e 7922 c33f
000006e0: 855b 8564 b52b c63f d5cf de35 d4ab c5bf
000006f0: ea03 671f b060 c63f c4da 10d3 23bf a23f
00000700: 8343 8d01 ded7 a53f

bias f8 [15]
-0.2204377296831302 0.19294958554287867 -0.031303228784486936 0.18857063600089122 0.1444575297151954 -0.12899796530960686 0.14337304454369823 0.21430333331539986
0.19361109740862542 0.13338558055859584 -0.26310296964145424 0.08879991367970422 -0.1565148691418045 0.23937515781287044 -0.23764431996319177
00000000: 7a92 e5b3 4d37 ccbf 407a d76f 92b2 c83f
00000010: 98f3 c60f fa06 a0bf 390c 4e25 1523 c83f
00000020: c3d3 e496 957d c23f cdad 205d 0183 c0bf
00000030: a7b8 b844 0c5a c23f 10b8 01a8 4a6e cb3f
00000040: b2a0 c199 3fc8 c83f 0cea 2059 c712 c13f
00000050: 31cb 85d6 add6 d0bf 0257 2455 97bb b63f
00000060: 66a0 26e2 ad08 c4bf a8fb 235d d8a3 ce3f
00000070: 8b39 290b 216b cebf

weight f8 [1, 15]
0.08346967342354115 -0.005022533076312696 0.19609713453787503 0.1795757419883164 0.029146353830933485 0.11776683550293861 0.03157714676625828 0.06237391468893943
0.45513905539646815 -0.5295802120882006 0.05693311738829104 -0.24964967200388216 0.1560852011115032 -0.3104543000255623 -0.17869259831720474
00000000: 4fd9 8fbd 445e b53f d9b9 e4f4 8192 74bf
00000010: 60f9 d6fd b519 c93f 1154 7f81 56fc c63f
00000020: 2b8a 01b2 8ad8 9d3f 4ddd 09a3 f725 be3f
00000030: 08fb 5239 e12a a03f 57cb 6c47 79ef af3f
00000040: b6d9 838f ff20 dd3f d1e1 7033 52f2 e0bf
00000050: 87ec 7b6a 5626 ad3f d25d 5b3c 85f4 cfbf
00000060: 36ed 1491 99fa c33f 8aca 60b6 7bde d3bf
00000070: e8a2 e728 66df c6bf

bias f8 [1]
0.08498315087680787
00000000: a917 baad 74c1 b53f
