k-ICBC ex5/NN_Train_Result/First_Train/k_ICBC_model.pth (torch, 5783 bytes, 6 tensors)

weight f8 [15, 4]
00000000: 836f cb3d 2d6f b93f ec5a 9840 11bd ab3f
00000010: 55e1 3baa 0ce3 a33f 72b6 f39e 48df c6bf
00000020: fe58 0c1f 194c d73f c287 0285 eb7e dfbf
00000030: 33c8 89a7 c500 ad3f fa14 fadb 2f0a d2bf
00000040: 0f98 b10b 3ca9 d43f 9f4d c4af 703e 833f
00000050: fb3a d36e ea51 c23f 5bce 5292 67a7 ba3f
00000060: 9d57 530b 6a48 a2bf 6049 f63d 248b d93f
00000070: f993 86e3 d13b d8bf 857d aeac c4cd c1bf
00000080: f440 c21e 632d d33f be5a ded3 9c38 bb3f
00000090: 878f e308 b363 d5bf 6d04 b24d a7e5 bb3f
000000a0: 2c53 a85a 019c dbbf 2fd8 2af5 2f1d dcbf
000000b0: bf17 fd27 86fa ccbf 9ee6 11f9 eac8 dfbf
000000c0: bc4d 9bb8 6640 cebf 3845 4af2 8e47 de3f
000000d0: f452 cba5 d53a dbbf 7e2e 018f b6db d23f
000000e0: df28 7b6d a735 aabf d896 bb43 4e1f dd3f
000000f0: f169 95dd 72ae cc3f 48f4 b1ff 739e cabf
00000100: c56e 2d9d 6558 c03f b5d1 ddf7 3677 dbbf
00000110: 3879 3aee c47e c3bf 1ded 0038 c34c c13f
00000120: 6192 13ef ebb8 9b3f f381 abbb 8322 c13f
00000130: 8d61 e0b8 b932 bd3f 7e3c 016a 6e6d d6bf
00000140: 75d4 8d2b fbd0 df3f 85b4 d86b 665e d8bf
00000150: ed74 da46 c1d7 d3bf 9304 f65c 590b bc3f
00000160: b375 5590 3809 be3f c056 96a8 457d d4bf
00000170: 8b11 c98a 064c a63f 918d 6396 5c62 c03f
00000180: 3a04 e2a5 f454 91bf d00d 56fb 4198 aa3f
00000190: c658 bea6 79c1 c8bf d887 9f40 66e9 debf
000001a0: 9694 ca1f 3d05 d23f cc71 25e9 2b29 de3f
000001b0: 9739 2139 3888 a4bf 33e6 4dea 7b13 c93f
000001c0: 6961 1433 ca94 cbbf 66a3 ca89 1cc8 bebf
000001d0: 0c66 39a9 d625 dbbf 27ed 8308 b6f5 b63f
0.09935267218264525 0.054176844725750545 0.03884162500429748 -0.17868907700851683 0.36401966125539775 -0.4921215819286965 0.05664651556152513 -0.2818717621051544
0.32282925741162755 0.009396438945748651 0.14312487040884733 0.10411689112043503 -0.0357087267708913 0.3991175274942602 -0.37865111560159864 -0.1390920489475144
0.2996452141169492 0.10633258984158098 -0.3342101656728506 0.10897298476085533 -0.4313968072249732 -0.4392814535343658 -0.22639538719721305 -0.49663805316195375
-0.23634037031170674 0.47311757718223957 -0.425465976627762 0.2946602245835733 -0.0511905976432716 0.4550357495739781 0.22407375163568546 -0.20796060547937345
0.12769766020470832 -0.42915128904067085 -0.15230619079825103 0.13515510782767928 0.027072607485836623 0.1338658014638124 0.11405525935732026 -0.3504291567996417
0.4971301961261994 -0.3807617238224526 -0.3100436393668378 0.10954817313724367 0.11732820056700781 -0.32014600242233016 0.04354877895505912 0.1280017599411676
-0.016925642609298054 0.05194288437908379 -0.1934043945481731 -0.4829955702863322 0.28156974892255826 0.4712629105395336 -0.04010177323708602 0.19590710583342882
-0.21547820562478684 -0.12024095882465033 -0.4241844799595078 0.08968675334829311

bias f8 [15]
00000000: a769 2d8a e07e 963f e342 157f ac18 933f
00000010: 213c 50db 14cc d73f 287b 14a4 6d78 ba3f
00000020: fed4 7664 fd4a d83f 0101 1c93 16e5 7a3f
00000030: 386b 0990 33a9 dabf 10ac 5cbf 6549 b5bf
00000040: 8e18 ea66 e943 c33f 4667 5c18 3d63 b33f
00000050: 696a 2d5e ca86 babf 5e73 7dcc 7926 a43f
00000060: 2f50 2380 09dd 983f b587 a6f6 6e1b dbbf
00000070: 30da 033f 69a5 9a3f
0.02196837275855903 0.018648810631307532 0.37183114449811866 0.10340008979663351 0.37957701502757846 0.006566131765566975 -0.4165772348985004 -0.08315120622562255
0.15051000142210963 0.07573301167249466 -0.10361923980000544 0.039356046878970416 0.024280689664763763 -0.4235494049736375 0.026021618338712027

weight f8 [15, 15]
00000000: 6ada 8873 1dba ccbf 3df4 d360 2564 90bf
00000010: 3941 4f27 999b 9ebf 9252 69fe 72ba bbbf
00000020: 37fd b4b9 3e0e 983f e03a 14d8 9c24 b63f
00000030: 3725 41ee c3ad c93f e7cb fff7 f8ea b73f
00000040: 7219 e83f c38d b1bf 9714 af9d 9dd6 c83f
00000050: 7ad6 ac76 f7c8 c5bf c7d9 52ab 5b51 ccbf
00000060: 7757 f7a2 39d2 c5bf f219 aec5 4ef5 cebf
00000070: 16ef 0976 2138 a4bf 4f11 2c79 ac78 c6bf
00000080: dccb a724 57bf c23f 11d9 63bb 0dce a13f
00000090: aa24 1660 b0b9 ab3f a689 7df0 02f8 b5bf
000000a0: 725d cecd c60b cebf 90e1 cdec aaab b33f
000000b0: b4c8 0b50 e0d9 c93f 1cb9 ab1f 4d8a d0bf
000000c0: c037 8386 030e d3bf e9fc b0cd 2982 aabf
000000d0: db9d 49ea 8235 be3f a8e9 6dfb 7694 c1bf
000000e0: 92f3 5f39 8a8d ab3f 8ee6 44cf 1ffb c93f
000000f0: 3578 1a31 abb3 b2bf eb1f 7693 b78b c2bf
00000100: c836 eab3 d1b0 c0bf 0da8 f62e 301f cb3f
00000110: 90bb bf93 1881 c3bf 7888 5e23 e3d9 c6bf
00000120: ef62 3577 b62b c4bf 148a d4fe 2900 d13f
00000130: d89f f20b d19a c2bf 8f9a 5b7f 71de c4bf
00000140: 4e13 2f1d a3e0 c03f c0a1 7f07 d188 d43f
00000150: 9ccb b997 b81c ca3f 3fae 6b0c eb1e c3bf
00000160: 3a10 814a c198 8f3f c2e3 6bb3 90d0 d23f
00000170: 2999 371b 3548 bebf de4d 5039 467b b8bf
00000180: a1b6 d916 6e85 b03f 7448 55ab f53a c03f
00000190: b382 bf8c 08c7 cdbf 0c67 5aa2 df77 c03f
000001a0: b866 0d61 f8ee d03f f03c d154 7f59 cd3f
000001b0: 97d4 939a 8f60 8bbf 518d 4d59 175d bbbf
000001c0: 0e65 26c6 723d a9bf 6543 2cd7 b182 c13f
000001d0: dee5 cf99 27f6 c43f fe81 01a4 434c a43f
000001e0: 3057 1a06 4336 bc3f a395 50e5 d9c0 a03f
000001f0: ceaf ba97 4617 ce3f fa40 69be edfd d03f
00000200: 8046 582c 6156 c73f cfb6 d308 029b d03f
00000210: df51 2992 2601 c1bf 95f3 c4cf 9d7c ccbf
00000220: d3d4 41f1 b2d0 b73f 1060 2c82 f312 b13f
00000230: 7f46 2e83 da68 d13f c1e4 2f7c 5cb1 c63f
00000240: 5b1e ecf1 a25f a83f 21cb d86f 6ba7 cabf
00000250: e697 7d12 ee98 c23f 8c33 877b ee07 c63f
00000260: b27e 25d0 7646 c7bf d0c2 d8ef b1f2 c7bf
00000270: c010 f2b0 5d3d 7ebf 264f 2103 9a2f c2bf
00000280: 33e6 000e ba4b cb3f 1e89 e2fb 46e5 c63f
00000290: 02ed d3b2 c986 d0bf 115b 9871 4bd1 ccbf
000002a0: 1ab7 84be d293 9e3f 34b2 fee5 fccd c23f
000002b0: 7c03 49c9 7cff bb3f e157 997c 20f0 cfbf
000002c0: e236 84c7 481f c43f 9149 199d 4d4a b93f
000002d0: b439 543c a6f1 a0bf 821b bf40 6e32 adbf
000002e0: b12a 7a65 f1d3 b93f 3124 c65d b384 ccbf
000002f0: 9b5c a2d3 6590 c8bf f4e4 9424 82ce a1bf
00000300: 3bf1 0e92 cebb babf df3b 9f90 7c19 9d3f
00000310: ee4f d735 a1f0 c1bf de0f 62d1 f93b d13f
00000320: e690 d8d4 e072 cabf 4dca b639 d7a6 b93f
00000330: 6f6b 12f5 992c d03f 4bdb a918 3f4e c83f
00000340: 954e 1a3d cfac cfbf 1c90 aa3f 122a b5bf
00000350: 1b42 9dad 71df c0bf 4bdb bd8e 8611 cbbf
00000360: 1255 7d5e 1db1 b3bf 1459 cef9 05df c63f
00000370: b828 2e8d 9809 a4bf c809 f290 8cc6 b9bf
00000380: 39e0 d681 dbb2 c93f a458 10a2 fa19 b83f
00000390: 38db 412a 093e a63f 889c f003 b4de aa3f
000003a0: 54ad dc24 d27b b83f d227 2779 83c3 cdbf
000003b0: 3d57 dbe7 0059 c9bf 60e0 be09 ace6 bd3f
000003c0: beb4 8fbf 74b0 8b3f 9b8d 768f 9e8a c3bf
000003d0: 21cf 3e9f 2864 cb3f 7f66 660e 7695 cdbf
000003e0: 2aaa 1c16 6252 cf3f 20c8 c130 04c6 bbbf
000003f0: 081d def1 92a2 d1bf 9d7c b985 1e94 c33f
00000400: c0eb f047 27dd d1bf 8873 0bdd 826c c9bf
00000410: c6f4 f8d3 1d6e bebf 3346 ec86 e28a c43f
00000420: b485 00ab d9e0 ca3f 37fc 4e3c d430 d03f
00000430: c8c4 cc68 9219 c13f bdb9 e656 5ba8 cebf
00000440: bb81 41d0 ed58 ca3f a78c dd2f 5130 c3bf
00000450: e47e a9e9 a787 d33f fb83 6de9 e316 b4bf
00000460: 6e23 2716 41c1 bebf 7558 d751 c68a bb3f
00000470: bfec 1a5f 2132 b33f f274 7124 1e5e d03f
00000480: eeb7 ee69 4072 9a3f 3c08 488f 8dc5 87bf
00000490: 2675 bf4d 56a2 cbbf 5958 0cc6 c44f b33f
000004a0: 7447 15d0 235a cb3f a2e4 4baa 9954 babf
000004b0: ed86 74fd ec8e c03f 7f9d fba2 f78c d0bf
000004c0: 2976 be79 5c59 ca3f 40c3 b1f5 a881 c2bf
000004d0: eeb5 6529 d2b1 c33f b51d 1d82 2b82 b6bf
000004e0: 5b78 c096 9101 c2bf 2f12 d9a3 f4f7 af3f
000004f0: e17a fe38 652f 9fbf 0a63 8752 179c b8bf
00000500: b404 cf2a 1778 b83f bc2f 09f2 1619 ccbf
00000510: a081 99d4 4c04 d2bf 14a8 10ea c673 c73f
00000520: 1b00 5ff2 b294 a93f fa0a 3f0e a20c d4bf
00000530: c793 e370 7c07 c03f 97c5 22ae 84ba ce3f
00000540: a286 54c3 7d1b ab3f 67e9 c7ab e455 c0bf
00000550: 3c99 d0e5 f7f3 c83f 3f8a dbfe 7c1e c53f
00000560: 66a1 6617 9acd cbbf 4b72 3687 bf2a c1bf
00000570: d3e5 1a6e 086a c2bf 2f88 cbb9 68fe d3bf
00000580: fbf4 1a0f cbf9 babf 6b58 4565 4650 c83f
00000590: 2abf 4392 ec40 b53f 0089 bc2e 0125 c03f
000005a0: 6d62 5313 3614 d13f 178a 3f9c 4202 d03f
000005b0: e5c7 c4d6 eefc ac3f ebd7 b026 88e7 a83f
000005c0: b36f 7a9a 2d85 bbbf e7da 413d 3be9 c4bf
000005d0: 03fd 3a0b 3a5c c93f fe6d f8e1 ffb9 a73f
000005e0: 7134 acd6 3d38 d13f 6937 bf79 610d c53f
000005f0: bce0 80fd b831 c13f aa49 5561 f657 c4bf
00000600: 6035 2d01 3536 afbf 4648 161f 9564 c9bf
00000610: 85c1 c164 769e cc3f 9c30 e842 f4fa c83f
00000620: daa6 b78e a66e bbbf 341f 907e c6b3 ccbf
00000630: 3030 0580 7df1 cd3f 6963 3f39 03a0 c0bf
00000640: 68b7 de15 867a b03f 0080 bc0d d63c bc3f
00000650: 7e6f b300 836e ca3f b83e 0ca5 05ef c1bf
00000660: bb19 f934 96b4 d0bf 685c b48c 69c3 cd3f
00000670: e299 6b02 d938 c5bf 2ce3 9d34 dfb4 893f
00000680: 9883 edf7 9379 b4bf a0e3 2ce4 a1fb 9b3f
00000690: 384e 30a4 a40c a53f 4a06 c103 1b36 c93f
000006a0: 8ec7 2fe5 1736 b6bf dcbf a5ad 1c23 bc3f
000006b0: 8031 297a 5101 7d3f 603d 9b5c 1e23 883f
000006c0: 915b ebcc 2e48 c1bf 3026 8a65 2b3d c03f
000006d0: d0b4 a4c4 551f 943f 8a47 d3da 8ed7 ccbf
000006e0: b02a da46 4d32 d03f 804f 695c dd34 6bbf
000006f0: ded6 f68f 2968 c13f 3d06 622a b098 c1bf
00000700: f04c f93a b20d b33f
-0.2244297804006295 -0.016007026705654893 -0.02989043524195376 -0.10831373892990317 0.0234918404432822 0.08649616504065305 0.20061539777297252 0.09342914633434383
-0.06856937704296742 0.19404955100450103 -0.17019551558194107 -0.22123285165225878 -0.1704780622227948 -0.24186119701717207 -0.0394907433119142 -0.17555766979797702
0.146464245699092 0.0347751895186993 0.05415106938296195 -0.08581560489031989 -0.23473439263464574 0.07683819085457899 0.20196155460832232 -0.25844123928881557
-0.2977303327178298 -0.05177431712990616 0.11800401897345784 -0.13734328533958018 0.05381423902870276 0.20297620411456702 -0.07305402706921955 -0.14488882732643957
-0.1303960922709193 0.21188928883685812 -0.15237719740204314 -0.17852439143195276 -0.15758400746087584 0.26563501249089083 -0.14534962733637147 -0.16303843229907897
0.13185538220400378 0.32085061771661216 0.2040014973495915 -0.14938104731059984 0.015428075872598968 0.29397981187463185 -0.11828929819566682 -0.09563101672420468
0.06453598077652113 0.12679930559039898 -0.23263651726212728 0.1286582510700146 0.26458558538216037 0.22929374352904786 -0.013367769150571624 -0.10688920908210277
-0.04929693859885208 0.13680098539819166 0.16376204500538355 0.039644349832773415 0.11020296954151543 0.032721337549712425 0.23508531960157913 0.2654985770686974
0.18232359566950507 0.2594609342767002 -0.13284761559283617 -0.22255299229609862 0.0930282439238284 0.06669542244014814 0.27202475367185025 0.1772876364118812
0.047604648620162414 -0.20823424302360485 0.14529205229626924 0.17211705238005626 -0.18183789409066758 -0.1870939656378341 -0.007382741910195445 -0.14207768586003872
0.21324849780812513 0.17887198733394255 -0.2582267996182993 -0.22513716742170023 0.02986077583152911 0.1469112513563161 0.10936717905225452 -0.24951559146819505
0.1572047208978154 0.09879002652568249 -0.033093638290768196 -0.05702538051951135 0.1008902428385834 -0.22279970244224637 -0.19190666993811054 -0.0347786588340088
-0.10442820611837515 0.028417536093737424 -0.14015593651731656 0.2692856354481118 -0.20663080590123356 0.10020203742059515 0.25272225315864366 0.18988789276382997
-0.24746122821362762 -0.08267320684768759 -0.131818971417048 -0.21147233934217477 -0.07692130619883056 0.17868113229332805 -0.039135710939335266 -0.10068586863238871
0.20077079620182461 0.09414640862118745 0.043442045601230495 0.05248034046263067 0.09563935661269812 -0.23252910056754544 -0.1980286724198609 0.1168010257523533
0.013520156951893344 -0.15266782765421003 0.2139941003384758 -0.2311236925423152 0.2447016342133151 -0.10849024000506846 -0.27554772968183316 0.1529577401115362
-0.2791231348562029 -0.19862399857711588 -0.1188677446852636 0.16048842990908127 0.20998688554486267 0.25298028840547054 0.13359289281064535 -0.23951284163690714
0.2058388964533274 -0.14991202199153017 0.3051547796112415 -0.0784742779628828 -0.12013632574884323 0.10758628366542829 0.07498367854980169 0.25574449118523923
0.02582646032868035 -0.011607271132565093 -0.21589163585932986 0.07543592295800873 0.21368835125263852 -0.10285339744213443 0.12936174751035115 -0.258603963053666
0.205852088399227 -0.14458190914913338 0.15386416455605406 -0.0879237358723149 -0.1406728731244041 0.06243862629029128 -0.030454236606256017 -0.09613176121582626
0.09558243556149898 -0.21951567476423672 -0.2815124584358504 0.18322073391874538 0.04996260841971908 -0.31327105895267915 0.1252284575668041 0.2400670862457843
0.0529441166820679 -0.12762125385036002 0.19494532319476743 0.16499292797296225 -0.21721197264310915 -0.13411707021886551 -0.14386086822723473 -0.31240289825484785
-0.10537404173642877 0.1899497980581971 0.08302191325105626 0.12612929136327722 0.26685859572675136 0.2501379514561974 0.05661722537696771 0.04864144775676479
-0.1075008871216017 -0.16336765757633673 0.19812703655586725 0.04634093888691025 0.26905771221283376 0.16447084850954788 0.1343299138841355 -0.15893440010638687
-0.060960441964747814 -0.19838203447267427 0.22358589095848572 0.19515851275389628 -0.10715714439688942 -0.22423630885918444 0.23393219710340096 -0.1298831967858647
0.06436956438002783 0.11030328593597005 0.20649755033707246 -0.14010687407470868 -0.2610221402468615 0.23252601023043273 -0.16579735391788036 0.012552017014728266
-0.07998013308453122 0.027327088882177386 0.04111208442932618 0.19696366961766137 -0.08676289887787744 0.10991076697769081 0.007081335325505811 0.011785733414767463
-0.13501534467533507 0.12686674554815758 0.019650783660087268 -0.22532830891446692 0.25307018202935705 -0.003321106286685749 0.13599128274443378 -0.1374721724460403
0.07442773761549737

bias f8 [15]
00000000: 702d d3eb a74a a53f 9329 a773 89dc c73f
00000010: 8501 4c45 5041 cc3f 790c 9515 c756 c03f
00000020: 53f7 e082 c16e aa3f 6725 c9b7 a270 98bf
00000030: 505e 4da4 27b6 d0bf 76fe b01d ae2b bbbf
00000040: 53b6 820e de5f c8bf 63a3 91d9 7c38 99bf
00000050: 2d8e 2344 2c77 b53f 8426 a327 7ad2 c43f
00000060: e978 2c0e 4a8a aebf 2194 bf12 6bad a83f
00000070: 27d7 9ce4 d4e8 cdbf
0.04158520463678428 0.18641775271528313 0.22074321159017188 0.12764824441737568 0.051626250482952905 -0.02386717077960068 -0.2611178497804518 -0.10613525605094218
-0.1904256411411774 -0.024629545955039755 0.08384968436762881 0.16267325339713434 -0.05964881346720736 0.0481980762849974 -0.23366795695044937

weight f8 [1, 15]
00000000: 7512 e1bc 196b c93f 4bb7 54ab 7f0e cf3f
00000010: e985 3b2b a0fa c4bf fbcf 60e4 983d cbbf
00000020: f07f ec3e 83da cebf 9997 b5b5 5dba 903f
00000030: 3834 bade 45c9 cbbf fcb8 514c 1cf4 b8bf
00000040: ec76 cda1 0fd7 cc3f 09c3 8d6e 9302 c7bf
00000050: 940d d32d 5fbd c43f 90ef 8843 dfa2 bc3f
00000060: 02a7 9dd6 c2c7 c1bf efde 8748 d0c2 b13f
00000070: a6d3 3ca5 f0ca ca3f
0.19858094904533954 0.24262996545570056 -0.16389848814928534 -0.212817298424511 -0.24104347774937152 0.016335930076273184 -0.21707986235961285 -0.0974748312307589
0.22531314278142334 -0.17976611040241888 0.1620291684867935 0.11186023138810541 -0.13890872458733133 0.06937886973161843 0.2093182379554978

bias f8 [1]
00000000: 2fc4 87dc 5200 cabf
-0.2031348778541839
