k-ICBC ex5/NN_Train_Result/First_Train/k_ICBC_model.pth (torch, 5783 bytes, 6 tensors)

weight f8 [15, 4]
-0.3038550888701071 0.44327188038224674 -0.20677582754357607 0.4450375379492788 0.03861518397094629 -0.17786544679902894 -0.2598095712965714 0.37181257120138933
0.18558327482591017 -0.29158402075682427 0.27364805237582934 -0.37477284101209574 0.31496261107347284 0.019790996009183822 0.42726162957278 0.22566349905750546
0.32988842624421866 -0.37225518754704223 0.49290693625436593 0.07696712485337369 0.282218612031294 -0.3084268223967083 0.2589740143135762 0.12010593989995816
0.2679539597821887 -0.25276650680797086 -0.08722929359584768 0.2103544017842691 0.06687300442741166 0.0638626606397262 0.3882991839900373 -0.3678988132955224
0.317407605461221 0.20321665718287707 0.012172128341665022 0.12854171981497622 -0.3509236368401319 0.39352672952801676 -0.1043790224253989 -0.15411892997067225
0.021488678533023022 -0.2819894094204708 0.37363153076392724 0.09557644760368442 0.550639728963559 0.11162227977199403 -0.45508234155363775 -0.3764981630597208
0.11186106658842433 0.1215518861837618 0.022415888997200397 -0.41748671248714175 0.42650115283816276 0.06865811568550827 0.37855354435126015 -0.054918870031282645
-0.40358574184870083 -0.15498865180455354 -0.04036234322124733 -0.3224159439558308
00000000: ede5 5a9d 5c72 d3bf 669a 5e05 915e dc3f
00000010: 5995 735c a177 cabf 3c02 bfb9 7e7b dc3f
00000020: 9c87 9190 5ec5 a33f 8c8d 8b82 4bc4 c6bf
00000030: fd04 fa52 b8a0 d0bf 0c4e 63f4 c6cb d73f
00000040: 2beb 0758 31c1 c73f a3f3 4b06 50a9 d2bf
00000050: bc5e e41e 7383 d13f 82dc e439 47fc d7bf
00000060: 4b7e 81f0 5828 d43f cf76 7542 1744 943f
00000070: cc72 7629 4158 db3f 3f2c 2da2 8ae2 cc3f
00000080: 9a0f 8358 e41c d53f 26fa 116c 07d3 d7bf
00000090: 9dc7 cb88 c98b df3f 83c5 1c14 1eb4 b33f
000000a0: 89cd 3fa7 de0f d23f c7cb d9da 43bd d3bf
000000b0: bd66 7fbe 0793 d03f 2cf8 ec4b 43bf be3f
000000c0: e848 865d 2826 d13f deeb 1092 532d d0bf
000000d0: 3352 3fb3 a854 b6bf 8fd5 1d9e e4ec ca3f
000000e0: 4b41 00d7 961e b13f 7617 e2a6 4d59 b03f
000000f0: 9f3e 13d2 e4d9 d83f c9da d576 a78b d7bf
00000100: 9149 3dfd 6750 d43f d82b 4de0 0003 ca3f
00000110: 398a 3369 b3ed 883f 0d72 6319 0e74 c03f
00000120: b5ca e769 8875 d6bf c92d 5bbc 8a2f d93f
00000130: 329e b467 95b8 babf 1993 f549 2bba c3bf
00000140: b765 22ce 2001 963f aadf d14e 1d0c d2bf
00000150: cbab 5839 94e9 d73f 4ec6 b9b4 b277 b83f
00000160: 76db 7835 d79e e13f 592c 2019 4793 bc3f
00000170: 3f70 7daf 1120 ddbf eb1d 56c0 8b18 d8bf
00000180: e165 b146 eda2 bc3f a926 ed3f 061e bf3f
00000190: 876e 9dd8 30f4 963f a465 2930 1ab8 dabf
000001a0: 735b c97d cb4b db3f f767 7909 9493 b13f
000001b0: cf81 31a5 383a d83f a76d 6f7d 531e acbf
000001c0: f9cf 974a 59d4 d9bf 5737 600b abd6 c3bf
000001d0: 3118 4080 5faa a4bf e9f3 bf7b 76a2 d4bf

bias f8 [15]
-0.009813161333300357 0.02572403498781698 0.42116528863520003 -0.0606637718258725 0.1355660511745555 0.44447303273108435 -0.02940892642753417 0.23670281497963644
-0.1341669313365865 0.3481557980935766 -0.5319787091728247 0.24812252429714374 -0.28262896067324583 0.32878891636372354 0.5436960618216663
00000000: 06a5 f937 ec18 84bf 8aaf f9c3 6657 9a3f
00000010: 6982 3941 5ff4 da3f 0698 1668 520f afbf
00000020: ce0c 1f76 3a5a c13f 272c e204 3f72 dc3f
00000030: 4eee dda4 5f1d 9ebf f1b5 9a20 474c ce3f
00000040: efcc 25cb 612c c1bf 5561 ae41 2f48 d63f
00000050: 3619 c236 f805 e1bf dbeb a097 7ac2 cf3f
00000060: b29e bfc7 9716 d2bf 3a72 c4aa e00a d53f
00000070: 1d9e 8f48 f565 e13f

weight f8 [15, 15]
-0.06582951427367748 0.5089884369497653 0.06888943401329042 -0.0874327438456548 0.31567183019218253 -0.14938797082678487 0.22644330699331644 0.24971272304814124
-0.04398793889157747 0.0854349440315358 0.0380082279111901 -0.021498963777498794 0.1552620340830386 -0.10698879038583332 0.2016993052669065 0.07386845655168492
0.27690361689242776 0.212562338348595 0.20505168934261495 -0.049994462529418 -0.04410540692222361 -0.2565225414659916 0.005002289017468143 0.21216984132325978
-0.24136472062838824 0.1167669860938975 0.1197386619370679 -0.06270890919782122 -0.06827304511852955 0.2366575707597043 0.22338512789551052 0.08251282139456365
-0.17209766886573125 0.047696619299727835 0.18751482008990825 -0.1581741767517279 -0.10267603154392355 0.030014056148419732 0.0796420996377336 0.1564074796312367
0.07009715210504176 0.1324589190256498 -0.1472183738563729 -0.19415582158489594 0.0013335577434154303 0.11852712756867848 0.31914302961106406 0.2576723545955954
0.056547870402038375 0.16990541511247054 0.09245514224667035 0.1261532598174436 0.06328397670105056 -0.16233181875611324 -0.10866347912459144 0.05391370492114646
0.2191984264494853 0.02710036089457944 0.1372655355260098 0.10175593011062299 0.22685075523381334 -0.01410683064758534 -0.2368237147382821 -0.12989835678220474
0.23127749224146826 -0.1634587240985646 -0.0012871909404730602 0.2004532212496105 0.17503592126716488 0.08659303234132507 -0.057455290501359 -0.14167904449073082
-0.1889973219751064 0.16476700848606024 -0.06314643135601437 0.12086986026181681 0.2982186661269157 0.17129341339477372 -0.08908566576080544 0.13526787622141273
-0.1945713906512004 -0.16776077115295468 -0.10606328156628131 0.08891930804191318 0.035495103638048954 0.13942786137465935 0.07156881539481445 0.25549337478366385
0.0024218763994819873 0.227018769191255 0.04819326763341305 0.4132932430516616 -0.14053543990905296 -0.05845858645492161 -0.005993589198574424 -0.07728435305412368
-0.19100715688988124 0.2642431281971768 0.16630413404393096 -0.045308762904901316 0.16399817957035862 -0.09218623992772228 0.057093176077346715 0.09609950797963558
0.19636838980384924 -0.0699352704627353 0.19210986697979235 -0.0646450418062656 0.1394917522325533 0.19168358177922842 0.22937028269622167 -0.10808127638402464
0.18996382342104182 0.14116554532920972 0.03821807769795338 0.21270595554137006 0.15244678401000192 -0.2191993768623319 -0.25767739405893475 -0.11333962286707466
0.21494143789165526 0.021391931254573934 0.1664406992749253 -0.0059989715966224655 0.18162841571202157 -0.0989488279739928 -0.10336200158213321 -0.06996120648385606
0.0009868649369813526 0.12772835255566048 -0.15851815954754647 0.14441470184125704 -0.21362021804565734 -0.022014862261756515 0.24749588651230317 0.17807903333888175
-0.07032240116235043 -0.15705308246082064 -0.08006768698627942 0.0940451106673111 0.19159772153650867 0.20866375584682265 0.1348087344938579 0.026215618185155852
0.23186713363568784 0.010571751070899771 0.20614904356950375 0.12022907551844236 0.10634357031691791 -0.10267900224893697 -0.1501282651424875 0.09339224426666592
-0.21497205152030424 -0.18596918851145713 -0.20804652025799567 -0.24650018550892547 0.09314380196077737 -0.22211043107534256 -0.17122844628604644 -0.20353753934586027
0.12544094141068107 -0.16041752730100362 -0.030555023750221455 0.050241008924070796 -0.1510782269193306 -0.1228037579648146 -0.062028929333703735 -0.04394058617402191
-0.21070903025490662 0.09511791274449259 0.03087430807038746 0.08255863291381894 0.17437804717983363 -0.17498980036829098 -0.22186724013223158 0.15945576699034997
-0.00789627438200032 0.21293679662630963 -0.28542472110277534 -0.185290963178487 0.049110781574082774 0.13297855966820873 0.14330179674143265 -0.25596920857904926
-0.21931363447095922 0.013989363744482073 -0.14693113894339416 0.028549913530121297 0.20991054847120488 -0.14431393687574812 0.23625063660435228 -0.15485062230534097
-0.022518242746017925 0.11109897278538734 -0.08200740902144549 0.2258296612458009 -0.1488675631221351 -0.008723508250362994 0.14036374029076937 0.06112371979148964
-0.24957484490488374 -0.11875896078454472 -0.19232197152966957 0.13317971010890134 0.057385660222619296 -0.014797201876959694 0.018041102997308583 0.07337239947499673
0.08212604001022396 0.1657358388863495 -0.05139228061376221 -0.1793102655231604 -0.2892027265059591 0.19935563343486218 -0.06279380184681811 0.18762915698711696
0.04099923847164107 0.04259695220089403 0.19676977621495723 -0.25409708882785986 -0.0960756109093689 -0.10178786808737947 0.1330993631458496 -0.0700475032171942
-0.0394670935693758
00000000: 2ac1 eafa 33da b0bf 8cb9 571e a249 e03f
00000010: 3285 20ea bca2 b13f 70a8 6a07 fe61 b6bf
00000020: af68 bc9e f733 d43f b7f4 8e20 251f c3bf
00000030: d699 f722 18fc cc3f 0685 7125 96f6 cf3f
00000040: 0e61 ea4d 9685 a6bf bd10 8d82 10df b53f
00000050: 1407 b77f d075 a33f d7fa 4909 d303 96bf
00000060: 2f3a 5957 a0df c33f b1e9 be0b 9e63 bbbf
00000070: 00a7 df67 48d1 c93f 9e71 180d 0be9 b23f
00000080: 219d acf2 c9b8 d13f aec4 c821 3e35 cb3f
00000090: 9ba8 db3d 223f ca3f 6403 17cb df98 a9bf
000000a0: cb8d 9de0 fb94 a6bf 9220 9285 dd6a d0bf
000000b0: 0e3d c3bb 477d 743f 1028 d7a0 6128 cb3f
000000c0: c9e8 c006 0ae5 cebf 4b99 86f2 70e4 bd3f
000000d0: 4d25 1665 31a7 be3f 5f27 2cea b00d b0bf
000000e0: ac7f fb9f 577a b1bf 19c2 6197 cb4a ce3f
000000f0: deab 5c45 e297 cc3f 52ed 636d 8f1f b53f
00000100: f281 bfe1 4b07 c6bf d64f 0bf8 b06b a83f
00000110: e396 e651 7c00 c83f e635 1c2a 0d3f c4bf
00000120: 7670 90f5 f948 babf 10a3 4f36 01bc 9e3f
00000130: cf2e 54b5 6c63 b43f 60d7 ee08 2905 c43f
00000140: f179 d50f e3f1 b13f b9ab a3f2 69f4 c03f
00000150: 9bad 8a3a 0dd8 c2bf 6f7f 0414 19da c8bf
00000160: 168b 4cb9 58d9 553f baa6 9838 cb57 be3f
00000170: 9d41 bbe2 d66c d43f c791 0430 b47d d03f
00000180: e405 12ac d7f3 ac3f 7e22 a9ec 75bf c53f
00000190: ede5 4be4 23ab b73f 2390 993e ca25 c03f
000001a0: e7b5 4af2 6033 b03f b42f 54fe 49c7 c4bf
000001b0: 3b15 1ca9 5ed1 bbbf c291 e2be 939a ab3f
000001c0: a9b4 77ac b10e cc3f 7b10 026f 32c0 9b3f
000001d0: abdf f9c4 ea91 c13f bfca ff37 ad0c ba3f
000001e0: 2bac 660f 7209 cd3f 04b2 40c2 0ae4 8cbf
000001f0: 7fec db4e 3d50 cebf c883 1765 82a0 c0bf
00000200: 1a2f bd38 809a cd3f 82e6 1f29 37ec c4bf
00000210: 9cf4 8dbf de16 55bf 0c8d d27e 73a8 c93f
00000220: badd bbba 9367 c63f 8eab f701 f62a b63f
00000230: 00fc 5ea3 c76a adbf 3ae0 4ef7 8922 c2bf
00000240: b713 7572 1031 c8bf 2225 74d8 1517 c53f
00000250: 2f7f 8851 5d2a b0bf 2287 e5c0 53f1 be3f
00000260: 2099 84be 0316 d33f 5a7f 464c f1ec c53f
00000270: ff2b fc74 51ce b6bf 0601 4930 7550 c13f
00000280: 4bc5 ca1f b7e7 c8bf ceab d358 2f79 c5bf
00000290: c834 a295 f626 bbbf 29e1 0570 6ac3 b63f
000002a0: 4d4c 960a 6a2c a23f 68b0 60ac c5d8 c13f
000002b0: a3c0 8879 5552 b23f ac97 42e2 005a d03f
000002c0: f488 c8fd 0ad7 633f 2597 a076 f30e cd3f
000002d0: b3ea beb8 c9ac a83f 7c23 a480 6573 da3f
000002e0: 3d4f 2bb7 10fd c1bf dc11 fda9 48ee adbf
000002f0: 9b1f 7fd9 bb8c 78bf 9427 dc48 e8c8 b3bf
00000300: f86d 122a ec72 c8bf cf2c 7302 5ce9 d03f
00000310: a442 7430 7449 c53f 772b cccd b532 a7bf
00000320: 56da ed70 e4fd c43f 937a a175 8499 b7bf
00000330: 1969 2718 513b ad3f 6d29 ef33 fa99 b83f
00000340: be7d 1672 9922 c93f d96f 7923 47e7 b1bf
00000350: 2364 f55d 0e97 c83f fe0d 68d4 938c b0bf
00000360: 4545 f3a0 ddda c13f b901 766d 1689 c83f
00000370: ca61 6d63 015c cd3f 4f1b 61eb 36ab bbbf
00000380: 751c 820c bc50 c83f 2e67 416c b611 c23f
00000390: f04a a8e3 5191 a33f 7c78 5be1 f239 cb3f
000003a0: d906 da4f 6083 c33f 97b1 76a5 b90e ccbf
000003b0: 4cb4 1953 c97d d0bf 6018 8e55 d303 bdbf
000003c0: 4a62 2677 3383 cb3f 9cf4 8b34 c4e7 953f
000003d0: 73f9 0dc8 ed4d c53f 20f3 12ad 6092 78bf
000003e0: 4ff3 c094 993f c73f 5536 20dc b554 b9bf
000003f0: bcc1 71a0 ee75 babf c83c d645 fae8 b1bf
00000400: e958 5028 362b 503f 7fcf 7f14 6759 c03f
00000410: d916 8ab3 524a c4bf 1422 bc52 2e7c c23f
00000420: 549f 2245 e857 cbbf dcc0 c265 108b 96bf
00000430: d980 3bf9 f1ad cf3f f09a 2534 4bcb c63f
00000440: ff21 2b1d a600 b2bf 1dde 73be 501a c4bf
00000450: 188b 12e1 507f b4bf 7530 aa22 5713 b83f
00000460: c463 fe2d 4686 c83f 357f 9c73 7eb5 ca3f
00000470: d5e1 eea0 6941 c13f c6a8 ff5a 44d8 9a3f
00000480: e6c3 fd7d d2ad cd3f ed42 e368 a4a6 853f
00000490: 0ac9 1d84 1763 ca3f 4449 612b 55c7 be3f
000004a0: 7aaa a60c 5539 bb3f ee24 a5cc 2b49 babf
000004b0: 6e00 7f2a 6737 c3bf b04b d3da 8de8 b73f
000004c0: cab7 6a45 3484 cbbf ff34 5c9f d6cd c7bf
000004d0: 2d00 47b4 44a1 cabf 9700 9c6d 518d cfbf
000004e0: c423 3faf 45d8 b73f e8d6 c856 1d6e ccbf
000004f0: 5ec3 7850 d0ea c5bf 20d8 7fa1 840d cabf
00000500: 1c1b 78e2 720e c03f 8243 bbc0 8f88 c4bf
00000510: 805c f1ee d049 9fbf 606d 7e84 30b9 a93f
00000520: e4ca e005 8856 c3bf 3ae7 482c 1170 bfbf
00000530: 5fce c97d 41c2 afbf c842 2b69 617f a6bf
00000540: 6056 f574 83f8 cabf 435a 80c4 a559 b83f
00000550: b7b7 cbbd 839d 9f3f c908 5e04 9022 b53f
00000560: ac8c e314 0552 c63f 8691 dbd6 1066 c6bf
00000570: b4fa 354e 2566 ccbf 46ea 30ec 0b69 c43f
00000580: ebf3 d801 ec2b 80bf 1900 d050 8341 cb3f
00000590: 4bce a60c 6644 d2bf d347 8c41 9db7 c7bf
000005a0: 20be 7b61 0c25 a93f d10c 6c02 7105 c13f
000005b0: f532 3b99 b657 c23f 3c52 e8ac cc61 d0bf
000005c0: 4951 cf1b 7812 ccbf e5f7 319e 74a6 8c3f
000005d0: 0451 43ba a3ce c2bf 8a78 a943 303c 9d3f
000005e0: b676 624e 59de ca3f 2482 9e0b e178 c2bf
000005f0: dbfb effa 753d ce3f 3889 482b 25d2 c3bf
00000600: 2d51 a1b0 050f 97bf b580 bb76 fb70 bc3f
00000610: 9cdc c603 70fe b4bf 923c c280 fce7 cc3f
00000620: 8bbb 85a1 170e c3bf 1d31 2275 a1dd 81bf
00000630: 70ea 0b65 70f7 c13f 6b54 07b3 9b4b af3f
00000640: dea7 628a 11f2 cfbf 6f33 adbc fc66 bebf
00000650: 98d6 02a1 019e c8bf 7649 b461 080c c13f
00000660: c5be d43b a761 ad3f d720 12d1 fe4d 8ebf
00000670: ebc7 6ded 5d79 923f a795 2c98 88c8 b23f
00000680: 3170 fe4f 3606 b53f 2160 e5fb d436 c53f
00000690: 6f84 01c9 1650 aabf 8f28 2187 a3f3 c6bf
000006a0: c374 1027 4c82 d2bf f423 f042 7c84 c93f
000006b0: add6 522d 4113 b0bf 6292 8472 3b04 c83f
000006c0: 9a0f cb28 dafd a43f 2667 3989 44cf a53f
000006d0: 0a9d d784 c02f c93f d690 a16f 2043 d0bf
000006e0: a988 cc46 6998 b8bf 769a 900c c50e babf
000006f0: 9538 ea61 6609 c13f 57fb 7b17 a2ee b1bf
00000700: ab1a 4ce8 0735 a4bf

bias f8 [15]
-0.00926738207448611 0.20663701074446084 0.06103369219008352 -0.018257346783735164 0.17836058111180175 0.13286006084745944 0.06979269889000898 0.1885150666298302
-0.025526182239638564 -0.01239950712803915 -0.24850714100269566 0.015906536977300115 -0.198719679582933 -0.013761644357653658 0.15664642484506264
00000000: d485 6ff7 c6fa 82bf 5834 a5e1 1473 ca3f
00000010: 3632 d2df ce3f af3f e738 64cd 0db2 92bf
00000020: bca7 62ff 84d4 c63f 7e67 24f8 8e01 c13f
00000030: 1b6f 3b2f efdd b13f 9c3b fdfe 4221 c83f
00000040: e7d8 a417 8923 9abf 76c3 cfac e964 89bf
00000050: bcea b6fd 14cf cfbf f4c2 70a0 cd49 903f
00000060: 8bad 707e a56f c9bf 2777 a4a3 102f 8cbf
00000070: c457 df73 fd0c c43f

weight f8 [1, 15]
-0.22181382746132847 -0.017525293112601894 0.07827597146656301 -0.04916925982570912 0.06539454989992681 -0.28014604304545265 -0.13588021929386365 -0.015865277143072124
-0.27122111268235743 -0.20373017920746875 0.10987226717322257 0.042869392073437956 0.06451259245972246 0.07384122667499902 0.16652801866847142
00000000: 739d 5f3f 6564 ccbf 27f4 1583 26f2 91bf
00000010: ccf2 82e1 e409 b43f 5603 d795 b62c a9bf
00000020: bb25 287d b2bd b03f 4efa 3eab e9ed d1bf
00000030: 8d2d 05e5 8564 c1bf 51c9 e2b9 fc3e 90bf
00000040: 3126 3dcc af5b d1bf 05c0 739c d413 cabf
00000050: cc11 3fc2 9620 bc3f dcdd e819 faf2 a53f
00000060: 6c70 cbb2 e583 b03f 9f67 aa35 42e7 b23f
00000070: d73d 0645 ca50 c53f

bias f8 [1]
0.15016034458117525
00000000: 31ed 9044 7438 c33f
